research/differential_privacy/multiple_teachers/checkpoint/mnist_10_teachers_8.pth (torch_old, 139301 bytes, 20 tensors)

conv1.weight f4 [16, 1, 5, 5]
-0.21082996 -0.004795882 -0.20049615 -0.12125403 -0.318982 -0.12107463 0.1328906 -0.012661743
-0.11809378 -0.41433504 0.11380554 0.17527393 -0.28131983 -0.3962622 -0.2517937 0.12728862
0.27471378 -0.041743565 0.08889683 -0.083607875 -0.06750205 0.3621551 0.18957244 -0.037611574
0.29978395 -0.15814508 -0.10863858 0.08125095 0.31397936 0.59225947 -0.059667334 -0.16601706
-0.1686174 -0.19504836 -0.40173423 0.12950628 -0.015798386 -0.2445075 -0.3515623 -0.22344215
-0.23536524 -0.29120728 0.034801617 0.016726457 0.084728256 -0.006460684 0.3086154 0.44654056
0.4147217 0.120056905 -0.14587766 0.021513522 0.09546167 -0.043780435 0.0726258 0.1716423
0.12331562 0.061654303 0.21899755 0.3933778 0.15000542 0.23750162 0.40838495 0.18096109
0.26997238 -0.19211127 -0.033309635 -0.07542827 0.22274816 -0.1411151 -0.2532047 -0.37643206
-0.32976767 -0.32451445 -0.3339343 0.117095366 0.15689524 0.04573008 -0.23620023 -0.5481625
-0.022402728 -0.17630036 -0.36060068 -0.45449656 -0.10184336 -0.083070055 -0.13797323 -0.59719175
-0.18307191 0.37010515 0.16128945 -0.19477855 -0.30621216 -0.29396194 0.19263376 0.22612022
-0.08533412 -0.34981987 -0.37718764 0.25949156 -0.15398139 -0.2551504 -0.009992309 -0.24550702
-0.3886366 -0.5204628 -0.35735783 -0.5214928 -0.46266225 -0.42109364 -0.074563846 -0.059029963
-0.008304803 0.072789416 -0.053049926 0.07784121 0.23526588 0.0122643765 0.007997036 0.3097822
0.15978062 -0.1266643 0.12412226 0.21025714 0.18038508 -0.024798611 0.11043284 0.18066971
-0.09893329 -0.3366422 -0.011300261 0.028730897 0.3905053 -0.17816037 -0.25241664 -0.44731033
0.14130332 0.39229694 0.22749518 -0.37225613 -0.17327347 -0.14321269 0.30572745 0.18956716
-0.15955152 -0.19449696 -0.1755354 0.12602335 0.3095313 -0.046053838 0.0829353 0.079224475
-0.03209569 -0.070856325 -0.12862371 0.024825884 0.10355958 0.23551524 0.32964247 0.20036975
-0.20328845 -0.025833832 0.20509541 0.11148701 0.15738131 -0.29476002 -0.08437145 -0.0016807494
-0.19744144 -0.1857613 -0.19843996 -0.24905054 -0.51641566 -0.32419327 -0.41906527 -0.013832339
-0.02041734 0.17726314 0.032957036 0.12642184 -0.21721517 0.08197537 -0.31494233 0.061634652
-0.35352996 0.111287124 -0.11809697 -0.022556065 -0.24695598 -0.104994595 -0.43565252 -0.17020099
-0.2640408 -0.010615158 0.11377682 -0.15891589 -0.12152997 -0.10425948 0.027820831 0.0057931445
-0.54214597 0.090224735 0.23868631 0.14677103 0.20647056 -0.05199745 0.38579258 0.08762925
-0.16398366 -0.110480815 0.08223282 0.06975415 -0.17211986 -0.49676132 -0.3387571 0.1700186
-0.28485784 -0.31989783 -0.11749792 0.14377832 -0.19585338 -0.08112858 0.03688502 0.2371984
0.18786073 0.1540149 0.22815357 0.14778638 0.1691496 0.3407546 -0.05577242 0.043422304
0.13748354 0.05670038 0.34553972 -0.16991901 0.027960356 0.07682844 0.01797212 0.16270855
-0.5050603 -0.4243406 -0.29093608 -0.10009522 0.08357793 -0.17108288 -0.23568706 -0.456486
-0.36398953 -0.18986738 0.036080573 -0.07442661 -0.15349394 0.079409875 -0.29543185 -0.115772724
00000000: cfe3 57be c626 9dbb dd4e 4dbe 0854 f8bd
00000010: 9c51 a3be faf5 f7bd 7914 083e 3373 4fbc
00000020: 27db f1bd b923 d4be e112 e93d 027b 333e
00000030: 2709 90be e1e2 cabe 1beb 80be f357 023e
00000040: 49a7 8c3e 4dfb 2abd 8b0f b63d 9b3a abbd
00000050: 843e 8abd 656c b93e 471f 423e 980e 1abd
00000060: 487d 993e c9f0 21be e77d debd e666 a63d
00000070: e7c1 a03e 519e 173f bc65 74bd 6000 2abe
00000080: 0aaa 2cbe c2ba 47be 1cb0 cdbe 4b9d 043e
00000090: 9e6b 81bc 2d60 7abe f9ff b3be 05ce 64be
000000a0: 9603 71be 1f19 95be 248c 0e3d ec05 893c
000000b0: 0286 ad3d 25b4 d3bb d602 9e3e f7a0 e43e
000000c0: 6756 d43e 65e0 f53d f460 15be 203d b03c
000000d0: 6881 c33d 1d53 33bd d6bc 943d 00c3 2f3e
000000e0: e68c fc3d 3989 7c3d e540 603e d168 c93e
000000f0: 059b 193e a033 733e d517 d13e dd4d 393e
00000100: d239 8a3e d1b8 44be af6f 08bd 237a 9abd
00000110: 1818 643e 7a80 10be 0ca4 81be b4bb c0be
00000120: 4fd7 a8be c226 a6be 70f9 aabe b2cf ef3d
00000130: 25a9 203e 774f 3b3d 79de 71be 6154 0cbf
00000140: ed85 b7bc 1588 34be a7a0 b8be c6b3 e8be
00000150: 4093 d0bd a220 aabd db48 0dbe 8fe1 18bf
00000160: 3477 3bbe 6c7e bd3e 1029 253e 0774 47be
00000170: d7c7 9cbe 2e82 96be c941 453e 0f8c 673e
00000180: a8c3 aebd 971b b3be bd1e c1be 14dc 843e
00000190: 4cad 1dbe 13a3 82be c8b6 23bc 3166 7bbe
000001a0: 60fb c6be 0d3d 05bf 9bf7 b6be 8d80 05bf
000001b0: 11e2 ecbe 9699 d7be eeb4 98bd 67c9 71bd
000001c0: de10 08bc 9e12 953d e14a 59bd 366b 9f3d
000001d0: 8ae9 703e 86f0 483c 0006 033c c69b 9e3e
000001e0: 889d 233e 49b4 01be d033 fe3d a64d 573e
000001f0: deb6 383e 7526 cbbc 9d2a e23d 7b01 393e
00000200: 899d cabd 5e5c acbe bb24 39bc 0f5d eb3c
00000210: 50f0 c73e ac6f 36be c13c 81be dc05 e5be
00000220: d1b1 103e 25db c83e 7ff4 683e 5b98 bebe
00000230: 9a6e 31be 59a6 12be 4f88 9c3e e51d 423e
00000240: 7961 23be 362a 47be 8dbf 33be 440c 013e
00000250: e37a 9e3e f3a2 3cbd fcd9 a93d 7140 a23d
00000260: c576 03bd 1f1d 91bd efb5 03be a75f cb3c
00000270: 0c17 d43d e82a 713e e6c6 a83e ba2d 4d3e
00000280: d92a 50be 79a1 d3bc 8804 523e 4d53 e43d
00000290: 9128 213e c9ea 96be f0ca acbd 974c dcba
000002a0: 172e 4abe 3638 3ebe d833 4bbe 1b07 7fbe
000002b0: d133 04bf a9fc a5be b98f d6be 09a1 62bc
000002c0: 4442 a7bc 7884 353e f5fd 063d ba74 013e
000002d0: a76d 5ebe b4e2 a73d 1f40 a1be 9e74 7c3d
000002e0: e101 b5be 81ea e33d d3dc f1bd 7fc7 b8bc
000002f0: 07e2 7cbe 6807 d7bd d90d dfbe 2b49 2ebe
00000300: 5b30 87be 33eb 2dbc d203 e93d d9ba 22be
00000310: b4e4 f8bd ff85 d5bd 83e8 e33c 6bd4 bd3b
00000320: 14ca 0abf bfc7 b83d 2f6a 743e 254b 163e
00000330: 056d 533e 47fb 54bd 9b86 c53e f776 b33d
00000340: 55eb 27be c443 e2bd ae69 a83d 44db 8e3d
00000350: 3040 30be 8057 febe 9271 adbe 5b19 2e3e
00000360: e3d8 91be a6c9 a3be c0a2 f0bd a03a 133e
00000370: ca8d 48be be26 a6bd bf14 173d 23e4 723e
00000380: 905e 403e 15b6 1d3e 17a1 693e 5055 173e
00000390: 8e35 2d3e 6377 ae3e 9f71 64bd 96db 313d
000003a0: 7cc8 0c3e a83e 683d 95ea b03e 40ff 2dbe
000003b0: 1e0d e53c 3b58 9d3d 443a 933c 129d 263e
000003c0: a24b 01bf 2c43 d9be 93f5 94be b9fe ccbd
000003d0: e82a ab3d 5a30 2fbe f357 71be 88b8 e9be
000003e0: d65c babe 986c 42be 39c9 133d fa6c 98bd
000003f0: 842d 1dbe a5a1 a23d d842 97be 401a edbd

conv1.bias f4 [16]
0.20226073 -0.02904582 0.102476485 -0.084533215 -0.073187515 0.09315511 0.03438034 -0.14892936
-0.058476973 -0.06582848 0.19665295 0.061614424 0.13542499 -0.05202908 -0.024808694 0.36341506
00000000: 701d 4f3e 80f1 edbc 31df d13d c01f adbd
00000010: 56e3 95bd 1bc8 be3d 66d2 0c3d f080 18be
00000020: 8d85 6fbd 15d1 86bd 645f 493e 685f 7c3d
00000030: d9ac 0a3e 721c 55bd 9a3b cbbc 8a11 ba3e

batchnorm1.weight f4 [16]
0.12839533 0.43405813 0.15544422 0.74240875 0.71728945 0.35695243 0.94471234 0.056988034
1.0379546 0.8618343 0.068967104 0.53963584 0.64781505 0.6600792 1.0218861 0.8024404
00000000: 117a 033e de3c de3e c52c 1f3e 800e 3e3f
00000010: 48a0 373f 78c2 b63e abd8 713f 496c 693d
00000020: b2db 843f 2ca1 5c3f a03e 8d3d 9325 0a3f
00000030: 35d7 253f f3fa 283f 2acd 823f bc6c 4d3f

batchnorm1.bias f4 [16]
-0.5475399 -0.14398241 -0.19382404 -0.056669362 0.058877435 -0.36266407 0.043940503 -0.21185912
-0.32862568 0.1768384 -0.11371061 -0.26328987 -0.15064904 -0.30775648 -0.12577276 -0.47371748
00000000: 932b 0cbf 2070 13be cf79 46be 221e 68bd
00000010: 7729 713d 1baf b9be f5fa 333d 99f1 58be
00000020: a041 a8be 2015 353e 1ce1 e8bd eecd 86be
00000030: be43 1abe 4292 9dbe 93ca 00be 198b f2be

batchnorm1.running_mean f4 [16]
-42.431763 -5.3486414 18.241983 -137.4203 -109.73432 -7.968649 -69.87099 -91.97103
-35.9524 -49.84412 -95.117065 -24.246113 -29.177284 -26.594181 -128.10551 -7.371115
00000000: 20ba 29c2 1228 abc0 95ef 9141 996b 09c3
00000010: f977 dbc2 2cff fec0 f2bd 8bc2 2bf1 b7c2
00000020: 42cf 0fc2 6160 47c2 f03b bec2 0af8 c1c1
00000030: 146b e9c1 e2c0 d4c1 031b 00c3 2de0 ebc0

batchnorm1.running_var f4 [16]
18363.71 11974.529 19964.902 55992.58 47702.344 8714.671 22280.574 18760.99
10157.099 33210.582 16214.624 12748.03 26596.791 5144.7554 54577.18 8998.952
00000000: 6c77 8f46 1e1a 3b46 cef9 9b46 94b8 5a47
00000010: 5856 3a47 af2a 0846 2611 ae46 fb91 9246
00000020: 65b4 1e46 95ba 0147 7f5a 7d46 1f30 4746
00000030: 95c9 cf46 0bc6 a045 2e31 5547 cf9b 0c46

conv2.weight f4 [16, 16, 5, 5]
-0.21581934 -0.073883794 -0.11651748 -0.13990884 -0.12248544 0.007307456 -0.0016215488 0.004562258
0.03487 -0.023415094 0.19264702 -0.0054589356 0.010190571 0.05075898 -0.08771848 0.104570754
0.018902427 0.27118492 0.31513366 0.08800549 -0.10221323 0.1977861 0.32476893 0.536449
0.18557318 -0.060270265 0.24873318 0.2049571 0.3268756 0.24537495 0.06047861 0.14719005
0.2846307 0.10613281 -0.36575592 -0.19143574 -0.2627791 -0.24712828 -0.11321143 -0.2283937
-0.32458475 -0.26451728 0.064129345 0.031113163 0.22577168 -0.26167843 -0.19585402 -0.17594187
-0.020654691 0.30547914 -0.23203875 -0.1923889 -0.13016024 -0.00891504 0.08768941 -0.37775978
-0.23090838 0.0028511595 0.16407005 -0.092777014 -0.3347077 -0.28790778 -0.39353618 -0.43155175
-0.25930995 -0.13981918 -0.07530328 -0.06944484 0.0028196285 0.03125423 -0.02506663 -0.107858576
-0.037566513 0.031000309 0.230532 0.0044255545 0.020383086 0.32311583 0.31528032 0.22838564
-0.016961254 0.17768642 0.020104136 -0.2861545 -0.18689784 0.012447405 -0.10140874 -0.19378695
-0.17338674 0.00039152626 -0.055603158 -0.20344605 -0.17614223 -0.17648613 -0.15452002 -0.114456795
-0.23897514 -0.27554587 -0.19667704 -0.052876912 -0.29798463 -0.35020548 0.05043027 0.48315528
0.42687976 -0.1639204 0.043325514 0.30562082 0.32035625 0.18129675 -0.07760317 0.11205265
-0.05337325 -0.380401 -0.42697054 -0.18291 -0.2478867 -0.31231388 -0.23413484 -0.021133756
-0.39636838 -0.5246792 -0.20771798 0.078500256 0.087086596 0.020706981 -0.04695878 -0.15631065
-0.3712107 -0.28299412 -0.074453786 -0.196392 -0.20858233 -0.19209209 0.066388644 0.13015798
-0.07120562 0.06334612 -0.017256927 0.29434383 0.20127536 0.18117708 0.19324277 -0.080992185
0.03193415 0.51667875 0.24541594 0.22526601 0.13662304 0.031557467 -0.16866806 0.01715346
-0.10344227 -0.14299095 -0.17557576 -0.3371636 -0.14533554 -0.23779996 -0.1462011 -0.16052252
-0.57431465 -0.6512066 -0.22466347 -0.062145058 0.03166971 -0.19457307 -0.14722742 -0.120488934
-0.09769295 0.11669678 0.31150308 0.24055018 0.19860421 0.02475826 -0.018350989 0.058329217
-0.06831016 -0.12901358 -0.0611137 -0.04164558 -0.015525485 -0.18678474 -0.20139727 -0.0055378177
-0.0127457185 -0.12262274 -0.1640712 -0.12570582 -0.06432814 -0.07591581 -0.16942829 -0.1404147
-0.058752835 0.038579516 -0.08065386 -0.14956388 -0.14636607 -0.08017357 0.033852495 0.18466665
0.043096855 0.36681423 0.5089384 -0.09749476 -0.1364529 0.34955665 0.47865084 0.08513226
-0.15731947 0.001417338 0.052185364 0.26931134 -0.109340474 -0.0060878387 -0.019975396 0.0125447195
0.11991051 -0.0034440565 -0.040933974 -0.091792814 -0.02234185 -0.30916777 -0.032053508 0.08666724
0.28855088 -0.18336126 -0.19032061 -0.23605664 -0.2611188 -0.2561741 -0.44712698 -0.48453063
-0.50545055 -0.23586908 -0.1636614 -0.40752667 -0.6087455 -0.31149003 0.075875305 0.0513563
-0.12865825 -0.2611734 -0.25029603 -0.07538454 -0.030029414 0.34096456 0.15742922 0.04080568
0.06746703 -0.033907846 0.0044134506 -0.012857933 0.046888772 -0.15177087 -0.1365235 -0.07958894
00000000: bfff 5cbe 6350 97bd b7a0 eebd 4344 0fbe
00000010: a5d9 fabd 6273 ef3b 268a d4ba fe7e 953b
00000020: d8d3 0e3d 03d1 bfbc 4345 453e dfe0 b2bb
00000030: 5af6 263c a6e8 4f3d bfa5 b3bd 3129 d63d
00000040: 43d9 9a3c c0d8 8a3e 3359 a13e 393c b43d
00000050: 2c55 d1bd 7088 4a3e 1d48 a63e b954 093f
00000060: e506 3e3e f4dd 76bd e9b3 7e3e 46e0 513e
00000070: 3d5c a73e 9243 7b3e 6bb8 773d fdb8 163e
00000080: 1dbb 913e 295c d93d 5c44 bbbe bb07 44be
00000090: fb8a 86be 320f 7dbe 65db e7bd 0ae0 69be
000000a0: f92f a6be cf6e 87be 3f56 833d 08e1 fe3c
000000b0: b130 673e b7fa 85be f58d 48be 1b2a 34be
000000c0: 0734 a9bc c367 9c3e 919b 6dbe 9901 45be
000000d0: ba48 05be 6310 12bc 8196 b33d bb69 c1be
000000e0: 3f73 6cbe 85da 3a3b fb01 283e e001 bebd
000000f0: cf5e abbe a668 93be 937d c9be 5af4 dcbe
00000100: 46c4 84be c22c 0fbe 9b38 9abd 1939 8ebd
00000110: 84c9 383b 6f04 003d 8958 cdbc f5e4 dcbd
00000120: 58df 19bd 5cf4 fd3c 9510 6c3e 3e04 913b
00000130: 6efa a63c 706f a53e 6c6c a13e eddd 693e
00000140: 54f2 8abc 6ef3 353e 6eb1 a43c d882 92be
00000150: 2662 3fbe 33f0 4b3c 63af cfbd 1670 46be
00000160: 4b8c 31be c445 cd39 23c0 63bd 2954 50be
00000170: a15e 34be c8b8 34be 7f3a 1ebe 5368 eabd
00000180: e6b5 74be 5914 8dbe b565 49be 7695 58bd
00000190: 7191 98be 224e b3be f98f 4e3d 2160 f73e
000001a0: fc8f da3e c0da 27be 1876 313d 557a 9c3e
000001b0: bc05 a43e dba5 393e 69ee 9ebd dc7b e53d
000001c0: e99d 5abd ebc3 c2be e29b dabe c24c 3bbe
000001d0: 03d6 7dbe 9be7 9fbe 0bc1 6fbe b320 adbc
000001e0: ccf0 cabe 6051 06bf 06b4 54be bec4 a03d
000001f0: 755a b23d b0a1 a93c da57 40bd e60f 20be
00000200: 540f bebe 9be4 90be 3a7b 98bd fc1a 49be
00000210: 9b96 55be cab3 44be c5f6 873d 2248 053e
00000220: 41d4 91bd 9cbb 813d 665e 8dbc 3cb4 963e
00000230: 211b 4e3e 7c86 393e 6fe1 453e 3bdf a5bd
00000240: 62cd 023d 0f45 043f 514e 7b3e 22ac 663e
00000250: e9e6 0b3e 6742 013d 52b7 2cbe 6a85 8c3c
00000260: 8ad9 d3bd 386c 12be 22ca 33be b5a0 acbe
00000270: d7d2 14be d581 73be beb5 15be 0460 24be
00000280: 4906 13bf 7ab5 26bf 2e0e 66be d18b 7ebd
00000290: 19b8 013d 2a3e 47be c9c2 16be e7c2 f6bd
000002a0: 3e13 c8bd b9fe ee3d 557d 9f3e c952 763e
000002b0: e75e 4b3e d6d1 ca3c d054 96bc 9eea 6e3d
000002c0: 32e6 8bbd 231c 04be 5c52 7abd 8e94 2abd
000002d0: 9b5e 7ebc 8044 3fbe 163b 4ebe 9576 b5bb
000002e0: 6bd3 50bc a221 fbbd 4802 28be 07b9 00be
000002f0: 79be 83bd c079 9bbd 9c7e 2dbe dfc8 0fbe
00000300: d0a6 70bd 8e05 1e3d da2d a5bd 4627 19be
00000310: fde0 15be 0a32 a4bd eaa8 0a3d 4119 3d3e
00000320: 5486 303d 13cf bb3e c949 023f 55ab c7bd
00000330: 4fba 0bbe 17f9 b23e b911 f53e d359 ae3d
00000340: 5b18 21be f9c5 b93a 52c0 553d 2de3 893e
00000350: e6ed dfbd 7e7c c7bb 71a3 a3bc 5e88 4d3c
00000360: a493 f53d aeb5 61bb 62aa 27bd dffd bbbd
00000370: 4106 b7bc 3d4b 9ebe 8a4a 03bd 987e b13d
00000380: f1bc 933e 0ec3 3bbe 68e3 42be d5b8 71be
00000390: 5db1 85be 4029 83be d4ed e4be 6614 f8be
000003a0: 3565 01bf aa87 71be db96 27be 56a7 d0be
000003b0: bfd6 1bbf 9f7b 9fbe 8364 9b3d fc5a 523d
000003c0: fdbe 03be 85b8 85be cd26 80be 3663 9abd
000003d0: 3f00 f6bc e892 ae3e 2035 213e db23 273d
000003e0: 272c 8a3d f4e2 0abd b59e 903b 14aa 52bc
000003f0: 710e 403d d369 1bbe d1cc 0bbe 87ff a2bd

conv2.bias f4 [16]
0.111484 0.0451499 -0.19929653 0.30951825 0.076235846 0.21592382 -0.058826063 -0.29345232
0.010547987 -0.08589295 0.10950263 0.085882545 0.081952184 -0.21294123 0.14575152 0.21663104
00000000: b951 e43d 1aef 383d 6414 4cbe 2d79 9e3e
00000010: 8a21 9c3d 221b 5d3e 99f3 70bd 623f 96be
00000020: 77d1 2c3c a5e8 afbd ea42 e03d 30e3 af3d
00000030: 8cd6 a73d 440d 5abe e33f 153e 87d4 5d3e

batchnorm2.weight f4 [16]
0.31809816 0.45976648 0.47163856 0.33650196 0.48944268 0.51072747 0.6546698 0.5225014
0.92639935 0.72837704 0.3337464 0.56045556 0.5168839 0.5452826 0.4286897 0.24128555
00000000: c3dd a23e 8366 eb3e 9c7a f13e fc49 ac3e
00000010: 3b98 fa3e 09bf 023f 7198 273f a7c2 053f
00000020: 8228 6d3f eb76 3a3f cfe0 aa3e 047a 0f3f
00000030: 8152 043f a497 0b3f 377d db3e 8f13 773e

batchnorm2.bias f4 [16]
-0.25160596 -0.023332795 -0.21808064 -0.20345762 -0.016855072 -0.19762626 -0.34130785 -0.40551215
-0.23452182 -0.19455823 -0.12669563 -0.2747682 -0.23556069 -0.23010236 0.04980262 -0.08626391
00000000: 7fd2 80be 6b24 bfbc 8850 5fbe 3257 50be
00000010: a613 8abc 8a5e 4abe e7bf aebe 4a9f cfbe
00000020: 7d26 70be 463a 47be 80bc 01be 6bae 8cbe
00000030: d236 71be f49f 6bbe d5fd 4b3d 22ab b0bd

batchnorm2.running_mean f4 [16]
-2.772567 -2.2560577 -0.51301414 -0.05482774 -0.7444472 -2.8794513 -0.696051 -1.5668513
-2.4563332 -2.030227 2.3769 -1.5194916 -0.6606879 -2.5816777 -1.6997771 5.2998495
00000000: bd71 31c0 4063 10c0 e554 03bf 0d93 60bd
00000010: 1794 3ebf ee48 38c0 6630 32bf 958e c8bf
00000020: 9034 1dc0 3def 01c0 211f 1840 b37e c2bf
00000030: d822 29bf 353a 25c0 4c92 d9bf 5e98 a940

batchnorm2.running_var f4 [16]
7.2899985 4.4033785 8.510452 5.4922724 10.786796 5.9064717 8.561163 6.809003
8.331594 12.305025 7.121579 10.637443 6.8209767 6.7631097 5.2222633 5.36736
00000000: ab47 e940 7ae8 8c40 d02a 0841 b2c0 af40
00000010: b796 2c41 d101 bd40 86fa 0841 5ae3 d940
00000020: 364e 0541 62e1 4441 fae3 e340 f732 2a41
00000030: 7145 da40 656b d840 c81c a740 6ac1 ab40

linear1.weight f4 [100, 256]
0.085569546 -0.036257148 -0.1499217 0.35565662 0.24839778 0.22349562 -0.076838754 0.007829712
0.3686496 0.4406581 0.4095367 0.18651623 0.7405586 0.527248 0.23106137 -0.09247408
-0.36306 -0.23606677 -0.2096288 -0.13253899 0.050562676 -0.16094878 -0.07804099 -0.28608125
0.056449257 0.4498105 0.04996582 0.061472964 -0.13138421 0.3913603 -0.25763702 0.019506527
0.046223905 -0.06172112 0.30044997 0.573798 0.23867455 0.40567335 0.18822399 0.06695005
-0.25455716 0.09744999 0.21465713 -0.1622712 -0.116290055 -0.14144875 0.34210026 -0.24597226
0.18255292 0.14242591 0.06941754 0.21908726 0.1427572 0.0814439 0.087672696 0.21149197
-0.116287574 -0.015758054 0.23420231 0.08184885 -0.18662615 0.118537135 0.07361401 0.2374191
0.12911448 0.122815184 0.054273084 0.045311194 -0.13951382 -0.11927517 0.33988816 -0.04701376
-0.42396724 -0.012252263 0.06443096 0.22301067 0.059033953 0.43972474 0.46297786 0.17070462
0.10265847 0.053223696 -0.15938927 0.25949556 0.02125078 0.14682136 0.35816452 0.52529186
0.085986316 0.27170628 0.077279605 0.2639483 -0.08815581 0.16307256 0.28959194 0.043782525
0.15832227 0.23154831 0.19868872 -0.20445472 0.17841285 0.08741611 -0.07222349 0.031397656
0.0193757 0.13756952 -0.0134025635 0.10857617 0.24903318 0.02629607 0.028296042 -0.06771721
-0.047322 0.06881906 0.1038131 0.28580227 0.30448937 -0.1833199 0.18444102 0.08231602
0.2446991 -0.036802534 -0.024828218 -0.016030181 -0.22860296 -0.22377656 0.16981691 -0.032304488
-0.020172056 -0.17190152 0.1088323 -0.024658097 0.20991468 -0.04138676 -0.14851317 -0.13794996
0.2747419 0.29705504 0.034408074 0.02912062 0.76976043 0.26344922 0.08363074 -0.017082278
0.22868937 0.24262528 0.027898166 -0.31386083 0.09464438 0.015599233 0.0032950805 -0.1176574
0.13724968 0.2751029 -0.23081559 -0.045709133 -0.055877715 -0.24573694 0.081853576 -0.049456667
0.24210873 0.053380217 0.47261435 0.3200863 -0.09259324 0.050346263 0.12857777 -0.24960852
-0.33064812 -0.28092343 0.08082618 0.3206482 -0.069780834 0.0038390714 -0.0207632 0.241504
0.19637734 0.36267713 0.054260407 0.32535815 0.3452781 0.084008224 -0.15393919 -0.24774414
0.13021289 0.012717195 0.19634877 -0.27856457 -0.019456659 -0.06471597 0.087052576 0.32296875
0.13159339 -0.10190063 -0.21392408 -0.14782706 0.19873837 0.2697276 0.059475053 0.2310232
0.57893854 0.29431137 0.58550304 0.31665385 0.11591611 0.10854391 0.10121927 0.1066699
0.24952158 -0.19633596 -0.07411471 0.09509519 0.19379042 -0.075585686 -0.341325 -0.086366236
0.104299836 0.38690126 0.24135073 0.4555758 0.54132384 0.4774207 -0.13848369 -0.01490131
-0.15893361 -0.0831892 0.13007903 0.3146447 0.31917024 -0.22630937 -0.17952704 0.26993233
-0.11975403 -0.104491286 -0.14844583 0.121442385 -0.03991042 -0.05702599 0.06839082 0.026889976
-0.011908599 0.035415947 0.08972034 0.40253896 -0.24320184 0.037747175 -0.0040492965 0.19098336
-0.36935323 -0.18147194 0.205922 0.13594306 -0.36814314 -0.09718963 0.25372896 0.0014351233
00000000: 163f af3d 6082 14bd 1385 19be a018 b63e
00000010: fd5b 7e3e 09dc 643e a35d 9dbd 3148 003c
00000020: a4bf bc3e f09d e13e cbae d13e 1cfe 3e3e
00000030: 4095 3d3f baf9 063f 5a9b 6c3e 0d63 bdbd
00000040: 00e3 b9be 7dbb 71be efa8 56be 4db8 07be
00000050: cf1a 4f3d c2cf 24be f4d3 9fbd 3e79 92be
00000060: 5637 673d 904d e63e f6a8 4c3d 13cb 7b3d
00000070: 9589 06be 6160 c83e 00e9 83be 27cc 9f3c
00000080: 4755 3d3d 49cf 7cbd 94d4 993e 6de4 123f
00000090: 1a67 743e 6bb4 cf3e cabd 403e 1c1d 893d
000000a0: 5155 82be dc93 c73d 14cf 5b3e 6c2a 26be
000000b0: 7b29 eebd f1d7 10be c427 af3e 27e0 7bbe
000000c0: 27ef 3a3e 19d8 113e c92a 8e3d 6958 603e
000000d0: f22e 123e 0fcc a63d be8d b33d 5a91 583e
000000e0: 2e28 eebd 0917 81bc bbd2 6f3e 5fa0 a73d
000000f0: ed1a 3fbe 99c3 f23d f1c2 963d fe1d 733e
00000100: 9636 043e 8786 fb3d 744d 5e3d 3b98 393d
00000110: b6dc 0ebe 8a46 f4bd d205 ae3e 8091 40bd
00000120: 3c12 d9be b7bd 48bc 61f4 833d e95c 643e
00000130: 96cd 713d 9a23 e13e 6f0b ed3e 31cd 2e3e
00000140: 9b3e d23d 1701 5a3d f136 23be 9adc 843e
00000150: 1e16 ae3c 5758 163e 5761 b73e 8779 063f
00000160: 9819 b03d 161d 8b3e c544 9e3d 3b24 873e
00000170: 098b b4bd 7efc 263e 6545 943e 4e55 333d
00000180: 3c1f 223e 001b 6d3e 0e75 4b3e 945c 51be
00000190: dcb1 363e 3807 b33d e9e9 93bd d49a 003d
000001a0: cab9 9e3c 06df 0c3e 6d96 5bbc 2f5d de3d
000001b0: 8e02 7f3e db6a d73c 1acd e73c 52af 8abd
000001c0: b7d4 41bd 02f1 8c3d f69b d43d ad54 923e
000001d0: 08e6 9b3e 36b8 3bbe 1bde 3c3e 4d95 a83d
000001e0: 6792 7a3e 41be 16bd 8c64 cbbc ba51 83bc
000001f0: e516 6abe af25 65be 7ce4 2d3e b651 04bd
00000200: de3f a5bc f406 30be 78e3 de3d c7ff c9bc
00000210: e0f3 563e 2a85 29bd d613 18be c142 0dbe
00000220: f8aa 8c3e 9917 983e 7bef 0c3d 5e8e ee3c
00000230: 050f 453f d1e2 863e 9846 ab3d 22f0 8bbc
00000240: 8c2d 6a3e c372 783e b28a e43c 5eb2 a0be
00000250: ead4 c13d ed93 7f3c 47f2 573b 5df6 f0bd
00000260: 2e8b 0c3e 4ada 8c3e ec5a 6cbe 8039 3bbd
00000270: 08e0 64bd 77a2 7bbe d9a2 a73d 1393 4abd
00000280: 5aeb 773e 37a5 5a3d 82fa f13e 5ae2 a33e
00000290: 86a1 bdbd e237 4e3d e4a9 033e 6099 7fbe
000002a0: b64a a9be 32d5 8fbe 3288 a53d 002c a43e
000002b0: 41e9 8ebd ee98 7b3b 9617 aabc d34c 773e
000002c0: 2417 493e d1b0 b93e 2940 5e3d 5895 a63e
000002d0: 4bc8 b03e 810c ac3d 3ca2 1dbe a4b0 7dbe
000002e0: 8756 053e c85b 503c a70f 493e 04a0 8ebe
000002f0: 9263 9fbc ce89 84bd 9f48 b23d 295c a53e
00000300: 6bc0 063e 47b1 d0bd ea0e 5bbe fa5f 17be
00000310: 1282 4b3e bc19 8a3e 1d9c 733d 5991 6c3e
00000320: 5135 143f fbaf 963e 87e3 153f 7420 a23e
00000330: 6d65 ed3d 454c de3d 0c4c cf3d c075 da3d
00000340: 9682 7f3e 4b0c 49be 74c9 97bd 44c1 c23d
00000350: ff70 463e abcc 9abd 27c2 aebe c8e0 b0bd
00000360: 279b d53d ec17 c63e a524 773e 3b41 e93e
00000370: 3394 0a3f 7c70 f43e abce 0dbe a024 74bc
00000380: 7ebf 22be 195f aabd 7033 053e 1c19 a13e
00000390: 486a a33e a5bd 67be f0d5 37be 9234 8a3e
000003a0: 9a41 f5bd 87ff d5bd 2f02 18be c9b6 f83d
000003b0: 1c79 23bd 1694 69bd 7c10 8c3d 5e48 dc3c
000003c0: 491c 43bc 5010 113d 4cbf b73d 9619 ce3e
000003d0: e709 79be c89c 1a3d f6af 84bb 2491 433e
000003e0: de1b bdbe c8d3 39be 37dd 523e a834 0b3e
000003f0: 427d bcbe 5b0b c7bd c3e8 813e bf1a bc3a

linear1.bias f4 [100]
-0.04751052 0.048174728 -0.08924573 0.049956758 0.040184975 0.0012098094 -0.043886073 -0.041171316
0.0020138565 0.0831755 0.029399076 -0.014828782 -0.014383638 -0.10116641 0.059326477 0.0035015559
0.071845 0.017967705 -0.04330813 -0.015613867 -0.0074631525 -0.09001934 -0.0732762 0.10501991
-0.004164816 0.12276959 0.012308712 0.074264295 -0.14183715 0.014771927 0.1629729 -0.031064438
0.07101111 0.011989396 0.04027752 0.036529284 -0.0022224726 0.02015652 -0.0015352701 0.06606375
-0.032823555 -0.0066330447 0.029639702 -0.030147374 0.012274358 0.07655757 0.035286568 0.088340424
-0.08130212 0.025972862 -0.18397479 0.011297078 0.06567239 -0.08521145 -0.004856711 0.10097764
-0.017540656 -0.037219252 -0.033322405 0.06677894 0.046395373 -0.13913971 0.029696476 0.113002375
0.13989355 0.036694847 -0.043147538 -0.056796286 -0.028699752 -0.18430482 0.080485724 0.018987972
-0.08807382 -0.10038601 -0.02257958 0.0910889 -0.01604664 -0.03754412 -0.052117553 -0.058266386
-0.08123554 -0.0051250006 -0.075803645 0.0636864 -0.024785662 -0.009447514 0.08741737 0.10627567
-0.14481552 -0.03640808 0.026800215 -0.024251271 0.07243748 -0.022941347 0.16210043 -0.045349553
0.037770905 0.05557279 0.046574622 0.035172805
00000000: 649a 42bd dd52 453d 77c6 b6bd 759f 4c3d
00000010: 0099 243d 7892 9e3a e2c1 33bd 41a3 28bd
00000020: e8fa 033b eb57 aa3d 55d6 f03c 6bf4 72bc
00000030: 5aa9 6bbc 5630 cfbd 5200 733d 5c7a 653b
00000040: 7923 933d 0231 933c de63 31bd 4ed1 7fbc
00000050: 768d f4bb 0f5c b8bd d511 96bd ae14 d73d
00000060: 0279 88bb 9f6e fb3d 7baa 493c e117 983d
00000070: c23d 11be f405 723c 5ee2 263e d97a febc
00000080: 466e 913d 2c6f 443c 0afa 243d bb9f 153d
00000090: e7a6 11bb 491f a53c 1e3b c9ba 6e4c 873d
000000a0: fe71 06bd 035a d9bb f6ce f23c a0f7 f6bc
000000b0: 641a 493c 37ca 9c3d a688 103d d3eb b43d
000000c0: ba81 a6bd 0ac5 d43c e363 3cbe 6117 393c
000000d0: 3f7f 863d 5783 aebd 0b25 9fbb 5dcd ce3d
000000e0: 6cb1 8fbc 3773 18bd 137d 08bd 66c3 883d
000000f0: 1309 3e3d a47a 0ebe 0646 f33c ca6d e73d
00000100: 4140 0f3e 564d 163d 79bb 30bd 39a3 68bd
00000110: be1b ebbc 67ba 3cbe b3d5 a43d aa8c 9b3c
00000120: 0c60 b4bd 2e97 cdbd d0f8 b8bc d18c ba3d
00000130: 3e74 83bc ddc7 19bd 3779 55bd bca8 6ebd
00000140: d25e a6bd 9fef a7bb f13e 9bbd 046e 823d
00000150: 4d0b cbbc bfc9 1abc e107 b33d 0fa7 d93d
00000160: 854a 14be a420 15bd 208c db3c 9aaa c6bc
00000170: 1a5a 943d 7eef bbbc a8fd 253e 74c0 39bd
00000180: aab5 1a3d 4ba0 633d 08c5 3e3d 5c11 103d

batchnorm3.weight f4 [100]
0.7629438 1.1062064 0.61946464 1.0326605 0.58119434 0.65597266 1.0781872 0.80013484
0.5786806 0.65361404 0.673471 1.0761139 0.82791644 0.6747959 0.7610037 0.9027797
0.7238854 0.31415892 1.3634378 0.91837806 0.651066 1.4937909 0.9097354 0.9616688
1.3509498 0.76796484 1.1559546 0.4982792 1.0418377 1.1565872 1.1362678 1.1305898
1.152374 1.2364835 0.700298 0.9124747 0.74709177 0.50509214 0.9692049 0.7361596
0.86624503 0.7718274 0.62081414 0.57795894 0.7129545 0.6926679 0.7059542 0.8500959
0.7001272 0.7765852 1.1651738 0.48227146 0.44803768 0.99532634 0.62784755 1.2663715
0.38894445 1.3625549 1.332091 0.56633365 0.7715024 1.5526583 1.1827886 0.734341
1.1970283 1.2523832 0.59128344 1.0327218 0.9276825 1.0337168 0.90348995 1.1830946
0.47427398 0.64427656 0.78127396 0.838995 1.0105901 1.0032663 0.5080088 0.8045437
0.65303934 0.8621836 1.0962965 0.5728598 0.024205945 0.45393494 1.2325828 1.0813375
1.2506013 0.906495 0.8900386 0.8890448 0.4321278 1.1614349 1.1742947 0.94267696
0.89424974 0.54076856 1.1900568 0.68350405
00000000: 4950 433f 2c98 8d3f 3c95 1e3f 382e 843f
00000010: 27c9 143f d3ed 273f 0a02 8a3f a3d5 4c3f
00000020: 6924 143f 4053 273f 9868 2c3f 1abe 893f
00000030: 55f2 533f 6dbf 2c3f 23d1 423f 921c 673f
00000040: 8e50 393f 70d9 a03e 2185 ae3f d31a 6b3f
00000050: 43ac 263f 8a34 bf3f 6be4 683f ed2f 763f
00000060: eceb ac3f 5899 443f 52f6 933f 741e ff3e
00000070: f05a 853f 0d0b 943f 3971 913f 2bb7 903f
00000080: fe80 933f 1745 9e3f bb46 333f f197 693f
00000090: 6841 3f3f b84d 013f d01d 783f f574 3c3f
000000a0: 3cc2 5d3f 7b96 453f aded 1e3f 1ef5 133f
000000b0: 3084 363f af52 313f 6ab9 343f e39f 593f
000000c0: 893b 333f 4ace 463f 6a24 953f 49ec f63e
000000d0: 3265 e53e b5cd 7e3f 9eba 203f 7618 a23f
000000e0: ba23 c73e 3368 ae3f f581 aa3f 3efb 103f
000000f0: 2e81 453f 82bd c63f 9e65 973f c6fd 3b3f
00000100: 3938 993f 184e a03f 5a5e 173f 3a30 843f
00000110: 9a7c 6d3f d550 843f 1e4b 673f a56f 973f
00000120: 0ad4 f23e 4fef 243f 9201 483f 60c8 563f
00000130: 045b 813f 086b 803f dd0c 023f 93f6 4d3f
00000140: 962d 273f 10b8 5c3f 7253 8c3f f1a6 123f
00000150: 8c4b c63c 296a e83e 46c5 9d3f 4469 8a3f
00000160: b413 a03f 0e10 683f 92d9 633f 7198 633f
00000170: db3f dd3e e6a9 943f 4a4f 963f 4753 713f
00000180: 8ded 643f cf6f 0a3f c853 983f 1ffa 2e3f

batchnorm3.bias f4 [100]
0.20268579 0.3036015 0.13977998 -0.10733787 0.18619275 0.059998453 0.10923882 0.031272616
0.1263299 0.040499166 0.265443 0.030326005 -0.00039201742 0.10251846 0.27177978 0.0704895
0.18673544 0.11029596 0.28010935 0.25178275 0.16540113 0.3044288 0.33460665 0.18770279
0.3282347 -0.018399585 0.1643124 0.075151905 0.27099368 0.3259159 0.24167648 0.2318994
0.069360614 0.09731456 0.24925618 0.23433378 0.28487226 0.12756151 0.086240105 0.29707193
0.1454305 0.14686874 -0.04658159 0.17423198 0.32660207 0.18999569 0.0511411 0.21101719
0.26437083 0.34491774 0.27556875 0.11415478 0.25321668 0.17465656 0.11250613 0.12875983
0.30200592 0.21805777 0.3241413 0.16850029 -0.020882955 0.23354834 0.17629686 0.07886455
0.12869363 0.42071718 0.07974703 0.07917764 0.15058987 0.101518884 0.20548223 0.19255376
0.08885704 0.3010682 0.3032557 -0.063906185 0.2528879 0.2791482 0.08331525 0.09115575
0.3567002 0.029459486 0.18315947 0.09173754 -0.11206201 0.21129166 0.10457045 0.12976202
0.19054334 0.15768102 0.1482726 0.14006357 0.043183118 0.13193852 0.13170905 0.32296067
0.115433045 0.14984201 0.16204181 0.2815709
00000000: dd8c 4f3e a871 9b3e 7c22 0f3e f5d3 dbbd
00000010: 50a9 3e3e f0c0 753d 9ab8 df3d b717 003d
00000020: a05c 013e 74e2 253d 25e8 873e 3e6e f83c
00000030: b087 cdb9 33f5 d13d b826 8b3e cd5c 903d
00000040: 9337 3f3e d9e2 e13d 7e6a 8f3e abe9 803e
00000050: ea5e 293e 17de 9b3e 9051 ab3e 2935 403e
00000060: 610e a83e baba 96bc 8341 283e 3ee9 993d
00000070: afbf 8a3e 73de a63e 0a7a 773e 0977 6d3e
00000080: f00c 8e3d db4c c73d 033d 7f3e 32f5 6f3e
00000090: c7da 913e 7c9f 023e a79e b03d d019 983e
000000a0: bceb 143e c264 163e 56cc 3ebd de69 323e
000000b0: 6338 a73e 3b8e 423e 5479 513d e414 583e
000000c0: 9d5b 873e 0f99 b03e 5917 8d3e fbc9 e93d
000000d0: 9ea5 813e 2bd9 323e 9d69 e63d 9ed9 033e
000000e0: 85a0 9a3e 894a 5f3e d9f5 a53e 578b 2c3e
000000f0: bb12 abbc 4c27 6f3e 2a87 343e bd83 a13d
00000100: 43c8 033e 3e68 d73e 6952 a33d e327 a23d
00000110: 3b34 1a3e 22e9 cf3d ef69 523e d02c 453e
00000120: aefa b53d 9c25 9a3e 5544 9b3e 3fe1 82bd
00000130: 867a 813e 83ec 8e3e 30a1 aa3d deaf ba3d
00000140: 69a1 b63e 0555 f13c 288e 3b3e e4e0 bb3d
00000150: c480 e5bd d75c 583e 0829 d63d 56e0 043e
00000160: cb1d 433e 2277 213e c6d4 173e d36c 0f3e
00000170: c8e0 303d e41a 073e bdde 063e 1a5b a53e
00000180: 2968 ec3d 2f70 193e 4aee 253e 102a 903e

batchnorm3.running_mean f4 [100]
1.7902113 0.15444273 -0.14098006 1.5835313 -0.16220357 -0.45491406 0.28686437 0.44672328
0.6470097 1.2829927 -1.3301774 1.0883327 0.201882 -1.0628531 -0.3421102 0.7351791
-0.4818452 0.48647058 -0.22098687 1.0219343 0.08583792 2.5551133 -1.0129231 -0.23781078
1.8820332 -0.12555538 0.4036819 0.8137889 -0.5112588 -0.58127373 0.8360211 -0.20078643
1.1718066 0.9877458 0.060347114 -0.6504024 -0.054803617 0.7899851 1.763622 1.4628925
1.2868404 0.18240395 0.280517 0.65207225 0.2044323 -1.0189413 -0.17860396 0.26477617
-0.89366406 -0.029237285 -1.4614829 0.26591825 0.8029997 0.6172184 -0.018641127 2.0958936
-0.066910654 0.5385224 -0.39755058 0.68553066 -0.41009337 0.09004579 1.4929692 0.4183227
-0.044333644 -0.7274989 1.3520403 0.4594112 0.28988585 1.9508395 0.6972764 1.4475738
0.18659702 0.071522295 -1.1690178 0.83082026 -1.1016253 -0.038770624 -0.2387605 -0.6209821
0.43106085 -1.0904686 -0.4548692 1.719805 0.85283965 -0.31331015 -0.6120588 1.7568065
-0.5082232 0.7481845 -0.33005324 -0.72268116 0.0364711 -0.15697876 1.8436518 0.3013312
0.97603565 -0.84003115 1.1727402 0.75949705
00000000: a525 e53f 3c26 1e3e 145d 10be 27b1 ca3f
00000010: b118 26be 7fea e8be e3df 923e eab8 e43e
00000020: 6da2 253f 1b39 a43f 4143 aabf 7c4e 8b3f
00000030: 28ba 4e3e 920b 88bf 1129 afbe b334 3c3f
00000040: 6ab4 f6be ac12 f93e 624a 62be bece 823f
00000050: cbcb af3d fa86 2340 77a7 81bf ab84 73be
00000060: 77e6 f03f 9791 00be 65af ce3e 7854 503f
00000070: dbe1 02bf 5bce 14bf 7b05 563f f59a 4dbe
00000080: c2fd 953f e9dc 7c3f 892e 773d c680 26bf
00000090: c279 60bd 773c 4a3f 5ebe e13f 1040 bb3f
000000a0: 30b7 a43f 1ac8 3a3e ed9f 8f3e 35ee 263f
000000b0: b356 513e ab6c 82bf f5e3 36be be90 873e
000000c0: 2bc7 64bf 0883 efbc df11 bbbf 7026 883e
000000d0: 6391 4d3f 0602 1e3f 47b5 98bc 1f23 0640
000000e0: 7408 89bd 9bdc 093f c08b cbbe f07e 2f3f
000000f0: c2f7 d1be ed69 b83d 9d19 bf3f 652e d63e
00000100: 3297 35bd 5e3d 3abf a80f ad3f f237 eb3e
00000110: eb6b 943e 1cb5 f93f b580 323f 194a b93f
00000120: 4a13 3f3e 487a 923d 60a2 95bf a3b0 543f
00000130: 0f02 8dbf f2cd 1ebd a27d 74be aff8 1ebf
00000140: 02b4 dc3e 7a94 8bbf 9ee4 e8be 9222 dc3f
00000150: b353 5a3f 306a a0be e3af 1cbf 09df e03f
00000160: ea1a 02bf 0589 3f3f bdfc a8be a201 39bf
00000170: b862 153d 0abf 20be c8fc eb3f 1548 9a3e
00000180: 79dd 793f 480c 57bf 5a1c 963f 666e 423f

batchnorm3.running_var f4 [100]
3.1164215 1.734321 3.0567174 1.8763231 2.788586 2.1311722 4.18897 1.8345248
2.5110118 2.5159442 2.3551264 1.9437076 2.827543 1.6746323 3.0751712 2.1320858
2.71128 1.5342861 3.5402822 3.3022242 3.2003846 1.6175979 2.1322117 2.5548275
2.617449 2.4439783 2.728065 2.4855077 1.7974917 2.6251755 1.2390338 2.9452024
1.6668345 2.4557421 1.8293779 1.393797 2.3747442 2.4198315 2.7751498 3.0195637
2.4208908 2.1672852 2.7685778 2.3624263 2.3390794 1.9031242 1.4620098 1.661361
2.3737566 2.4671576 2.4555361 2.018536 2.551157 2.6785066 2.9565423 1.9665964
2.1741195 2.490351 1.8470747 2.7024417 1.7202375 1.9150846 3.509576 2.6543584
4.2588577 2.8644037 2.8062603 2.5934873 3.075016 2.274442 2.1116347 3.5638726
2.0104153 2.3158255 2.5806592 2.0045002 2.5591948 1.6292086 1.5885239 2.5483072
1.8797168 1.8804166 3.6895947 3.8338282 0.4114747 2.5553837 2.6127286 1.7072221
1.731059 3.115058 1.6833831 3.5174408 2.2323737 1.4490718 1.5300044 2.0458746
1.7945044 2.9361188 2.155231 2.6226327
00000000: 7373 4740 3bfe dd3f 42a1 4340 5b2b f03f
00000010: 3178 3240 2065 0840 0b0c 8640 b5d1 ea3f
00000020: 6bb4 2040 3b05 2140 64ba 1640 69cb f83f
00000030: 77f6 3440 5a5a d63f 9bcf 4440 1874 0840
00000040: 9d85 2d40 7d63 c43f fc93 6240 a457 5340
00000050: 1ad3 4c40 730d cf3f 2876 0840 4b82 2340
00000060: 4984 2740 246a 1c40 9e98 2e40 8f12 1f40
00000070: 3514 e63f e002 2840 a998 9e3f 327e 3c40
00000080: d55a d53f e12a 1d40 0e29 ea3f f167 b23f
00000090: cffb 1740 85de 1a40 0e9c 3140 8840 4140
000000a0: e0ef 1a40 cdb4 0a40 6130 3140 fe31 1740
000000b0: 7ab3 1540 9399 f33f 2323 bb3f 7aa7 d43f
000000c0: a1eb 1740 e9e5 1d40 8127 1d40 b22f 0140
000000d0: 2846 2340 a76c 2b40 fd37 3d40 6eb9 fb3f
000000e0: c624 0b40 e961 1f40 f26c ec3f cef4 2c40
000000f0: be30 dc3f 7e21 f53f e59c 6040 02e1 2940
00000100: 9048 8840 6452 3740 c599 3340 b2fb 2540
00000110: 10cd 4440 7590 1140 0625 0740 7d16 6440
00000120: a5aa 0040 7c36 1440 8529 2540 bb49 0040
00000130: d9c9 2340 e889 d03f c054 cb3f 7717 2340
00000140: 8f9a f03f 7eb1 f03f 5222 6c40 715d 7540
00000150: d0ac d23e 688b 2340 f236 2740 4186 da3f
00000160: 5793 dd3f 1c5d 4740 1979 d73f c01d 6140
00000170: 36df 0e40 2f7b b93f 2fd7 c33f 9cef 0240
00000180: 52b2 e53f 5fe9 3b40 4eef 0940 37d9 2740

linear2.weight f4 [10, 100]
0.17149933 0.2082937 -0.071830876 -0.5195648 -0.3748427 -0.9420447 -0.64113003 -0.52805805
-0.62504435 -0.6197669 -0.75442255 -0.10411039 0.059746806 -0.39977717 0.17302601 -0.53235763
-0.6638914 -0.36196393 -0.6047319 0.4535058 -1.0750424 0.1352652 0.20490739 -1.2725267
0.31992045 0.3458621 0.34808853 0.013794147 0.4999466 0.07292751 0.15737863 0.3401167
-0.6845622 -0.8921074 0.055429894 -0.6667223 -0.4538356 -0.36723793 0.18291634 0.09186354
0.38348737 0.3451635 -0.4898849 -0.83738613 0.3503662 -0.340203 -0.37848118 0.52230275
-0.36059284 -0.6218024 -0.9203729 -0.46024406 -0.67113155 0.20863831 -0.9833532 -0.6217472
0.1317621 -0.035384227 -0.21175914 -0.52431643 -0.59840006 0.2882616 0.18066393 -0.5419612
-0.41543508 0.37813824 0.3859759 -0.40455765 -0.12191454 -0.39223108 -0.56774586 0.0112079885
-0.051293682 0.49449036 -1.2270657 0.1046041 -0.28016302 -0.39725813 -0.0083953 -0.20572284
-0.3663485 -0.105055586 0.1965151 0.5327227 -0.037238467 -0.8974323 -0.31244498 0.048191532
-0.3327946 0.041880585 -0.5765168 -0.8476176 -0.22196597 -0.255183 -0.07720433 -0.28086668
-0.35139278 -0.38622716 0.39311624 -0.16417876 -0.24764843 -0.10623403 -0.9083873 0.24743839
0.40964535 -0.1977184 -0.63303477 0.18183766 -0.3656537 0.31411317 -0.6305506 -0.7222857
0.101540014 -0.34572333 -0.26982462 -1.0058991 -0.60726345 0.072750516 0.21875016 -0.17723379
-0.73566157 -0.59145004 -0.64096296 0.29525542 -1.0525533 -0.342512 -0.24844079 -0.11736379
-0.35169297 -0.10142682 0.29121193 -0.8131136 -0.69611675 -0.23809238 -0.19228162 -0.30605385
0.39573923 0.369229 0.0030198833 -0.90836203 -0.3051016 -0.249609 -0.3762533 -0.37006
-0.5740525 -1.1617905 -0.58845025 -0.79523444 0.27551323 -0.98082167 -0.6823625 -0.4114473
0.23645931 0.032190226 -0.17984846 -0.50973904 -0.01275251 -0.86317325 0.2933253 0.38404277
-0.74920076 -0.2966997 -0.5905302 -0.7455622 0.369255 0.07101495 -0.5150052 -0.66523266
-0.956296 0.20282811 -0.7546443 0.29305246 0.19026044 -0.24372436 -0.70920056 -0.25368503
0.28180858 0.32032555 -0.44501948 -0.47522077 0.21514857 0.1414782 -0.66908306 -0.8271141
-0.071746014 0.043411847 0.19056039 0.4576768 -0.047741406 0.29554304 -0.025578354 0.23244435
-0.813834 0.31063834 -0.6872548 -0.95301443 -0.35155988 -0.17249607 0.10169988 -1.0163864
0.1263622 -0.4369614 -0.08013855 -0.6646049 -0.09109086 -0.20923111 0.29179934 -0.5887233
0.07985312 -0.8570702 -0.68168736 0.26961878 -0.39668003 0.23564199 0.2864627 0.05873557
-0.14813325 0.020293249 -0.72268236 -0.579578 0.082882054 -0.21309768 -0.2892473 -0.35538498
-0.71876174 -0.3001586 0.060698587 -0.4726364 -0.4076511 -0.05841312 0.36614704 -0.3957366
0.19497697 -0.49112654 0.07521519 0.008459318 0.26835698 0.13677081 -0.2986538 0.4064084
0.28404102 -0.29975003 -0.7501574 0.30738214 -0.45447248 -0.24196292 -0.5407974 -0.46771324
0.18690877 -0.3181334 -0.56301296 0.11481153 -0.10172772 -0.50149834 -0.5213345 0.1956703
00000000: 859d 2f3e f24a 553e 111c 93bd 3302 05bf
00000010: 62eb bfbe d729 71bf 1921 24bf d02e 07bf
00000020: e802 20bf 0ba9 1ebf d621 41bf d437 d5bd
00000030: 11b9 743d 98af ccbe bb2d 313e 9748 08bf
00000040: c9f4 29bf 5653 b9be b6cf 1abf ea31 e83e
00000050: fd9a 89bf f682 0a3e 3ed3 513e 28e2 a2bf
00000060: 9dcc a33e d614 b13e a938 b23e d900 623c
00000070: 00f9 ff3e 055b 953d dd27 213e c723 ae3e
00000080: 783f 2fbf 2761 64bf 750a 633d 50ae 2abf
00000090: 245d e8be 9c06 bcbe 6c4e 3b3e f422 bc3d
000000a0: 7558 c43e 45b9 b03e 32d2 fabe f05e 56bf
000000b0: 3363 b33e 162f aebe 49c8 c1be a2b5 053f
000000c0: a09f b8be 712e 1fbf 8f9d 6bbf 1ca5 ebbe
000000d0: 47cf 2bbf 48a5 553e 09bd 7bbf d32a 1fbf
000000e0: a5ec 063e 0def 10bd 63d7 58be 9a39 06bf
000000f0: bf30 19bf 0697 933e f7ff 383e f8bd 0abf
00000100: e8b3 d4be 569b c13e a29e c53e 2e22 cfbe
00000110: 55ae f9bd 83d2 c8be cb57 11bf b6a1 373c
00000120: 5319 52bd d72d fd3e 7d10 9dbf ad3a d63d
00000130: 8771 8fbe 6b65 cbbe 718c 09bc 02a9 52be
00000140: 0892 bbbe 6227 d7bd 413b 493e 8460 083f
00000150: 5d87 18bd 20be 65bf caf8 9fbe 7c64 453d
00000160: 0e64 aabe fa8a 2b3d 9b96 13bf 78fd 58bf
00000170: 0c4b 63be 59a7 82be 4e1d 9ebd c2cd 8fbe
00000180: c1e9 b3be 91bf c5be 8846 c93e 7a1e 28be
00000190: 8d97 7dbe 3a91 d9bd 128c 68bf 7d60 7d3e
000001a0: 09bd d13e b176 4abe 910e 22bf a733 3a3e
000001b0: f636 bbbe 71d3 a03e c46b 21bf b7e7 38bf
000001c0: 36f4 cf3d a602 b1be 7426 8abe 4dc1 80bf
000001d0: 9e75 1bbf 39fe 943d 0b00 603e c67c 35be
000001e0: 5154 3cbf 4569 17bf 2616 24bf b82b 973e
000001f0: 11ba 86bf bc5d afbe 4367 7ebe 6d5c f0bd
00000200: 1a11 b4be ddb8 cfbd bb19 953e 3628 50bf
00000210: b534 32bf 7dce 73be 79e5 44be 17b3 9cbe
00000220: 559e ca3e 950b bd3e 3ce9 453b 6a8a 68bf
00000230: 4736 9cbe 8099 7fbe 46a4 c0be 8178 bdbe
00000240: 1bf5 12bf 8db5 94bf ada4 16bf 7c94 4bbf
00000250: 1210 8d3e 2117 7bbf 4faf 2ebf 38a9 d2be
00000260: 6422 723e e6d9 033d 322a 38be 427e 02bf
00000270: e7ef 50bc ecf8 5cbf bc2e 963e 41a1 c43e
00000280: 9fcb 3fbf 06e9 97be fd2c 17bf 2add 3ebf
00000290: fe0e bd3e 4970 913d 61d7 03bf b04c 2abf
000002a0: d1cf 74bf 2cb2 4f3e 5e30 41bf f90a 963e
000002b0: a2d3 423e e192 79be 2b8e 35bf 01e3 81be
000002c0: 3749 903e b601 a43e 98d9 e3be 2350 f3be
000002d0: e84f 5c3e a9df 103e 0749 2bbf c0bd 53bf
000002e0: 93ef 92bd 9fd0 313d 4322 433e 9d54 ea3e
000002f0: 7e8c 43bd 6b51 973e b289 d1bc e405 6e3e
00000300: 6d57 50bf fd0b 9f3e eeef 2fbf c1f8 73bf
00000310: a8ff b3be cfa2 30be 0748 d03d f318 82bf
00000320: 1865 013e 68b9 dfbe ae1f a4bd 8c23 2abf
00000330: d88d babd ae40 56be b966 953e 92b6 16bf
00000340: 088a a33d f468 5bbf 1083 2ebf 790b 8a3e
00000350: a519 cbbe 224c 713e 3dab 923e b694 703d
00000360: 3eb0 17be 073e a63c b601 39bf 395f 14bf
00000370: 11be a93d 4736 5abe 3918 94be 05f5 b5be
00000380: c500 38bf 63ae 99be 159f 783d 66fd f1be
00000390: a5b7 d0be 9942 6fbd a077 bb3e fd9d cabe
000003a0: 0ba8 473e f074 fbbe 6c0a 9a3d f498 0a3c
000003b0: 1666 893e a60d 0c3e 27e9 98be c314 d03e
000003c0: d36d 913e d678 99be 510a 40bf 3161 9d3e
000003d0: 9eb0 e8be 21c5 77be b371 0abf 1c78 efbe
000003e0: 0365 3f3e 62e2 a2be 9e21 10bf 4f22 eb3d
000003f0: 9f56 d0bd 3262 00bf 2e76 05bf cc5d 483e

linear2.bias f4 [10]
-0.18986419 0.14047074 -0.09779108 0.05681955 -0.067062974 0.068136856 -0.13859037 -0.08715833
0.07696309 0.1784278
00000000: c26b 42be 90d7 0f3e b146 c8bd 9ebb 683d
00000010: 5058 89bd 568b 8b3d a2ea 0dbe 1180 b2bd
00000020: d39e 9d3d c7b5 363e
