research/differential_privacy/multiple_teachers/checkpoint/mnist_10_teachers_6.pth (torch_old, 139301 bytes, 20 tensors)

conv1.weight f4 [16, 1, 5, 5]
-0.14006105 0.046318244 -0.1478254 -0.012300129 -0.2242449 -0.117179364 0.10804711 0.036682557
-0.037864607 -0.32578096 0.070582755 0.11392927 -0.30372533 -0.33835396 -0.16859318 0.12883176
0.26204166 0.039108016 0.1956446 0.05358255 -0.098504335 0.38917345 0.22880606 0.018429514
0.3740186 -0.13590683 -0.12222339 0.054740977 0.2222062 0.50635517 -0.039550122 -0.12566695
-0.13306572 -0.18144657 -0.45424247 0.16094656 0.0216199 -0.20727918 -0.34044373 -0.2431716
-0.29709482 -0.35150868 -0.05237318 -0.04314406 0.044206027 -0.06920443 0.26169267 0.3609737
0.34967166 0.08858102 -0.2502971 -0.10705514 -0.070461944 -0.16818649 0.011908505 0.06653669
0.015544915 -0.04514994 0.10277385 0.2781587 0.153709 0.21959987 0.37643826 0.1411162
0.17165926 -0.128692 -0.009952275 -0.06001997 0.1988517 -0.20545848 -0.15464549 -0.3128194
-0.25530374 -0.2726113 -0.3580736 0.08397173 0.118500635 -0.0083624525 -0.2836357 -0.6417918
-0.05463412 -0.16141565 -0.31367287 -0.35112718 -0.19603743 -0.103550814 -0.1142375 -0.4762073
-0.10047408 0.2422747 0.15130807 -0.15724365 -0.14999989 -0.3878678 0.046417054 0.1617151
-0.13760257 -0.31375235 -0.4218976 0.20553558 -0.17024906 -0.26767218 0.03929594 -0.21277168
-0.3401566 -0.5084341 -0.3134755 -0.42929587 -0.3439071 -0.29586858 -0.105280146 -0.07977635
-0.033187404 0.07327654 0.008957842 0.03127821 0.18605137 -0.035035755 -0.035943042 0.3611112
0.15065528 -0.12878722 0.10799918 0.21573089 0.28726476 0.07581531 0.17197256 0.25705546
0.02277828 -0.24242201 0.1420805 0.14876835 0.49144098 -0.07437715 -0.14627819 -0.28341517
0.2805948 0.43580955 0.29382998 -0.27900577 -0.04565576 -0.07324582 0.20585775 0.16495088
-0.11208142 -0.13070937 -0.17058046 0.0030789236 0.25839064 -0.0223843 0.018103575 0.067454964
-0.024585377 -0.07109483 -0.0933376 -0.020027418 0.09424435 0.21410425 0.27634645 0.17488381
-0.19669504 -0.0174385 0.18624376 0.067770846 0.13182738 -0.26429605 -0.060847078 0.026822941
-0.17492205 -0.18786232 -0.1976302 -0.22449614 -0.4471829 -0.29096672 -0.42804202 -0.013832339
-0.02041734 0.17726314 0.032957036 0.12642184 -0.21721517 0.08197537 -0.31494233 0.061634652
-0.35352996 0.111287124 -0.11809697 -0.022556065 -0.24695598 -0.104994595 -0.43565252 -0.17020099
-0.2640408 -0.010615158 0.11377682 -0.15891589 -0.12152997 -0.10425948 0.027820831 0.0057931445
-0.51930565 0.09287197 0.22225489 0.06757719 0.13192332 -0.052934345 0.38470903 0.10088906
-0.20103401 -0.13457496 0.08849982 0.07969051 -0.04118261 -0.36499736 -0.263862 0.15692706
-0.29840395 -0.22356547 -0.05990656 0.15754955 -0.22378878 -0.12831196 -0.013491247 0.20988967
0.15027486 0.206199 0.28114954 0.18624993 0.19529213 0.35532144 -0.014452662 0.07349236
0.12473389 -0.006426473 0.25503626 -0.12005957 0.057711788 0.033098422 -0.09504029 0.020873087
-0.4210926 -0.34257454 -0.29106256 -0.15414742 0.0077640587 -0.11696374 -0.18470605 -0.44085872
-0.3452263 -0.19887663 0.036080573 -0.07442661 -0.15349394 0.079409875 -0.29543185 -0.115772724
00000000: 2a6c 0fbe 33b8 3d3d 8b5f 17be 7b86 49bc
00000010: 74a0 65be bcfb efbd ce47 dd3d 7340 163d
00000020: eb17 1bbd c3cc a6be b18d 903d c053 e93d
00000030: e381 9bbe bb3c adbe b1a3 2cbe 79ec 033e
00000040: 532a 863e ba2f 203d 0f57 483e 6079 5b3d
00000050: a4bc c9bd be41 c73e 234c 6a3e 7ef9 963c
00000060: 5e7f bf3e 292b 0bbe 4250 fabd 1338 603d
00000070: 068a 633e 7ea0 013f 4fff 21bd d6ae 00be
00000080: 6142 08be 21cd 39be 7892 e8be 2dcf 243e
00000090: 371c b13c fe40 54be a44e aebe fa01 79be
000000a0: d01c 98be f2f8 b3be 4285 56bd d3b7 30bd
000000b0: 6111 353d 0dbb 8dbd 95fc 853e 8bd1 b83e
000000c0: 2a08 b33e f769 b53d f126 80be ba3f dbbd
000000d0: 5a4e 90bd 1439 2cbe e41b 433c 6344 883d
000000e0: 19b0 7e3c 25ef 38bd 197b d23d d16a 8e3e
000000f0: e465 1d3e cade 603e 84bc c03e c480 103e
00000100: 72c7 2f3e d6c7 03be de0e 23bc 80d7 75bd
00000110: c89f 4b3e b563 52be 635b 1ebe dd29 a0be
00000120: 2cb7 82be b593 8bbe 6c55 b7be 5ff9 ab3d
00000130: 76b0 f23d ab02 09bc b338 91be 784c 24bf
00000140: 07c8 5fbd 254a 25be bb99 a0be f1c6 b3be
00000150: 09be 48be 7312 d4bd 5af5 e9bd 71d1 f3be
00000160: 5bc5 cdbd dc16 783e 81f0 1a3e 7b04 21be
00000170: 9299 19be 9c96 c6be cf1f 3e3d a598 253e
00000180: b0e7 0cbe 26a4 a0be f602 d8be eb77 523e
00000190: c555 2ebe 540c 89be c8f4 203d d2e0 59be
000001a0: 0229 aebe bd28 02bf dc7f a0be abcc dbbe
000001b0: 9714 b0be 167c 97be 1e9d d7bd c861 a3bd
000001c0: 84ef 07bd 0312 963d eac3 123c 951d 003d
000001d0: 4084 3e3e a781 0fbd 0339 13bd 91e3 b83e
000001e0: 6145 1a3e cce0 03be ad2e dd3d 8fe8 5c3e
000001f0: 5e14 933e 0f45 9b3d 9319 303e c69c 833e
00000200: 8499 ba3c 7a3d 78be 8d7d 113e bb56 183e
00000210: 279e fb3e 0c53 98bd f3c9 15be cb1b 91be
00000220: 1faa 8f3e 6e22 df3e e270 963e d8d9 8ebe
00000230: 8901 3bbd e801 96bd 60cc 523e e2e8 283e
00000240: f28a e5bd add8 05be a5ac 2ebe c4c7 493b
00000250: c74b 843e 485f b7bc f34d 943c d425 8a3d
00000260: 4667 c9bc 2b9a 91bd c927 bfbd 8a10 a4bc
00000270: 2f03 c13d 253e 5b3e 487d 8d3e be14 333e
00000280: 6d6a 49be 2fdb 8ebc afb6 3e3e 71cb 8a3d
00000290: c2fd 063e d051 87be c93a 79bd c9bb db3c
000002a0: c41e 33be fb5e 40be 925f 4abe 51e2 65be
000002b0: 28f5 e4be 97f9 94be 5328 dbbe 09a1 62bc
000002c0: 4442 a7bc 7884 353e f5fd 063d ba74 013e
000002d0: a76d 5ebe b4e2 a73d 1f40 a1be 9e74 7c3d
000002e0: e101 b5be 81ea e33d d3dc f1bd 7fc7 b8bc
000002f0: 07e2 7cbe 6807 d7bd d90d dfbe 2b49 2ebe
00000300: 5b30 87be 33eb 2dbc d203 e93d d9ba 22be
00000310: b4e4 f8bd ff85 d5bd 83e8 e33c 6bd4 bd3b
00000320: 37f1 04bf a933 be3d c996 633e e965 8a3d
00000330: e816 073e afd1 58bd 95f8 c43e ec9e ce3d
00000340: dcdb 4dbe 05ce 09be 653f b53d c734 a33d
00000350: 19af 28bd efe0 babe ec18 87be 7db1 203e
00000360: 67c8 98be 59ee 64be 9560 75bd ab54 213e
00000370: e328 65be 3664 03be 640a 5dbc 51ed 563e
00000380: a7e1 193e d525 533e d5f2 8f3e 4db8 3e3e
00000390: a9fa 473e b1ec b53e dcca 6cbc 2a83 963d
000003a0: 7b74 ff3d 2a95 d2bb 1d94 823e cbe1 f5bd
000003b0: 3263 6c3d 3692 073d 7ca4 c2bd 09fe aa3c
000003c0: 7399 d7be ee65 afbe 2706 95be d2d8 1dbe
000003d0: a569 fe3b af8a efbd 9523 3dbe 3cb8 e1be
000003e0: 80c1 b0be 51a6 4bbe 39c9 133d fa6c 98bd
000003f0: 842d 1dbe a5a1 a23d d842 97be 401a edbd

conv1.bias f4 [16]
0.20934057 -0.08860061 0.11620848 -0.061647344 -0.07347787 0.08411062 0.054991968 -0.14892936
-0.022987997 -0.07324436 0.19665295 0.046926975 0.13223167 -0.06280592 -0.02353482 0.28952536
00000000: 605d 563e 3d74 b5bd b6fe ed3d ed81 7cbd
00000010: 917b 96bd 3042 ac3d 423f 613d f080 18be
00000020: 5351 bcbc 2401 96bd 645f 493e 8036 403d
00000030: bd67 073e 64a0 80bd 18cc c0bc ab3c 943e

batchnorm1.weight f4 [16]
0.21293437 0.3034768 0.27946898 0.77564514 0.73209506 0.3491587 0.88166225 0.056988034
1.0569993 0.8984998 0.068967104 0.572585 0.55908966 0.6102491 1.0539963 0.7653446
00000000: 780b 5a3e 5061 9b3e 8f16 8f3e ae90 463f
00000010: 956a 3b3f eec4 b23e 9eb4 613f 496c 693d
00000020: c14b 873f 1504 663f a03e 8d3d ee94 123f
00000030: 8020 0f3f 4939 1c3f 5ae9 863f a0ed 433f

batchnorm1.bias f4 [16]
-0.47280884 -0.10400074 -0.1048919 -0.009595803 0.056124333 -0.26899886 0.05686166 -0.21185912
-0.3231686 0.13496631 -0.11371061 -0.28752306 -0.1626732 -0.3518422 -0.09461346 -0.39023218
00000000: 0014 f2be 57fe d4bd 91d1 d6bd b737 1dbc
00000010: a1e2 653d 38ba 89be c6e7 683d 99f1 58be
00000020: 5b76 a5be 9c34 0a3e 1ce1 e8bd 3936 93be
00000030: ce93 26be a924 b4be b4c4 c1bd 83cc c7be

batchnorm1.running_mean f4 [16]
6.936916 -31.646807 -25.272177 -149.53226 -77.142586 62.22136 -62.884018 -86.17863
-30.882746 -41.941418 -89.100555 -47.248558 -27.126156 -18.05526 -99.39081 -10.882758
00000000: 37fb dd40 a92c fdc1 6b2d cac1 4288 15c3
00000010: 0149 9ac2 ace2 7842 3c89 7bc2 755b acc2
00000020: dd0f f7c1 03c4 27c2 7c33 b2c2 86fe 3cc2
00000030: 5e02 d9c1 2c71 90c1 18c8 c6c2 c71f 2ec1

batchnorm1.running_var f4 [16]
10502.6045 10890.771 9186.529 55299.38 34306.637 17588.678 17591.82 17216.496
6997.712 28268.547 14828.285 11108.241 17692.688 4232.4995 37701.76 7679.541
00000000: 6b1a 2446 162b 2a46 1e8a 0f46 6103 5847
00000010: a302 0647 5b69 8946 a46f 8946 fe80 8646
00000020: b2ad da45 18d9 dc46 24b1 6746 f790 2d46
00000030: 6039 8a46 ff43 8445 c345 1347 54fc ef45

conv2.weight f4 [16, 16, 5, 5]
-0.30018494 -0.119888276 -0.16363083 -0.14431874 -0.106472716 -0.10866612 -0.14405148 -0.11257171
0.023055017 0.05528573 0.10710734 -0.04775504 -0.03341264 0.0034501308 -0.14235528 0.13669966
0.059672993 0.28914937 0.32716817 0.10225279 -0.0404797 0.08589947 0.2551365 0.41834295
0.09649926 -0.22250421 0.13699046 0.06946154 0.22928028 0.21900572 -0.04270394 0.14841317
0.27498507 0.15289898 -0.25003505 -0.20962715 -0.2669735 -0.24194431 -0.104035586 -0.12863389
-0.20929594 -0.13013008 0.1493937 0.05602359 0.16128065 -0.1344248 -0.1133214 -0.124146044
-0.07083879 0.15087043 -0.2692846 -0.28474003 -0.13909023 0.057777714 0.16752142 -0.41772467
-0.23308861 -0.042166613 0.025511442 -0.16617964 -0.42464358 -0.35780782 -0.360178 -0.38748896
-0.20228 -0.21441546 -0.12267092 -0.050694853 0.019147929 0.060022064 -0.07190234 -0.121530645
0.0014975965 0.122644335 0.32544124 0.2370545 0.19149107 0.38312596 0.3212213 0.20194723
0.23274404 0.24014288 0.018016439 -0.2145098 -0.16982858 0.11361585 -0.040553544 -0.107699856
-0.12701145 -0.077598095 -0.014742904 -0.16795467 -0.18056503 -0.32038674 -0.3004219 -0.060390804
-0.22483282 -0.14460702 -0.21540286 -0.06660943 -0.11921321 -0.1913739 0.045595303 0.33580518
0.3075281 -0.084708996 0.06605914 0.20833404 0.2794248 0.18696073 0.018010266 0.124607325
-0.029245391 -0.28455967 -0.3175612 -0.07201665 -0.19427955 -0.2651269 -0.19724655 -0.08931143
-0.29891568 -0.40084118 -0.18804081 -0.003592166 -0.057024024 -0.24682297 -0.20889822 -0.30415004
-0.44064844 -0.29417318 -0.31749687 -0.3365346 -0.2148681 -0.25730518 -0.08961732 -0.040447973
-0.120462045 -0.047141615 -0.13213657 0.1211798 0.06899244 0.14864698 0.09056214 -0.091541745
0.03782273 0.2612488 0.16679321 0.14235976 0.067816965 0.003809265 -0.05581121 0.009717118
-0.14826958 -0.13538113 -0.09911144 -0.19421603 -0.0845287 -0.26145935 -0.24906874 -0.24746475
-0.47755024 -0.6088129 -0.22386512 -0.15107937 -0.06581379 -0.18748091 -0.12682201 -0.13598117
-0.16538675 0.048379738 0.2507067 0.18512101 0.18132572 -0.00042059398 -0.043431345 0.058329217
-0.06831016 -0.12901358 -0.0611137 -0.04164558 -0.015525485 -0.18678474 -0.20139727 -0.0055378177
-0.0127457185 -0.12262274 -0.1640712 -0.12570582 -0.06432814 -0.07591581 -0.16942829 -0.1404147
-0.058752835 0.038579516 -0.08065386 -0.14956388 -0.14636607 -0.08017357 0.033852495 0.18466665
-0.079759784 0.124140546 0.19351336 -0.17445089 -0.053995244 0.23746699 0.3639359 0.1505971
-0.083151296 -0.031790495 0.08460667 0.33981186 -0.05748356 -0.15507518 -0.118105 0.0133235445
0.13652103 0.026667358 -0.004887767 0.008413989 -0.03835805 -0.2797834 -0.052866165 0.039034564
0.25465262 -0.15675297 -0.21558619 -0.323759 -0.3450055 -0.1842215 -0.39029038 -0.537694
-0.4967407 -0.270797 -0.20300244 -0.43037874 -0.5318042 -0.28174222 -0.086405955 -0.12018017
-0.13897593 -0.1493119 -0.14697601 -0.065753125 -0.045056906 0.2581332 0.072783224 0.039468348
0.058652494 -0.03966459 0.0044134506 -0.012857933 0.046888772 -0.15177087 -0.1365235 -0.07958894
00000000: d7b1 99be fc87 f5bd d78e 27be 4bc8 13be
00000010: 5e0e dabd 588c debd 3b82 13be ff8b e6bd
00000020: e0dd bc3c 4a73 623d 185b db3d ca9a 43bd
00000030: b1db 08bd 971b 623b 95c5 11be fffa 0b3e
00000040: ab6b 743d 630b 943e 9682 a73e e969 d13d
00000050: 0bce 25bd 10ec af3d 40a1 823e 0c31 d63e
00000060: 67a1 c53d 25d8 63be 3a47 0c3e da41 8e3d
00000070: 73c8 6a3e 0943 603e 54ea 2ebd 9ff9 173e
00000080: d8ca 8c3e 8d91 1c3e 9804 80be 80a8 56be
00000090: c0b0 88be 40c0 77be 9c10 d5bd 9ab8 03be
000000a0: ad51 56be d240 05be a9fa 183e fe78 653d
000000b0: c126 253e a8a6 09be 0d15 e8bd 4840 febd
000000c0: ed13 91bd c77d 1a3e acdf 89be 72c9 91be
000000d0: ab6d 0ebe 53a8 6c3d bc8a 2b3e 02e0 d5be
000000e0: c8ae 6ebe e6b6 2cbd 5ffd d03c ff2a 2abe
000000f0: e26a d9be 9632 b7be 4069 b8be f464 c6be
00000100: 7d22 4fbe ba8f 5bbe e43a fbbd 68a5 4fbd
00000110: 1edc 9c3c b2d9 753d 8941 93bd 0fe5 f8bd
00000120: 004b c43a f42c fb3d 3ca0 a63e 6abe 723e
00000130: 3c16 443e 1629 c43e 1e77 a43e 41cb 4e3e
00000140: 7454 6e3e 04e8 753e 3697 933c 75a8 5bbe
00000150: 8be7 2dbe 6daf e83d 791b 26bd be91 dcbd
00000160: 4a0f 02be c0eb 9ebd 398c 71bc 4ffc 2bbe
00000170: 0ae6 38be bb09 a4be e6d0 99be 595c 77bd
00000180: 933a 66be dd13 14be 9192 5cbe 866a 88bd
00000190: 0e26 f4bd 85f7 43be 24c2 3a3d a8ee ab3e
000001a0: 5374 9d3e e97b adbd 044a 873d 8555 553e
000001b0: c410 8f3e a272 3f3e 448a 933c 2032 ff3d
000001c0: 0894 efbc ceb1 91be 6297 a2be 777d 93bd
000001d0: 38f1 46be b7be 87be 00fb 49be e9e8 b6bd
000001e0: 7a0b 99be 0e3b cdbe c58d 40be 8b6a 6bbb
000001f0: 0692 69bd 29bf 7cbe 6ae9 55be 8eb9 9bbe
00000200: ac9c e1be de9d 96be f38e a2be 434e acbe
00000210: 6206 5cbe 81bd 83be 4989 b7bd c6ac 25bd
00000220: ceb4 f6bd 9117 41bd cf4e 07be 1d2d f83d
00000230: e94b 8d3d ea36 183e a578 b93d 3d7a bbbd
00000240: 02ec 1a3d 67c2 853e d7cb 2a3e c2c6 113e
00000250: 9fe3 8a3d dda4 793b 4c9a 64bd 8c34 1f3c
00000260: fbd3 17be 5aa1 0abe f0fa cabd 91e0 46be
00000270: 621d adbd 00de 85be e00b 7fbe 6667 7dbe
00000280: 7781 f4be 2adb 1bbf e63c 65be 8db4 1abe
00000290: 61c9 86bd fffa 3fbe a1dd 01be a63e 0bbe
000002a0: 255b 29be d529 463d a15c 803e 5d90 3d3e
000002b0: 73ad 393e 2b83 dcb9 11e5 31bd 9eea 6e3d
000002c0: 32e6 8bbd 231c 04be 5c52 7abd 8e94 2abd
000002d0: 9b5e 7ebc 8044 3fbe 163b 4ebe 9576 b5bb
000002e0: 6bd3 50bc a221 fbbd 4802 28be 07b9 00be
000002f0: 79be 83bd c079 9bbd 9c7e 2dbe dfc8 0fbe
00000300: d0a6 70bd 8e05 1e3d da2d a5bd 4627 19be
00000310: fde0 15be 0a32 a4bd eaa8 0a3d 4119 3d3e
00000320: 1959 a3bd 663d fe3d 5e28 463e 41a3 32be
00000330: 1e2a 5dbd 8c2a 733e ce55 ba3e 2036 1a3e
00000340: 3a4b aabd c036 02bd 4346 ad3d d2fb ad3e
00000350: e273 6bbd 07cc 1ebe 09e1 f1bd ff4a 5a3c
00000360: 2bcc 0b3e 8175 da3c 9029 a0bb d4da 093c
00000370: 551d 1dbd c53f 8fbe 318a 58bd b5e2 1f3d
00000380: d461 823e da83 20be a0c2 5cbe bdc3 a5be
00000390: 90a4 b0be 90a4 3cbe 24d4 c7be 50a6 09bf
000003a0: cc54 febe e8a5 8abe dfdf 4fbe 9a5a dcbe
000003b0: 5224 08bf 8440 90be 9bf5 b0bd 0521 f6bd
000003c0: b54f 0ebe 38e5 18be e180 16be 93a9 86bd
000003d0: 978d 38bd 092a 843e 5f0f 953d 90a9 213d
000003e0: 993d 703d 5677 22bd b59e 903b 14aa 52bc
000003f0: 710e 403d d369 1bbe d1cc 0bbe 87ff a2bd

conv2.bias f4 [16]
0.13774095 0.09136602 -0.19015074 0.25383586 0.09157731 0.15061371 -0.039914377 -0.25691366
0.06731198 -0.15769707 0.09376991 0.027427563 0.110803284 -0.16037786 0.17447552 0.1846071
00000000: f70b 0d3e 1c1e bb3d e0b6 42be c6f6 813e
00000010: e28c bb3d 7b3a 1a3e 427d 23bd 308a 83be
00000020: ddda 893d 577b 21be 700a c03d c5af e03c
00000030: d5ec e23d 183a 24be b6a9 323e a509 3d3e

batchnorm2.weight f4 [16]
0.29562742 0.4154873 0.48530328 0.36879513 0.5738625 0.4552182 0.6558961 0.5135874
0.887695 0.76589316 0.29586878 0.6004216 0.4951603 0.46240464 0.39474675 0.25050557
00000000: 7a5c 973e c0ba d43e ac79 f83e b7d2 bc3e
00000010: a7e8 123f 5c12 e93e cfe8 273f 777a 033f
00000020: fb3f 633f 9311 443f 1d7c 973e 3bb5 193f
00000030: a785 fd3e 4dc0 ec3e 3f1c ca3e 4442 803e

batchnorm2.bias f4 [16]
-0.19182278 -0.019355178 -0.14986242 -0.14746456 -0.017638817 -0.15265033 -0.3015424 -0.42663604
-0.24655657 -0.116656296 -0.1133461 -0.25227305 -0.103591315 -0.2395558 -0.0033724082 -0.023423508
00000000: 316d 44be c08e 9ebc 8975 19be f300 17be
00000010: 487f 90bc 5e50 1cbe c463 9abe 0a70 dabe
00000020: 5379 7cbe 7fe9 eebd 0022 e8bd ef29 81be
00000030: af27 d4bd 1e4e 75be 9f03 5dbb a8e2 bfbc

batchnorm2.running_mean f4 [16]
-3.3781714 -1.9148287 0.28628516 -0.69573134 0.006711453 -1.8230673 -0.6647496 -0.49981964
-2.592884 -1.7342244 1.9255033 -0.79251206 -1.2048006 -2.6129637 0.30989957 4.484764
00000000: f633 58c0 1b19 f5bf f893 923e 731b 32bf
00000010: c0eb db3b 455a e9bf 082d 2abf 5ce8 ffbe
00000020: d0f1 25c0 11fb ddbf e476 f63f 12e2 4abf
00000030: e836 9abf cc3a 27c0 28ab 9e3e 3083 8f40

batchnorm2.running_var f4 [16]
6.9203877 3.9663975 5.7851048 4.4586277 8.700449 5.5718665 7.049859 5.647987
6.5928683 8.70482 6.4173765 7.050129 6.21194 5.2531347 4.9518747 4.761387
00000000: d173 dd40 75d9 7d40 941f b940 14ad 8e40
00000010: 0a35 0b41 bb4c b240 7298 e140 4fbc b440
00000020: c7f8 d240 f146 0b41 265b cd40 a89a e140
00000030: 36c8 c640 ae19 a840 c275 9e40 485d 9840

linear1.weight f4 [100, 256]
-0.025434239 -0.07108918 -0.21323505 0.10896761 0.22398792 0.22807588 -0.034305356 -0.08945961
0.28276113 0.392472 0.41679657 0.09978025 0.5771984 0.36040124 0.28966686 -0.10363144
-0.3632387 -0.25671908 -0.3042557 -0.066134416 -0.1391612 -0.28246924 -0.020706836 -0.34053746
-0.050759807 0.48532206 -0.009655891 -0.094291836 -0.25351888 0.31383795 -0.3571745 -0.032618064
0.112591565 -0.052024253 0.18524045 0.42303184 0.14006275 0.31665927 0.24508728 0.06905837
-0.12425632 -0.05559632 0.124855414 -0.16047695 -0.11811327 -0.32287684 0.1959391 -0.21609999
-0.01374689 0.17142293 0.09906716 0.16567361 0.13680795 0.043995425 -0.099206336 0.06302126
-0.112249814 -0.101409964 0.14192937 -0.032077182 -0.2958513 0.10921442 0.064863116 0.17594211
0.008552293 0.19241858 0.031304356 0.012785099 -0.20451118 -0.17827013 0.2508993 -0.027289312
-0.46378362 -0.089367755 0.008545462 0.20231019 0.13967988 0.39107722 0.4345265 0.2238299
-0.12685007 -0.07608631 -0.06992482 0.12719257 -0.03505804 0.0046527362 0.2830377 0.50211734
-0.05106321 0.22930974 0.077248655 0.17938183 -0.08473353 0.17803937 0.34146786 -0.04908048
0.16904229 0.09683199 0.21317998 -0.074060716 0.009017049 -0.019037105 -0.08408225 -0.024422323
0.042285003 0.039417792 -0.15111202 0.08849398 0.21976241 0.06235337 0.14228414 -0.048832577
-0.11828609 -0.0985775 0.041529838 0.2623177 0.29483843 -0.26685426 0.115399286 0.08627438
0.1826427 -0.09830566 -0.08058131 -0.16043462 -0.25413385 -0.201154 0.13054843 0.07134965
0.05314941 -0.04828235 0.014830718 -0.09637354 0.16280086 -0.0066803936 -0.0788944 -0.1452253
0.33067197 0.18845889 -0.04338699 -0.05416157 0.5595062 0.17564455 0.08872829 0.0202929
0.2066172 0.21346395 -0.0021077418 -0.19683659 0.020869067 0.06170083 -0.0027641028 -0.06795815
0.07317369 0.22724116 -0.32328552 -0.051733013 -0.113122925 -0.2282213 0.044407107 -0.016473923
0.34976742 0.14082578 0.32945484 0.22787432 -0.07017817 -0.012920227 0.19479842 -0.10184927
-0.30904588 -0.37666368 -0.00498297 0.22891077 -0.02857714 -0.1045742 0.045304183 0.22123171
0.141801 0.26018104 0.09845003 0.2910472 0.30885926 0.1840841 -0.20079233 -0.1979083
0.090611495 -0.06851179 0.004273231 -0.2936634 -0.12045947 -0.011773561 -0.018090019 0.37963796
0.02464732 -0.12954924 -0.2899091 -0.22898576 0.24497023 0.30119336 0.08033766 0.17003715
0.42997298 0.10526542 0.5244171 0.3261206 0.042335957 0.052774083 0.08614061 0.046861973
0.10160275 -0.03282971 -0.11927799 0.013264541 0.08166344 -0.19848596 -0.26541466 -0.022964705
0.14543809 0.2947546 0.09070778 0.42337266 0.342386 0.36199942 -0.056156114 -0.0718567
-0.107638516 -0.14494303 0.05882857 0.24783067 0.3857813 -0.12513143 -0.038904093 0.17833436
-0.13782635 -0.0007508967 -0.13271627 0.08221924 0.113579415 -0.021932606 0.06676851 -0.09806115
-0.06412084 -0.06495699 -0.00016193699 0.35037154 -0.2907615 0.113219574 0.03425939 0.15734568
-0.35969102 -0.28545603 0.20181106 0.16424447 -0.32163832 -0.11127239 0.26196426 -0.05505287
00000000: 775b d0bc 3497 91bd 4a5a 5abe 692a df3d
00000010: 175d 653e b98c 693e c683 0cbd 9a36 b7bd
00000020: 11c6 903e 17f2 c83e 5c66 d53e 9659 cc3d
00000030: 46c3 133f 8386 b83e 374f 943e b83c d4bd
00000040: 6cfa b9be af70 83be 67c7 9bbe 7b71 87bd
00000050: 4680 0ebe cf9f 90be 62a1 a9bc ed5a aebe
00000060: 84e9 4fbd 227c f83e be33 1ebc 141c c1bd
00000070: 3acd 81be 5eaf a03e 93df b6be 859a 05bd
00000080: 6896 e63d 6217 55bd acaf 3d3e a197 d83e
00000090: 9c6c 0f3e 2a21 a23e 29f8 7a3e 7a6e 8d3d
000000a0: 197a febd f8b8 63bd 32b4 ff3d 1254 24be
000000b0: 5fe5 f1bd 1d50 a5be 42a4 483e 5149 5dbe
000000c0: a33a 61bc 7e89 2f3e b9e3 ca3d 58a6 293e
000000d0: 6217 0c3e 8c34 343d b12c cbbd 4a11 813d
000000e0: 3be3 e5bd 07b0 cfbd ef55 113e 5d63 03bd
000000f0: d279 97be cfab df3d f4d6 843d 2b2a 343e
00000100: eb1e 0c3c 6009 453e ff38 003d 9878 513c
00000110: 616b 51be 728c 36be e075 803e d68d dfbc
00000120: 0c75 edbe 7106 b7bd 4402 0c3c 672a 4f3e
00000130: 3e08 0f3e 463b c83e 427a de3e aa33 653e
00000140: fce4 01be 24d3 9bbd be34 8fbd c53e 023e
00000150: 0599 0fbd fb75 983b 51ea 903e c38a 003f
00000160: a827 51bd 2cd0 6a3e 8b34 9e3d dfaf 373e
00000170: c688 adbd f44f 363e e0d4 ae3e 9d08 49bd
00000180: 6c19 2d3e da4f c63d da4b 5a3e 25ad 97bd
00000190: 3fbc 133c b4f3 9bbc 5133 acbd 5311 c8bc
000001a0: 0a33 2d3d 8d74 213d 1cbd 1abe 553c b53d
000001b0: 6609 613e 3f66 7f3d efb2 113e ab04 48bd
000001c0: fa3f f2bd 00e3 c9bd 311b 2a3d 814e 863e
000001d0: 10f5 963e 1fa1 88be 7656 ec3d 9fb0 b03d
000001e0: b006 3b3e 7a54 c9bd d007 a5bd f948 24be
000001f0: d51d 82be 50fb 4dbe 7dae 053e c41f 923d
00000200: 32b3 593d b7c3 45bd 8afc 723c 7e5f c5bd
00000210: 45b5 263e 34e7 dabb 6393 a1bd f1b5 14be
00000220: d64d a93e 5efb 403e 8eb6 31bd 86d8 5dbd
00000230: cc3b 0f3f 2adc 333e 2db7 b53d 4c3d a63c
00000240: 7693 533e 4b96 5a3e 0a22 0abb 888f 49be
00000250: 9bf5 aa3c 02ba 7c3d f325 35bb a42d 8bbd
00000260: 16dc 953d e8b1 683e ae85 a5be ffe5 53bd
00000270: feac e7bd d8b2 69be 3ae4 353d 52f4 86bc
00000280: b714 b33e a234 103e 4eae a83e e357 693e
00000290: 93b9 8fbd 5caf 53bc 3d79 473e 5a96 d0bd
000002a0: 433b 9ebe 10da c0be 2f48 a3bb 9667 6a3e
000002b0: 9b1a eabc 002b d6bd e190 393d 918a 623e
000002c0: 4834 113e 7336 853e 2ba0 c93d 2304 953e
000002d0: cd22 9e3e 8b80 3c3e 819c 4dbe 79a8 4abe
000002e0: 8592 b93d e94f 8cbd 7606 8c3b 0d5b 96be
000002f0: 74b3 f6bd e5e5 40bc 8531 94bc e85f c23e
00000300: 2de9 c93c 8ea8 04be f76e 94be 3e7b 6abe
00000310: 7ad9 7a3e 0436 9a3e 1288 a43d 381e 2e3e
00000320: 6b25 dc3e 6695 d73d 3340 063f 47f9 a63e
00000330: 7868 2d3d a329 583d 7d6a b03d 57f2 3f3d
00000340: 1a15 d03d 7278 06bd 0548 f4bd 8453 593c
00000350: 293f a73d e73f 4bbe 6ee4 87be 7a20 bcbc
00000360: b9ed 143e 13ea 963e 00c5 b93d 4dc4 d83e
00000370: 384d af3e fd57 b93e f403 66bd 9b29 93bd
00000380: 9571 dcbd f26b 14be 3af6 703d 53c7 7d3e
00000390: 2085 c53e 7422 00be e659 1fbd 489d 363e
000003a0: 5a22 0dbe d3d7 44ba c6e6 07be 9062 a83d
000003b0: 539c e83d 02ac b3bc eebd 883d 49d4 c8bd
000003c0: c951 83bd 2c08 85bd a1cd 29b9 e663 b33e
000003d0: b1de 94be aadf e73d 9353 0c3d 3a1f 213e
000003e0: 6c29 b8be 4b27 92be 8fa7 4e3e b42f 283e
000003f0: c7ad a4be c7e2 e3bd 2e20 863e 1e7f 61bd

linear1.bias f4 [100]
-0.039486315 0.08569896 -0.06906792 0.08374066 0.057105917 0.021413382 -0.04943836 -0.0188659
-0.012656629 0.035145614 -0.00970735 -0.0071198037 0.025677314 -0.090837896 0.057608087 0.0043061115
0.04639771 0.008735926 -0.024290599 -0.027189825 0.02201595 -0.11506694 -0.09544917 0.09746998
0.01931386 0.13573226 -0.014433519 0.07632174 -0.15630652 -0.02646536 0.16100946 -0.06645695
0.05377471 -0.021123342 0.010465426 0.061795577 -0.019147234 0.030694121 0.004707342 0.067141086
-0.023609418 -0.004687007 0.011665563 -0.0092545925 0.013850666 0.04030711 0.05617444 0.07942223
-0.048203737 0.036864225 -0.17123705 0.024667457 0.0557425 -0.07853277 -0.002488449 0.06485306
-0.011939042 -0.03921301 -0.091596425 0.048800737 0.074367166 -0.17657903 0.015623131 0.07567566
0.15062289 0.035075586 -0.053856965 -0.07331006 -0.02966741 -0.17091979 0.06574185 0.015819125
-0.06685938 -0.06641512 -0.016810957 0.118866906 -0.024034508 -0.011723136 -0.041117013 -0.065251425
-0.08421662 -0.027276246 -0.043642208 0.059802704 -0.024785629 -0.011903858 0.086047016 0.11425727
-0.123117596 -0.027210182 0.07052061 -0.011998293 0.084421694 -0.0075188307 0.17038362 -0.037041422
0.03148574 0.062701866 0.06527001 0.086641654
00000000: 67bc 21bd f082 af3d 7b73 8dbd 3980 ab3d
00000010: e5e7 693d 1e6b af3c e17f 4abd a98c 9abc
00000020: c05d 4fbc d9f4 0f3d 940b 1fbc 3e4d e9bb
00000030: 3b59 d23c 3809 babd 75f6 6b3d 481a 8d3b
00000040: 860b 3e3d 2121 0f3c 14fd c6bc 32bd debc
00000050: cb5a b43c 37a8 ebbd db7a c3bd 579e c73d
00000060: 1a38 9e3c 66fd 0a3e 917a 6cbc 934e 9c3d
00000070: d10e 20be e2cd d8bc aadf 243e 951a 88bd
00000080: df42 5c3d dc0a adbc 2e77 2b3c 5c1d 7d3d
00000090: a9da 9cbc 3d72 fb3c 0c40 9a3b 4481 893d
000000a0: 8a68 c1bc 7795 99bb eb20 3f3c 93a0 17bc
000000b0: e7ed 623c 1119 253d 2b17 663d 1fa8 a23d
000000c0: 4871 45bd f1fe 163d c458 2fbe 6813 ca3c
000000d0: 3f52 643d cad5 a0bd 3f15 23bb aed1 843d
000000e0: f99b 43bc d29d 20bd e896 bbbd 48e3 473d
000000f0: d04d 983d 22d1 34be 29f8 7f3c d7fb 9a3d
00000100: e33c 1a3e 6bab 0f3d 1f99 5cbd 9623 96bd
00000110: 1109 f3bc 9905 2fbe aaa3 863d 1c97 813c
00000120: 92ed 88bd a704 88bd 22b7 89bc 7e70 f33d
00000130: 04e4 c4bc 6512 40bc 506a 28bd 8aa2 85bd
00000140: c379 acbd 6f72 dfbc 2cc2 32bd aef3 743d
00000150: 3b0b cbbc 6608 43bc 6b39 b03d b7ff e93d
00000160: 1425 fcbd e3e7 debc 1c6d 903d 7d94 44bc
00000170: 48e5 ac3d 8660 f6bb 0b79 2e3e bfb8 17bd
00000180: 31f7 003d d669 803d 48ac 853d 2e71 b13d

batchnorm3.weight f4 [100]
0.74971664 1.0804539 0.65754646 1.0151305 0.5172478 0.6188233 1.0637541 0.81287324
0.6245052 0.6868244 0.7390982 1.0352801 0.8138436 0.62307674 0.704342 0.95552284
0.7488068 0.4035835 1.3830631 0.91605 0.63048613 1.37648 0.89712024 1.0211506
1.327999 0.781127 1.1938094 0.59389037 0.97244805 1.2019485 1.0437568 1.1275597
1.226314 1.3075296 0.6476498 0.9159453 0.67687523 0.53560066 0.9905534 0.79551613
0.8478985 0.7974841 0.65385985 0.6150358 0.73115796 0.6703748 0.5413407 0.847586
0.6745647 0.8036679 1.1948555 0.5616765 0.56186146 1.0613431 0.67615104 1.3056865
0.4383902 1.3524573 1.2957461 0.57553905 0.7895789 1.5612007 1.2111595 0.7203233
1.1959698 1.2866988 0.6523821 1.0038365 0.87980795 0.9294604 0.94348127 1.1605412
0.5064155 0.6124701 0.7529989 0.899319 1.0347607 0.9971703 0.45201203 0.7750937
0.6946592 0.8190691 1.0142878 0.5568476 -0.019443914 0.52761173 1.2489333 0.9437746
1.2818223 0.91665477 0.92917997 0.9739426 0.46406797 1.2326235 1.2065681 0.86999667
0.890974 0.6252145 1.1524521 0.572401
00000000: 6eed 3f3f 504c 8a3f f754 283f ccef 813f
00000010: 5a6a 043f 346b 1e3f 1829 883f 7618 503f
00000020: 93df 1f3f b9d3 2f3f 8a35 3d3f 0f84 843f
00000030: 0e58 503f f581 1f3f c24f 343f 259d 743f
00000040: cdb1 3f3f 7fa2 ce3e 3608 b13f 4182 6a3f
00000050: 8a67 213f 7f30 b03f aca9 653f 10b5 823f
00000060: dffb a93f f0f7 473f bfce 983f 3309 183f
00000070: 5bf2 783f 73d9 993f d399 853f e053 903f
00000080: dbf7 9c3f 215d a73f 61cc 253f 647b 6a3f
00000090: b247 2d3f 201d 093f e894 7d3f f2a6 4b3f
000000a0: e00f 593f eb27 4c3f 5c63 273f fc72 1d3f
000000b0: 2b2d 3b3f af9d 2b3f 4e95 0a3f 65fb 583f
000000c0: 46b0 2c3f 2ebd 4d3f 06f1 983f 08ca 0f3f
000000d0: 27d6 0f3f 17da 873f 3c18 2d3f bc20 a73f
000000e0: ae74 e03e 521d ad3f 02db a53f 8756 133f
000000f0: d821 4a3f 6dd5 c73f 4607 9b3f 1c67 383f
00000100: 8a15 993f 8cb2 a43f 8302 273f b77d 803f
00000110: 183b 613f 1ef1 6d3f fd87 713f 9d8c 943f
00000120: 72a4 013f d7ca 1c3f 89c4 403f c539 663f
00000130: 0a73 843f 8e46 7f3f 1f6e e73e 8a6c 463f
00000140: 2fd5 313f 83ae 513f 2fd4 813f 908d 0e3f
00000150: d848 9fbc 9011 073f 0cdd 9f3f 369b 713f
00000160: c112 a43f e3a9 6a3f bdde 6d3f 4d54 793f
00000170: 519a ed3e 9bc6 9d3f d370 9a3f 1ab8 5e3f
00000180: df16 643f 0f0e 203f 8d83 933f df88 123f

batchnorm3.bias f4 [100]
0.2517195 0.25459403 0.21171369 -0.08325737 0.18345048 0.11188772 0.1262459 0.08957394
0.1535069 0.10373921 0.30619588 0.08533569 0.0031190438 0.04743508 0.26541057 0.150112
0.22999568 0.23411277 0.37127256 0.22590566 0.18340066 0.2450663 0.34527963 0.24960257
0.37024575 -0.041488893 0.19718172 0.0778816 0.27860922 0.36135918 0.29343387 0.21228318
0.12639077 0.174231 0.3120405 0.209533 0.35913247 0.19319248 0.16882446 0.27798238
0.20247428 0.19140707 -0.0015955814 0.24905364 0.4252515 0.15725628 0.03183641 0.16445893
0.20278646 0.33238018 0.20160751 0.17802934 0.30219364 0.21861146 0.18755473 0.16386247
0.32613897 0.23613586 0.33700308 0.15392144 0.007617781 0.27858713 0.23773032 0.068054125
0.18336068 0.3837718 0.11388207 0.091538474 0.14523518 0.11712751 0.23598148 0.20807783
0.1363668 0.28646573 0.29309314 -0.026336176 0.23302968 0.19940686 0.065089785 0.08260509
0.3295191 0.103075996 0.21202458 0.11435397 -0.06353037 0.24483365 0.05808874 0.11243579
0.17253946 0.11559974 0.17616177 0.22892997 0.12528048 0.16209644 0.21580938 0.24531627
0.19467297 0.12212888 0.19200712 0.29724228
00000000: 61e1 803e 265a 823e 79cb 583e d782 aabd
00000010: 71da 3b3e 6425 e53d 9b46 013e 8b72 b73d
00000020: ea30 1d3e 3975 d43d b5c5 9c3e 7ac4 ae3d
00000030: df68 4c3b 494b 423d e5e3 873e f6b6 193e
00000040: fd83 6b3e 42bb 6f3e 7017 be3e d053 673e
00000050: 62cd 3b3e a9f2 7a3e 7ec8 b03e d197 7f3e
00000060: da90 bd3e 42f0 29bd 01ea 493e 6380 9f3d
00000070: dea5 8e3e 1204 b93e f73c 963e c360 593e
00000080: 956c 013e 9c69 323e c6c3 9f3e d28f 563e
00000090: 36e0 b73e 40d4 453e 52e0 2c3e b553 8e3e
000000a0: 6b55 4f3e 3700 443e d422 d1ba eb07 7f3e
000000b0: 91ba d93e ca07 213e e566 023d ec67 283e
000000c0: 41a7 4f3e bc2d aa3e 3372 4e3e 534d 363e
000000d0: 20b9 9a3e afdb 5f3e 590e 403e 90cb 273e
000000e0: b0fb a63e 99cd 713e ab8b ac3e 959d 1d3e
000000f0: 949e f93b f9a2 8e3e 946f 733e f65f 8b3d
00000100: e7c2 3b3e bd7d c43e 013b e93d 8678 bb3d
00000110: 88b8 143e 8ce0 ef3d 21a5 713e 5b12 553e
00000120: bda3 0b3e a3ab 923e 4e10 963e f7be d7bc
00000130: 559f 6e3e 5031 4c3e cb4d 853d dc2c a93d
00000140: bab6 a83e 8219 d33d f91c 593e 6a32 ea3d
00000150: 361c 82bd acb5 7a3e 75ee 6d3d bc44 e63d
00000160: 2fae 303e 8ebf ec3d c063 343e 9e6c 6a3e
00000170: 8749 003e 9cfc 253e 22fd 5c3e 3034 7b3e
00000180: 5a58 473e b51e fa3d 849d 443e 2430 983e

batchnorm3.running_mean f4 [100]
0.87596184 0.8709748 -0.3503918 1.5855465 -0.01579795 -0.46545315 -0.052837536 0.4979575
1.4570843 1.1741427 -1.1700413 0.7684039 0.4592346 -0.76182365 -0.09437775 0.34992126
-0.85800993 -0.69276166 -0.39954376 0.4796118 -0.15595262 2.6879873 -0.95482975 -0.8007182
1.2605388 0.34938228 0.15027629 0.69652724 -0.58430207 -0.38892657 0.62049514 -0.29362693
0.82111824 0.37606648 -0.38804454 0.42841095 -0.59670717 -0.34245113 1.164241 1.0804596
0.4437268 -0.03982537 0.58691156 -0.7081253 -0.50130355 -0.99330604 0.5173959 -0.35285535
-0.9384382 -0.6837397 -1.1530496 0.5135861 -0.32495192 0.9653306 0.24165104 1.2839214
0.46224645 0.2597773 -0.5923396 0.74503815 0.033400796 -0.35169825 1.0560715 0.6366615
-0.3341845 -0.6491206 0.7637492 0.35992026 0.44421342 1.7021967 0.5091023 0.90106034
0.21367398 -0.6746289 -1.0765008 0.78881156 -0.8412304 0.034722753 0.21650277 -0.03467789
0.5926315 -1.2229087 0.60198414 0.70386696 0.8353922 0.6125286 -0.06761251 1.2883688
-0.265337 0.6127652 -0.7054332 -1.2688737 -0.2435635 -0.42389625 1.4463332 0.23694007
-0.037567403 0.027285997 1.4883707 0.9856526
00000000: 093f 603f 34f8 5e3f 8e66 b3be 30f3 ca3f
00000010: b46a 81bc e04f eebe 2c6c 58bd 49f4 fe3e
00000020: bd81 ba3f 4f4a 963f eac3 95bf 1eb6 443f
00000030: cc20 eb3e e006 43bf 1f49 c1bd e128 b33e
00000040: 8aa6 5bbf d458 31bf 0091 ccbe ae8f f53e
00000050: 0bb2 1fbe fc07 2c40 b96f 74bf defb 4cbf
00000060: 5659 a13f 3ce2 b23e 07e2 193e 9c4f 323f
00000070: d294 15bf 6221 c7be c5d8 1e3f 4556 96be
00000080: ce34 523f c98b c03e c6ad c6be ae58 db3e
00000090: cdc1 18bf c155 afbe d905 953f 804c 8a3f
000000a0: 2930 e33e ed1f 23bd d63f 163f b347 35bf
000000b0: 6e55 00bf 4e49 7ebf 0f74 043f 75a9 b4be
000000c0: 7c3d 70bf 9109 2fbf 2197 93bf 617a 033f
000000d0: 1960 a6be e81f 773f 5f73 773e 8957 a43f
000000e0: 91ab ec3e 8801 853e 91a3 17bf d2ba 3e3f
000000f0: 46cf 083d cb11 b4be 5a2d 873f 40fc 223f
00000100: 3b1a abbe c52c 26bf 1185 433f 7847 b83e
00000110: f16f e33e 95e1 d93f 8754 023f e4ab 663f
00000120: 5acd 5a3e 7bb4 2cbf c7ca 89bf 8eef 493f
00000130: e05a 57bf 7239 0e3d e7b2 5d3e 670a 0ebd
00000140: b3b6 173f 4688 9cbf a21b 1a3f a030 343f
00000150: 43dc 553f adce 1c3f 6d78 8abd 45e9 a43f
00000160: 40da 87be 2ede 1c3f 4597 34bf 746a a2bf
00000170: b668 79be ee08 d9be 7221 b93f 6ba0 723e
00000180: 47e0 19bd e286 df3c ee82 be3f bb53 7c3f

batchnorm3.running_var f4 [100]
2.8803852 1.7100247 2.1712372 2.3090248 2.667833 1.5361657 4.2289433 1.2134959
2.0783677 2.2905877 2.461586 1.8257499 2.5820842 1.955628 3.2083616 2.3255632
2.1340077 1.5090061 2.9386046 2.8323228 2.5335443 1.3013536 1.6978031 2.3057475
2.397618 2.6429427 2.4806952 2.6390562 1.3893586 1.9148955 1.6400619 2.6219766
1.8156376 1.9642266 2.056828 1.4579594 2.7780352 2.2106774 2.100702 2.4894419
1.8997344 1.9302756 2.3077416 2.916148 1.525769 1.3232883 2.4034977 1.3782485
2.0363677 1.8915032 1.4520572 1.9132342 1.9947168 3.1838229 2.657757 2.336265
2.7836561 2.4596844 2.4501426 1.7422879 1.2087301 2.1187081 3.6983185 2.6674056
3.8980105 2.1861475 2.2418766 2.8218179 2.7563558 2.20228 1.8985933 2.9915814
1.8032235 2.0042648 2.0596633 2.012261 2.196986 1.1972582 1.6406082 2.7973247
1.7415652 1.6980251 3.4548016 2.555494 0.2591947 1.6631343 2.8763235 2.1138873
1.4138676 2.7195983 1.230812 2.7894702 2.3275852 1.672333 1.9239149 1.9494877
2.3426645 3.1987138 1.3848236 2.679946
00000000: 3b58 3840 17e2 da3f 8df5 0a40 10c7 1340
00000010: c7bd 2a40 14a1 c43f 8153 8740 d553 9b3f
00000020: fa03 0540 fd98 1240 a08a 1d40 2cb2 e93f
00000030: de40 2540 0552 fa3f cc55 4d40 07d6 1440
00000040: 9593 0840 1d27 c13f 1912 3c40 c744 3540
00000050: 9725 2240 c192 a63f 9d51 d93f 5e91 1340
00000060: 9372 1940 f925 2940 b6c3 1e40 4ce6 2840
00000070: 81d6 b13f 4c1b f53f 8ced d13f 77ce 2740
00000080: d066 e83f c76b fb3f 12a3 0340 6a9e ba3f
00000090: 54cb 3140 bd7b 0d40 e771 0640 0453 1f40
000000a0: 7f2a f33f 4513 f73f 0ab2 1340 2ba2 3a40
000000b0: 664c c33f 8361 a93f e8d2 1940 726a b03f
000000c0: d953 0240 c71c f23f 03dd b93f dce4 f43f
000000d0: e152 ff3f c1c3 4b40 b118 2a40 5e85 1540
000000e0: 6c27 3240 786b 1d40 23cf 1c40 4a03 df3f
000000f0: abb7 9a3f ea98 0740 40b1 6c40 c6b6 2a40
00000100: 0179 7940 d7e9 0b40 e87a 0f40 aa98 3440
00000110: 2268 3040 28f2 0c40 1b05 f33f 1276 3f40
00000120: 07d0 e63f e045 0040 86d1 0340 e2c8 0040
00000130: 6b9b 0c40 c23f 993f 73ff d13f 5e07 3340
00000140: 9ceb de3f e358 d93f 781b 5d40 378d 2340
00000150: 2bb5 843e 96e1 d43f af15 3840 ee49 0740
00000160: 9df9 b43f e60d 2e40 3f8b 9d3f ae86 3240
00000170: 28f7 1440 020f d63f d842 f63f d088 f93f
00000180: 37ee 1540 bab7 4c40 e641 b13f 3c84 2b40

linear2.weight f4 [10, 100]
0.14522415 0.2041061 -0.08013008 -0.60118884 -0.42330623 -0.59055907 -0.6683037 -0.5100637
-0.59914446 -0.6437704 -0.7516555 -0.24689071 0.034393575 -0.35342214 0.09842357 -0.5335062
-0.4903557 -0.3105926 -0.63954353 0.38577852 -1.005581 0.09793825 0.24407469 -0.8841901
0.27365425 0.30380604 0.3426641 -0.058921233 0.44477162 0.076044805 0.0490503 0.33857107
-0.7132498 -0.85410035 0.058875114 -0.5070932 -0.5089866 -0.38792235 0.19092697 0.08224956
0.3418309 0.36048692 -0.2106779 -0.78332335 0.33590588 -0.28372902 -0.3831781 0.47321978
-0.41394174 -0.59739584 -0.7651226 -0.4372079 -0.66287005 0.12823957 -0.91611415 -0.501274
0.08770892 -0.09569282 -0.3159745 -0.484684 -0.54643404 0.27619663 0.13825183 -0.504954
-0.42066014 0.3456434 0.32292968 -0.41500533 -0.18092076 -0.36961237 -0.45907182 -0.07164523
-0.13496965 0.46754882 -1.044705 0.03827101 -0.31602308 -0.3530262 -0.08621538 -0.25639486
-0.38278753 -0.10160462 0.16349119 0.47169647 -0.03476929 -0.87084675 -0.3968505 -0.035557352
-0.23582464 -0.0441006 -0.4535772 -0.8047916 -0.23120579 -0.29250163 -0.09057992 -0.21844155
-0.3492278 -0.39204478 0.39126247 -0.21661282 -0.18949218 -0.13445804 -0.80141073 0.22216778
0.37683353 -0.10849434 -0.4902169 0.03808508 -0.43319938 0.27582797 -0.58686054 -0.4965038
0.15752263 -0.37893662 -0.21506312 -0.8676382 -0.65699065 0.12158636 0.15795851 -0.10049634
-0.6820741 -0.6232119 -0.47257987 0.2979592 -0.88536954 -0.27040514 -0.28111106 -0.12489276
-0.29524004 -0.067605145 0.2783322 -0.6615423 -0.7549611 -0.23827164 -0.16419631 -0.24682151
0.4016178 0.40642706 -0.0028628772 -0.9330574 -0.3633611 -0.26201713 -0.36980364 -0.35567176
-0.58476746 -0.8744496 -0.3961615 -0.69875914 0.25790524 -0.8886306 -0.68360084 -0.33579805
0.3269989 -0.009268977 -0.13453123 -0.56278366 0.00086067047 -0.71515423 0.31170547 0.40587312
-0.68686813 -0.36958697 -0.64113104 -0.6192942 0.3882452 0.016786823 -0.45081154 -0.52902335
-0.81441563 0.17609763 -0.7080946 0.34166837 0.15905075 -0.2640491 -0.6111892 -0.18408147
0.32284433 0.3320293 -0.30188492 -0.48581222 0.23583233 0.21001182 -0.60986465 -0.6681024
-0.032695863 -0.009287055 0.21208234 0.41783506 0.040265944 0.32051647 0.031309903 0.25541
-0.662048 0.3453911 -0.6499129 -0.8635957 -0.054031137 -0.0075163445 0.0832449 -0.9667483
0.16083439 -0.46809307 -0.115182616 -0.54587406 -0.054112036 -0.13848174 0.32661983 -0.5722699
0.06592925 -0.8134783 -0.6671239 0.09727585 -0.34380347 0.2847649 0.32157886 0.15508921
-0.23649639 -0.017625825 -0.6722153 -0.5574594 0.13263918 -0.28794593 -0.3931512 -0.41296366
-0.41805303 -0.2486066 0.027388634 -0.5129838 -0.55462146 -0.031772714 0.36037388 -0.34489036
0.33418226 -0.49333662 0.10228399 0.08739727 0.24467531 0.13578194 -0.21228717 0.39771894
0.30174538 -0.34146664 -0.68811923 0.36610463 -0.5046569 -0.2641486 -0.2923997 -0.32344383
0.22429383 -0.19935799 -0.51343507 0.18825625 -0.07974092 -0.56723464 -0.5958049 0.25372913
00000000: a4b5 143e 3101 513e 3d1b a4bd 83e7 19bf
00000010: 98bb d8be e12e 17bf f415 2bbf 8993 02bf
00000020: 8861 19bf 23ce 24bf 7f6c 40bf ebd0 7cbe
00000030: 47e0 0c3d bff3 b4be 4c92 c93d dd93 08bf
00000040: e70f fbbe fe05 9fbe 20b9 23bf c384 c53e
00000050: e1b6 80bf d993 c83d b7ee 793e 485a 62bf
00000060: 691c 8c3e 778c 9b3e ab71 af3e 6457 71bd
00000070: 1bb9 e33e 61bd 9b3d f8e8 483d 3059 ad3e
00000080: 8a97 36bf 52a6 5abf 0827 713d dcd0 01bf
00000090: f24c 02bf c29d c6be 5c82 433e 7572 a83d
000000a0: 7604 af3e be91 b83e f3bb 57be e187 48bf
000000b0: dbfb ab3e ee44 91be ec2f c4be dd49 f23e
000000c0: 2cf0 d3be efee 18bf 13df 43bf b7d9 dfbe
000000d0: dab1 29bf 3c51 033e 7586 6abf 7e53 00bf
000000e0: bca0 b33d 99fa c3bd 69c7 a1be 8028 f8be
000000f0: 1ae3 0bbf a569 8d3e e391 0d3e aa44 01bf
00000100: c460 d7be 2cf8 b03e 0a57 a53e 947b d4be
00000110: 4b43 39be d53d bdbe 760b ebbe bcba 92bd
00000120: 7c35 0abe 8f62 ef3e e5b8 85bf 10c2 1c3d
00000130: c7cd a1be dabf b4be b091 b0bd 3046 83be
00000140: bafc c3be 1516 d0bd 3c6a 273e 3382 f13e
00000150: 3e6a 0ebd d0ef 5ebf fd2f cbbe 96a4 11bd
00000160: 047c 71be d5a2 34bd 453b e8be d306 4ebf
00000170: 36c1 6cbe c6c2 95be f781 b9bd 24af 5fbe
00000180: fccd b2be 18ba c8be 8e53 c83e c0cf 5dbe
00000190: 3d0a 42be 5eaf 09be 4129 4dbf f37f 633e
000001a0: 53f0 c03e 4832 debd b6fd fabe 1aff 1b3d
000001b0: 4fcc ddbe 5339 8d3e 7e3c 16bf bf35 febe
000001c0: 9d4d 213e fb03 c2be 8239 5cbe 891d 5ebf
000001d0: 8a30 28bf 4502 f93d e0bf 213e 06d1 cdbd
000001e0: 699c 2ebf d18a 1fbf fdf5 f1be 1c8e 983e
000001f0: 94a7 62bf 8b72 8abe caed 8fbe c6c7 ffbd
00000200: b429 97be 9174 8abd 8f81 8e3e d65a 29bf
00000210: 2145 41bf 7bfd 73be 1423 28be c7be 7cbe
00000220: d9a0 cd3e 3517 d03e 1c9f 3bbb dadc 6ebf
00000230: 770a babe 1c27 86be e756 bdbe 9c1a b6be
00000240: 52b3 15bf eedb 5fbf aed5 cabe e1e1 32bf
00000250: 280c 843e 4c7d 63bf 7700 2fbf b9ed abbe
00000260: 666c a73e e8dc 17bc 8ec2 09be 9712 10bf
00000270: 9e9e 613a 5914 37bf dc97 9f3e 9ace cf3e
00000280: 97d6 2fbf 813a bdbe 2a21 24bf 118a 1ebf
00000290: 13c8 c63e 8584 893c c5d0 e6be 136e 07bf
000002a0: 8b7d 50bf f052 343e b045 35bf 28ef ae3e
000002b0: 33de 223e 7231 87be e576 1cbf da7f 3cbe
000002c0: da4b a53e bfff a93e a990 9abe 61bc f8be
000002d0: 087e 713e 570d 573e 1720 1cbf c208 2bbf
000002e0: 19ec 05bd bb28 18bc 1d2c 593e 7aee d53e
000002f0: e7ed 243d bc1a a43e d03e 003d 19c5 823e
00000300: fa7b 29bf 1ad7 b03e b160 26bf 9c14 5dbf
00000310: c14f 5dbd ab4b f6bb 4d7c aa3d d17c 77bf
00000320: c5b1 243e e5a9 efbe dde4 ebbd 67be 0bbf
00000330: 95a4 5dbd 28ce 0dbe b73a a73e 4880 12bf
00000340: ea05 873d 1d40 50bf a2c8 2abf 9038 c73d
00000350: 0207 b0be b4cc 913e fca5 a43e b5cf 1e3e
00000360: 1c2c 72be 0964 90bc 4d16 2cbf a9b5 0ebf
00000370: 91d2 073e a66d 93be 1d4b c9be f96f d3be
00000380: 0c0b d6be bb92 7ebe 215e e03c e852 03bf
00000390: acfb 0dbf 1b24 02bd ed82 b83e 7895 b0be
000003a0: f019 ab3e 9e96 fcbe 457a d13d 57fd b23d
000003b0: 2a8c 7a3e 6c0a 0b3e cf61 59be d1a1 cb3e
000003c0: 5f7e 9a3e b7d4 aebe 9528 30bf 1172 bb3e
000003d0: 3231 01bf 7c3e 87be 6ab5 95be 6e9a a5be
000003e0: 48ad 653e 8024 4cbe 7b70 03bf 3fc6 403e
000003f0: 354f a3bd 4a36 11bf ac86 18bf c9e8 813e

linear2.bias f4 [10]
-0.23834261 0.12863125 -0.08989729 0.0279726 -0.08173554 0.06733773 -0.11808261 -0.071495265
0.102626264 0.21241707
00000000: 1610 74be e9b7 033e 121c b8bd cb26 e53c
00000010: f664 a7bd 5de8 893d 4cd5 f1bd 1c6c 92bd
00000020: b82d d23d dc83 593e
