research/differential_privacy/multiple_teachers/checkpoint/mnist_10_teachers_4.pth (torch_old, 139301 bytes, 20 tensors)

conv1.weight f4 [16, 1, 5, 5]
0	0xbd8e224d	-0.06940136
1	0x3de254aa	0.11051305
2	0xbdbfc560	-0.09363818
3	0x3dc3b9fd	0.09556959
4	0xbdad2a1f	-0.084552996
5	0xbc2256f0	-0.009908423
6	0x3e2fc526	0.1716505
7	0x3deda7ab	0.11604246
8	0x3d8abe9e	0.067746386
9	0xbe5f8ff9	-0.21832265
10	0x3e621be3	0.2208095
11	0x3e736b6b	0.23771445
12	0xbdf9b855	-0.12193362
13	0xbe6324e9	-0.22182049
14	0xbdb35160	-0.087557554
15	0x3e313cdb	0.17308371
16	0x3ec64344	0.38723195
17	0x3dab0aa2	0.083516374
18	0x3e43bc20	0.19114733
19	0x3d920201	0.071292885
20	0xbd5e31ac	-0.05424659
21	0x3e92aa38	0.28645492
22	0x3dfd6ce3	0.12374284
23	0x3cfdad47	0.030966414
24	0x3ed6d712	0.4196096
25	0xbd308cc1	-0.043102983
26	0xbd82c5a4	-0.06385353
27	0x3d803c4c	0.06261501
28	0x3e45e372	0.19325045
29	0x3f01f845	0.50769454
30	0x3d9e23c8	0.077216685
31	0x3cf1b2d5	0.02950422
32	0xbd5ca546	-0.053868555
33	0xbe42631a	-0.18983117
34	0xbeae405d	-0.3403348
35	0x3e7d1fd9	0.2471918
36	0x3df31f8a	0.1187125
37	0xbe2cec4a	-0.16887012
38	0xbece4a30	-0.40290976
39	0xbe058044	-0.1303721
40	0xbe8d8e4f	-0.27647635
41	0xbebe75af	-0.3719916
42	0xbd9fefdc	-0.078094214
43	0xbd9c054d	-0.076181985
44	0x3cbc02f9	0.022950636
45	0xbe36c7c5	-0.17849644
46	0x3dcce553	0.100046776
47	0x3e4e7fdb	0.2016596
48	0x3e59bb72	0.21262911
49	0xbd09a9a0	-0.033609033
50	0xbe6be48a	-0.230364
51	0xbe2a58ae	-0.16635391
52	0xbde0dca8	-0.10979587
53	0xbe598783	-0.212431
54	0xbbcc24f8	-0.006229993
55	0x3d9c8dc7	0.076442294
56	0xbcfb862d	-0.030703628
57	0xbdacea15	-0.08443085
58	0x3d349172	0.04408402
59	0x3e5f4b19	0.21805991
60	0x3e2c095c	0.16800445
61	0x3e738c1e	0.23783919
62	0x3ec252c1	0.3795376
63	0x3c97f0e5	0.018547485
64	0x3d9660fc	0.07342717
65	0xbce95cf9	-0.028486716
66	0x3d82844e	0.06372891
67	0xbd0d4b06	-0.034495376
68	0x3dec149a	0.11527367
69	0xbe61cc97	-0.22050701
70	0xbd05bc10	-0.032650054
71	0xbe5b3d75	-0.21410163
72	0xbe5b8f91	-0.21441485
73	0xbe803477	-0.25040027
74	0xbea585cb	-0.32328638
75	0x3e2e1fbf	0.17004298
76	0x3e31bbc9	0.1735679
77	0x3d87aa6f	0.066243045
78	0xbe2e412d	-0.1701705
79	0xbed9d68f	-0.42546508
80	0xbceb7540	-0.028742433
81	0xbe12f416	-0.14350924
82	0xbe0f00a1	-0.13965084
83	0xbea52aea	-0.32259303
84	0xbe30cc0b	-0.17265336
85	0xbe0f87b9	-0.14016618
86	0xbe3856b4	-0.18001825
87	0xbead810c	-0.33887517
88	0xbe8127da	-0.25225717
89	0x3d77f7a0	0.060538888
90	0x3dafc2aa	0.08582051
91	0xbe53daf2	-0.2068899
92	0xbe051efa	-0.13000098
93	0xbef6e4e8	-0.48221517
94	0xbda1dbc9	-0.07903249
95	0x3e1ee28c	0.15516108
96	0xbdf7689b	-0.12080499
97	0xbe4a7671	-0.19771744
98	0xbeb82358	-0.35964465
99	0x3e23daa0	0.16001368
100	0xbe4e82a0	-0.20167017
101	0xbea2fe77	-0.31834766
102	0xbc44903e	-0.011997281
103	0xbe63197a	-0.22177687
104	0xbe91eaf6	-0.28499573
105	0xbee4c665	-0.44682613
106	0xbea54008	-0.32275414
107	0xbeca9228	-0.39564633
108	0xbe7fa01d	-0.24963422
109	0xbe68446a	-0.22682348
110	0xbc24ad5a	-0.010051096
111	0xbd11a67f	-0.035559174
112	0xbca3d24c	-0.019997738
113	0x3d9bda5e	0.076100096
114	0xbc4f83a3	-0.012665662
115	0x3da8f506	0.082498595
116	0x3e628d2d	0.22124167
117	0xbd14c2b9	-0.036318514
118	0xbd84b38e	-0.0647956
119	0x3e9951f5	0.2994534
120	0x3e352ee2	0.17693666
121	0xbdc99a61	-0.098438986
122	0x3dfe5d6e	0.12420164
123	0x3e257190	0.16156602
124	0x3e57cdcf	0.21074603
125	0x3d53c208	0.051698714
126	0x3dcfd68f	0.10148346
127	0x3e587264	0.21137387
128	0x38959440	7.1324874e-05
129	0xbe889807	-0.26678488
130	0x3d6564f4	0.05600448
131	0xbcf0d976	-0.029400568
132	0x3ea1868b	0.3154796
133	0xbde9a898	-0.1140911
134	0xbe0f3b26	-0.13987407
135	0xbed18ba2	-0.40926844
136	0x3ddc3fa5	0.10754327
137	0x3e99b3e6	0.30020064
138	0x3e83486f	0.256412
139	0xbe947bf4	-0.2900082
140	0xbe3c519e	-0.1839051
141	0xbe4f140f	-0.20222495
142	0x3e3d3b3f	0.18479632
143	0x3e19940d	0.14997883
144	0xbdd252d7	-0.10269707
145	0xbe08ec22	-0.13371328
146	0xbe2f2721	-0.1710477
147	0x3ce246ad	0.027621591
148	0x3e72f6e0	0.23726988
149	0xbcdd8975	-0.027043084
150	0x3de501e0	0.11181998
151	0x3dc93cac	0.09826025
152	0xbd347505	-0.04405691
153	0xbda91f2c	-0.08257899
154	0xbd75f638	-0.060049266
155	0x3d18e8e8	0.03733149
156	0x3db63f2e	0.08898769
157	0x3e289d21	0.1646619
158	0x3e792670	0.24331069
159	0x3e3f0834	0.18655473
160	0xbe1ac1aa	-0.1511294
161	0xbcde8768	-0.027164176
162	0x3de05342	0.1095338
163	0x3c62e2a6	0.0138479825
164	0x3e1e5cc9	0.15465082
165	0xbe550e74	-0.20806295
166	0xbd886b69	-0.06661112
167	0xbc4a51f9	-0.012348645
168	0xbe0e16db	-0.13875906
169	0xbdc2437d	-0.094855286
170	0xbe13f222	-0.14447835
171	0xbe769b01	-0.24082567
172	0xbedfb358	-0.43691516
173	0xbe23ae25	-0.159844
174	0xbeb2c113	-0.3491293
175	0xbc62a109	-0.013832339
176	0xbca74244	-0.02041734
177	0x3e358478	0.17726314
178	0x3d06fdf5	0.032957036
179	0x3e0174ba	0.12642184
180	0xbe5e6da7	-0.21721517
181	0x3da7e2b4	0.08197537
182	0xbea1401f	-0.31494233
183	0x3d7c749e	0.061634652
184	0xbeb501e1	-0.35352996
185	0x3de3ea81	0.111287124
186	0xbdf1dcd3	-0.11809697
187	0xbcb8c77f	-0.022556065
188	0xbe7ce207	-0.24695598
189	0xbdd70768	-0.104994595
190	0xbedf0dd9	-0.43565252
191	0xbe2e492b	-0.17020099
192	0xbe87305b	-0.2640408
193	0xbc2deb33	-0.010615158
194	0x3de903d2	0.11377682
195	0xbe22bad9	-0.15891589
196	0xbdf8e4b4	-0.12152997
197	0xbdd585ff	-0.10425948
198	0x3ce3e883	0.027820831
199	0x3bbdd46b	0.0057931445
200	0xbf03b41b	-0.51446694
201	0x3c5f5d17	0.013633034
202	0x3e50096b	0.20316093
203	0x3d5e5494	0.05427988
204	0x3df066be	0.117383465
205	0xbd4d3d34	-0.050107196
206	0x3ebe1369	0.37124184
207	0x3e04d3c6	0.1297141
208	0xbe2f1731	-0.1709869
209	0xbdb8825e	-0.090092406
210	0x3deff731	0.1171707
211	0x3d3550eb	0.044266623
212	0xbc5f5025	-0.013629948
213	0xbe9fe346	-0.31228083
214	0xbe6a3383	-0.22871213
215	0x3e32678f	0.17422317
216	0xbe9b5c33	-0.3034378
217	0xbe338d2f	-0.17534326
218	0xbcd91dc5	-0.026503453
219	0x3e1fd3d5	0.15608151
220	0xbe159c49	-0.146104
221	0xbd883f60	-0.06652713
222	0x3bdab120	0.006673947
223	0x3e61ca12	0.2204974
224	0x3e066a87	0.13126574
225	0x3e199cbb	0.15001194
226	0x3e4b9b40	0.19883442
227	0x3e0a59d1	0.13510825
228	0x3e3c18a6	0.18368778
229	0x3ea4bcdb	0.32175335
230	0xbd294f0f	-0.04133516
231	0xbb6284e3	-0.003456407
232	0x3d3d47c0	0.046211004
233	0xbd11fa91	-0.03563935
234	0x3e5b9544	0.21443659
235	0xbe112c2f	-0.14177011
236	0xbc4b916c	-0.012424808
237	0xbd01c861	-0.031685237
238	0xbe21a3f7	-0.15785204
239	0x3c3918b1	0.011297391
240	0xbedf735f	-0.4364271
241	0xbea432f8	-0.32070136
242	0xbe6587d9	-0.22415103
243	0xbe0ca60b	-0.13735215
244	0x3cb77788	0.022395864
245	0xbe3e97a8	-0.1861254
246	0xbe459b3c	-0.19297498
247	0xbec572ab	-0.38564047
248	0xbeb316c6	-0.34978312
249	0xbe270f5b	-0.16314451
250	0x3d13c939	0.036080573
251	0xbd986cfa	-0.07442661
252	0xbe1d2d84	-0.15349394
253	0x3da2a1a5	0.079409875
254	0xbe9742d8	-0.29543185
255	0xbded1a40	-0.115772724

conv1.bias f4 [16]
0	0x3e4fee77	0.20305811
1	0xbe077cc5	-0.1323119
2	0x3db04b6b	0.08608135
3	0xbd5a6270	-0.053316534
4	0xbd8ada70	-0.06779945
5	0x3db81fdc	0.08990452
6	0x39d559a8	0.00040693325
7	0xbe1880f0	-0.14892936
8	0xbb9f8774	-0.004868442
9	0xbda79a04	-0.08183673
10	0x3e495f64	0.19665295
11	0x3d307167	0.0430769
12	0x3e064c86	0.13115129
13	0xbd7b00f5	-0.06128021
14	0xbcc2b81f	-0.023769436
15	0x3e2660ef	0.16247915

batchnorm1.weight f4 [16]
0	0x3e898efe	0.26866907
1	0x3e8b3dfb	0.27195725
2	0x3e8ae0a2	0.27124506
3	0x3f412836	0.7545198
4	0x3f16d76e	0.5892247
5	0x3e98d5fc	0.29850757
6	0x3f6998fa	0.9124905
7	0x3d696c49	0.056988034
8	0x3f83c1e8	1.029355
9	0x3f7f649c	0.9976289
10	0x3d8d3ea0	0.068967104
11	0x3f1ca4a5	0.6118873
12	0x3f057754	0.52135205
13	0x3f0ca39c	0.5493715
14	0x3f8a11db	1.0786699
15	0x3f3e3057	0.7429251

batchnorm1.bias f4 [16]
0	0xbec0464d	-0.37553635
1	0xbe06777b	-0.13131516
2	0xbdd5cbfa	-0.10439296
3	0xbcf0ba09	-0.029385583
4	0x3c9c9a65	0.01911659
5	0xbe991709	-0.29900387
6	0x3d02c59e	0.031926744
7	0xbe58f199	-0.21185912
8	0xbeab4e7f	-0.33458325
9	0x3dc040bf	0.09387349
10	0xbde8e11c	-0.11371061
11	0xbe971b3a	-0.2951296
12	0xbd587f33	-0.05285568
13	0xbeb494f6	-0.35269898
14	0xbd94fa7b	-0.07274338
15	0xbeebadee	-0.46031135

batchnorm1.running_mean f4 [16]
0	0x42a5037c	82.506805
1	0xc1f3ad25	-30.459543
2	0xc20af477	-34.738735
3	0xc3060fd6	-134.06186
4	0xc284628c	-66.192474
5	0xbfdfbe31	-1.7479917
6	0xc22f476a	-43.81974
7	0xc2aef950	-87.48694
8	0xc1a76d41	-20.928347
9	0xc2860dfe	-67.02733
10	0xc2b4e940	-90.45557
11	0xc1d0e9c2	-26.11414
12	0x3f92fa98	1.1482725
13	0xc2009bbb	-32.15208
14	0xc27f07d5	-63.75765
15	0xc19117d5	-18.136637

batchnorm1.running_var f4 [16]
0	0x4682d87c	16748.242
1	0x45ee5522	7626.6416
2	0x45d5ae70	6837.8047
3	0x47362a20	46634.125
4	0x46d7c792	27619.785
5	0x459f0618	5088.7617
6	0x463fd49a	12277.15
7	0x468c08af	17924.342
8	0x459019da	4611.2314
9	0x46d5eb5e	27381.684
10	0x467062ea	15384.729
11	0x45d9363f	6950.781
12	0x45e6f138	7390.1523
13	0x457d567d	4053.4055
14	0x46af1d86	22414.762
15	0x45bf833a	6128.4033

conv2.weight f4 [16, 16, 5, 5]
0	0xbe513771	-0.20431305
1	0xbd47e216	-0.048799597
2	0xbd638b90	-0.05555302
3	0xbcfa6222	-0.030564371
4	0x3bc777c7	0.0060872766
5	0x3c025f54	0.007957298
6	0xbd9ab350	-0.075537324
7	0xbd89c240	-0.06726503
8	0xbbf23287	-0.0073912772
9	0x3d929aff	0.071584694
10	0x3e088fb8	0.13336074
11	0xbc1a6816	-0.00942423
12	0xbcfeb8c4	-0.031093962
13	0xbc583c91	-0.013198034
14	0xbdfdd48e	-0.12394057
15	0x3d4633f6	0.048389398
16	0xbd972053	-0.07379212
17	0x3e52b399	0.20576324
18	0x3e52caf3	0.20585231
19	0x3d097145	0.033555288
20	0xbc2bd1d0	-0.010487035
21	0x3d1dc732	0.038520046
22	0x3e63a794	0.22231895
23	0x3eb986b6	0.3623559
24	0x3e202d97	0.15642391
25	0xbc056971	-0.008142815
26	0x3e590107	0.21191798
27	0x3e24bccc	0.16087645
28	0x3e18805e	0.14892718
29	0x3de6e46c	0.11274037
30	0x3de8d5dd	0.11368916
31	0x3e0a1b78	0.13487041
32	0x3e6aa0ae	0.22912857
33	0x3db78ea9	0.08962757
34	0xbe804191	-0.25050023
35	0xbd8006ae	-0.06251274
36	0xbd0a5796	-0.033774935
37	0xbd6cb79d	-0.057792295
38	0x3c64a81e	0.013956098
39	0xbbdd8c2c	-0.0067610946
40	0xbddef139	-0.10885853
41	0xbd05b039	-0.032638762
42	0x3e2c26fb	0.16811745
43	0x3e10b1cc	0.14130324
44	0x3e4a837c	0.1977672
45	0x3c6596d4	0.014013011
46	0xbdba0131	-0.090822585
47	0xbe1a2c26	-0.15055904
48	0xbd91595b	-0.07097121
49	0x3e220e17	0.15825687
50	0xbe01cff4	-0.12676984
51	0xbe66be5b	-0.22533552
52	0xbd97120f	-0.07376491
53	0x3dad1041	0.08450366
54	0x3e30d37d	0.17268176
55	0xbea15c8d	-0.31515923
56	0xbe265970	-0.16245055
57	0x3caede08	0.021346107
58	0x3d5dcb6d	0.05414908
59	0xbd73d3d2	-0.05952818
60	0xbe9f5f65	-0.31127468
61	0xbe9a86b4	-0.30180895
62	0xbeb192ee	-0.3468241
63	0xbec59162	-0.3858748
64	0xbe986ca5	-0.2977039
65	0xbe4d6ab8	-0.20060241
66	0xbe42e48d	-0.19032498
67	0xbd2cda1c	-0.042200193
68	0x3ab2ed5c	0.0013651061
69	0x3ce512b1	0.027963014
70	0xbe26bdc6	-0.1628333
71	0xbe3c0aee	-0.18363544
72	0xbd83c3ad	-0.064338066
73	0x3c8e8344	0.017396577
74	0x3e389667	0.18026124
75	0x3e10ef7d	0.14153858
76	0x3e0ac559	0.13551845
77	0x3e9a18ca	0.30097038
78	0x3e8270c8	0.2547667
79	0x3e2f7212	0.17133358
80	0x3dbd1471	0.092324145
81	0x3dff51a7	0.12466746
82	0x3d21d73d	0.039511908
83	0xbe2557a6	-0.16146716
84	0xbd94bbb5	-0.07262365
85	0x3cb35b56	0.021894138
86	0xbe24d85f	-0.16098164
87	0xbe0e4f0e	-0.13897344
88	0xbda90cb8	-0.08254379
89	0xbcc0d596	-0.023539346
90	0xbd821d18	-0.063532054
91	0xbe6e70f4	-0.23285276
92	0xbe5d2e88	-0.21599782
93	0xbe843392	-0.25820595
94	0xbe413a9a	-0.18870011
95	0xbde4ca80	-0.11171436
96	0xbe7ee19f	-0.24890755
97	0xbe6a9dca	-0.22911754
98	0xbe79b2f8	-0.24384677
99	0xbdbb25a9	-0.091380425
100	0xbcd0450c	-0.02542355
101	0xbdc5a96d	-0.09651456
102	0x3dc56095	0.09637562
103	0x3e8c2301	0.27370456
104	0x3e9c1e28	0.30491757
105	0xbdadbc4d	-0.08483181
106	0x3bfbaee3	0.00768076
107	0x3d863daf	0.06554734
108	0x3e1c240b	0.15248124
109	0x3daba30b	0.08380707
110	0xbbec136a	-0.007204463
111	0x3cf85e0f	0.030318288
112	0xbda318bf	-0.07963704
113	0xbe89dd94	-0.26926863
114	0xbe8dc73d	-0.2769107
115	0xbdcbe61b	-0.099559985
116	0xbe1cabca	-0.15299907
117	0xbe2e1744	-0.17001063
118	0xbdcc26bb	-0.09968325
119	0xbd86b107	-0.06576734
120	0xbe021652	-0.12703827
121	0xbe873250	-0.26405573
122	0xbe1515d4	-0.14559108
123	0x3d82bebd	0.06384037
124	0x3dabef50	0.083952546
125	0xbe724263	-0.23658137
126	0xbe6b34ca	-0.22969356
127	0xbe1555ba	-0.14583483
128	0xbeac025b	-0.33595547
129	0xbe29e746	-0.1659213
130	0xbe66740c	-0.22505206
131	0xbe9e9643	-0.30974016
132	0xbdd49ac2	-0.1038108
133	0xbe62cc5c	-0.2214827
134	0xbdb08ebb	-0.08620974
135	0x3be6d383	0.007044257
136	0xbc9eee8e	-0.019400861
137	0x3cb6de40	0.022322774
138	0xbe1dc4e6	-0.15407142
139	0x3bfd6088	0.0077324547
140	0xbc3c0542	-0.011475863
141	0x3e566874	0.20938283
142	0x3d495185	0.04915001
143	0xbe0ea0c1	-0.1392851
144	0xbdae2979	-0.08504004
145	0x3d56ae7b	0.05241249
146	0x3de9466b	0.11390384
147	0x3e09fa00	0.13474274
148	0x3dbaadf0	0.09115207
149	0xbc955e04	-0.018233307
150	0xbdd822d5	-0.10553519
151	0xbd552568	-0.052037627
152	0xbe13e3c0	-0.14442348
153	0xbde97743	-0.113997005
154	0xbe1a545d	-0.15071245
155	0xbe2a7a7a	-0.16648284
156	0xbb5640ed	-0.0032692507
157	0xbdd6b89e	-0.10484432
158	0xbdb3c9b8	-0.08778709
159	0xbd06be06	-0.032896064
160	0xbebe7c92	-0.37204415
161	0xbf03da33	-0.5150482
162	0xbe6c0644	-0.23049265
163	0xbdcb1dbe	-0.09917782
164	0x3d0a98e6	0.03383722
165	0xbdda125c	-0.10648033
166	0xbe47c03c	-0.19506925
167	0xbe53a82c	-0.20669621
168	0xbe2bd55d	-0.1678061
169	0x3da55a5e	0.08073877
170	0x3dc3ba07	0.09556966
171	0x3d19a9ed	0.03751557
172	0x3d5976a2	0.053091653
173	0xbdd80bd9	-0.10549135
174	0xbe0a1042	-0.13482764
175	0x3d6eea9e	0.058329217
176	0xbd8be632	-0.06831016
177	0xbe041c23	-0.12901358
178	0xbd7a525c	-0.0611137
179	0xbd2a948e	-0.04164558
180	0xbc7e5e9b	-0.015525485
181	0xbe3f4480	-0.18678474
182	0xbe4e3b16	-0.20139727
183	0xbbb57695	-0.0055378177
184	0xbc50d36b	-0.0127457185
185	0xbdfb21a2	-0.12262274
186	0xbe280248	-0.1640712
187	0xbe00b907	-0.12570582
188	0xbd83be79	-0.06432814
189	0xbd9b79c0	-0.07591581
190	0xbe2d7e9c	-0.16942829
191	0xbe0fc8df	-0.1404147
192	0xbd70a6d0	-0.058752835
193	0x3d1e058e	0.038579516
194	0xbda52dda	-0.08065386
195	0xbe192746	-0.14956388
196	0xbe15e0fd	-0.14636607
197	0xbda4320a	-0.08017357
198	0x3d0aa8ea	0.033852495
199	0x3e3d1941	0.18466665
200	0x3c783315	0.015148898
201	0x3e0e05b9	0.1386937
202	0x3ddb8fbc	0.107207745
203	0xbe66515b	-0.22491972
204	0xbdeeddd2	-0.116634026
205	0x3eb9d506	0.36295336
206	0x3eb1d944	0.34736073
207	0x3e036515	0.12831528
208	0xbd9b0755	-0.07569758
209	0xbd37baff	-0.044856068
210	0x3e9dcdc7	0.30821058
211	0x3ee52d02	0.447609
212	0x3d91c839	0.071182676
213	0xbc99f634	-0.018794157
214	0xbceba107	-0.028763307
215	0x3e29dd8f	0.16588424
216	0x3e51e059	0.20495738
217	0x3df5465f	0.11976313
218	0x3da1b794	0.07896343
219	0xbd2e6b65	-0.04258289
220	0x3dc4cc2b	0.096092544
221	0xbe3e7e83	-0.18602948
222	0x3d1c2d8b	0.03812937
223	0x3db585c3	0.08863404
224	0x3e7cd70a	0.24691406
225	0xbe29c078	-0.16577327
226	0xbe7e5533	-0.24837188
227	0xbeb16aaa	-0.3465169
228	0xbe9d91de	-0.3077535
229	0xbe442f67	-0.19158708
230	0xbeb1c6c6	-0.34721965
231	0xbed27feb	-0.4111322
232	0xbea798c5	-0.3273374
233	0xbdb9d17a	-0.090731576
234	0xbab7a25b	-0.0014010178
235	0xbe9ff3ec	-0.31240785
236	0xbef9eec6	-0.48814982
237	0xbe8c7f84	-0.27441037
238	0xbda5dfb5	-0.08099309
239	0xbb4f76b7	-0.0031656453
240	0xbd24c868	-0.040230185
241	0xbe5617c8	-0.2090751
242	0xbe80e1b0	-0.25172186
243	0xbde08320	-0.1096251
244	0xbcf6955a	-0.030100513
245	0x3e26d3fb	0.16291802
246	0xbcfaa98c	-0.030598424
247	0xbdc935e8	-0.09824735
248	0xbd848897	-0.06471365
249	0xbdc980e6	-0.098390386
250	0x3b909eb5	0.0044134506
251	0xbc52aa14	-0.012857933
252	0x3d400e71	0.046888772
253	0xbe1b69d3	-0.15177087
254	0xbe0bccd1	-0.1365235
255	0xbda2ff87	-0.07958894

conv2.bias f4 [16]
0	0x3e162931	0.14664151
1	0x3ca04f3f	0.019569037
2	0xbe8b35a3	-0.2718936
3	0x3e5242dd	0.20533319
4	0xbd6c16b6	-0.057638846
5	0x3ddd8629	0.10816605
6	0x3bdcb7af	0.006735764
7	0xbe036f58	-0.12835443
8	0x3dcda6f9	0.10041613
9	0xbe16c1f9	-0.14722432
10	0x3a623f2c	0.0008630629
11	0x3d8159fe	0.06315993
12	0x3e1feca6	0.15617618
13	0xbdf743be	-0.12073468
14	0x3dc796eb	0.09745582
15	0x3dc26d23	0.094934724

batchnorm2.weight f4 [16]
0	0x3eb4599a	0.3522461
1	0x3edab939	0.4271944
2	0x3f0984c6	0.5371822
3	0x3ee14c4a	0.44003516
4	0x3f05392d	0.5204037
5	0x3ee8031c	0.45314872
6	0x3f251b74	0.64495015
7	0x3f09c26a	0.5381228
8	0x3f4a0656	0.7891592
9	0x3f3e81eb	0.7441699
10	0x3e959780	0.29217148
11	0x3f102e63	0.5632078
12	0x3eac8dd2	0.3370195
13	0x3efde2b8	0.49587035
14	0x3e7f7e9d	0.24950643
15	0x3e8395a8	0.25700116

batchnorm2.bias f4 [16]
0	0xbdf0bd5d	-0.11754868
1	0x3d3172d9	0.043322418
2	0xbdea5688	-0.11442286
3	0xbdca2ac0	-0.09871435
4	0xbd74bd5b	-0.059750896
5	0xbe5175fd	-0.20455165
6	0xbe96ecc1	-0.29477504
7	0xbeb8322f	-0.35975787
8	0xbe753bf2	-0.23948649
9	0xbe01585d	-0.12631364
10	0xbdf38873	-0.1189126
11	0xbe2881db	-0.16455786
12	0xbe013a7c	-0.12619966
13	0xbe4edad5	-0.20200665
14	0xbd5d1215	-0.053972322
15	0xbc424a54	-0.0118585415

batchnorm2.running_mean f4 [16]
0	0xc01505db	-2.3284824
1	0xbf7f2f52	-0.9968158
2	0x3cc5b7c8	0.024135485
3	0xbe9317bc	-0.28729045
4	0xbf487e58	-0.78317785
5	0xbfa4a9d3	-1.2864326
6	0xbe6bed74	-0.230398
7	0xbf8ab54c	-1.0836577
8	0xbff349c0	-1.9006882
9	0xbf9f6dd2	-1.245539
10	0x3fe7e0e6	1.8115509
11	0xbfaf7d54	-1.3710122
12	0xbfea03e4	-1.8282437
13	0xbfa23175	-1.2671343
14	0x3f0e058d	0.5547722
15	0x4081c5d3	4.0553985

batchnorm2.running_var f4 [16]
0	0x40778dc3	3.8680274
1	0x3ffddf1c	1.9833713
2	0x40579719	3.3685973
3	0x402011d5	2.5010884
4	0x4075a4c0	3.8381805
5	0x4038f918	2.8902035
6	0x40a08937	5.01675
7	0x4080c5c7	4.0241427
8	0x4086eb6e	4.216239
9	0x40a324d1	5.098244
10	0x404b053a	3.172194
11	0x408b8649	4.360142
12	0x4065ebc3	3.5925148
13	0x40935683	4.6043105
14	0x400add4f	2.1697576
15	0x407142f8	3.7697124

linear1.weight f4 [100, 256]
0	0x3d711a0e	0.05886274
1	0xbc386198	-0.011253737
2	0xbe567c4d	-0.20945854
3	0x3d4d8b8d	0.050181914
4	0x3e28550b	0.16438691
5	0x3e109495	0.1411918
6	0xbde5fca7	-0.1122983
7	0xbe5ca44d	-0.21547051
8	0x3e1376a1	0.14400722
9	0x3e7bea45	0.24601085
10	0x3e80652a	0.25077182
11	0x3d85884e	0.06520139
12	0x3ed8a809	0.423157
13	0x3e84d683	0.2594491
14	0x3e9ceac1	0.30647853
15	0xbde6dda2	-0.11272742
16	0xbe0301d5	-0.12793668
17	0xbe1bb522	-0.15205815
18	0xbe9beec6	-0.30455607
19	0xbdc9792d	-0.098375656
20	0x3c35a747	0.011087245
21	0xbe59837a	-0.2124156
22	0xbe0b9435	-0.13630755
23	0xbeb8c6fa	-0.36089307
24	0xbd542895	-0.051796515
25	0x3f0f11f1	0.5588675
26	0xbd8ff15a	-0.07028456
27	0xbe0d19b9	-0.13779344
28	0xbe4d2da8	-0.20036948
29	0x3ec3f48b	0.3827251
30	0xbdf0c339	-0.11755986
31	0x3c71b2c1	0.014752091
32	0x3dbbe62e	0.09174763
33	0xbd328701	-0.04358578
34	0x3e03ac6e	0.12858745
35	0x3ebd019d	0.36915293
36	0x3da6be3e	0.081417546
37	0x3e2a2805	0.16616829
38	0x3e0f6ed2	0.14007118
39	0x3d3d717b	0.0462508
40	0xbe19f503	-0.15034871
41	0xbd780d62	-0.060559638
42	0x3e2cb27e	0.16864964
43	0xbe54c43a	-0.2077798
44	0xbe0eb3df	-0.13935803
45	0xbea2bc5d	-0.31784335
46	0x3e5bd4e5	0.21467932
47	0xbe44ba00	-0.19211578
48	0xbd17a681	-0.037024025
49	0x3d6cb66c	0.05779116
50	0x3d3776e7	0.04479113
51	0x3e2e1385	0.16999634
52	0x3d299569	0.041402254
53	0x3d868dac	0.065699905
54	0x39945dc2	0.00028298615
55	0x3da833e5	0.08213023
56	0xbdc9517e	-0.098299965
57	0xbd2e856d	-0.042607713
58	0x3da41906	0.08012585
59	0xbe257ad4	-0.16160136
60	0xbe978bdb	-0.2959889
61	0x3e5c6710	0.2152369
62	0x3d966151	0.073427804
63	0x3e761119	0.2402996
64	0xbd25e928	-0.04050556
65	0x3e0f2600	0.1397934
66	0x3bf80e56	0.0075700684
67	0xbd12137b	-0.03566311
68	0xbe83fc35	-0.25778356
69	0xbe02e2e2	-0.12781861
70	0x3e5fa99a	0.21842042
71	0x3db3b7a4	0.08775261
72	0xbefefe0a	-0.4980319
73	0xbe4e5805	-0.20150764
74	0xbd922775	-0.07136432
75	0x3d1db9ff	0.038507458
76	0x3cb7d501	0.022440435
77	0x3e7e25f0	0.2481916
78	0x3eb726b7	0.35771725
79	0x3e7137bd	0.23556419
80	0xbe1f07c9	-0.15530314
81	0xbd806960	-0.06270099
82	0xbda889ed	-0.08229432
83	0x3b31db5a	0.00271388
84	0x3dbbb4a6	0.09165315
85	0xbc8f06d1	-0.017459305
86	0x3eaa8b56	0.3330943
87	0x3ef9cae9	0.4878762
88	0x3d3730c3	0.044724237
89	0x3d39c6fc	0.045355782
90	0x3d501ba7	0.05080762
91	0x3e2f6ec0	0.17132092
92	0xbb8bc892	-0.004265853
93	0x3e92ca36	0.286699
94	0x3e98546e	0.29751915
95	0xbdf73135	-0.12069932
96	0x3db8c1a1	0.09021307
97	0x3d1c2fc0	0.038131475
98	0x3e81d886	0.25360507
99	0xbd001aa7	-0.031275418
100	0x3e0db43a	0.13838282
101	0x3c9ec0eb	0.0193791
102	0xbe36ddde	-0.17858073
103	0xbbf0258e	-0.0073286956
104	0x3e10efd0	0.14153981
105	0xbd0b4093	-0.03399713
106	0xbe51a04f	-0.20471309
107	0x3d5afbaf	0.05346268
108	0x3e325a39	0.1741723
109	0xbcc4561b	-0.02396684
110	0x3e716389	0.23573126
111	0x3d855d7c	0.06511971
112	0xbe18b88d	-0.1491415
113	0xbda0f186	-0.07858567
114	0xbc8b1752	-0.016978893
115	0x3e3b1676	0.18270287
116	0x3ee5d832	0.44891506
117	0xbe13b4ff	-0.14424513
118	0x3ddc910e	0.107698545
119	0x3e18303f	0.14862154
120	0x3e57e7b8	0.21084487
121	0xbd628f4d	-0.055312444
122	0xbdbf1bfd	-0.0933151
123	0xbe46649b	-0.19374315
124	0xbe78a0ac	-0.24280041
125	0xbdf1e9c1	-0.11812163
126	0x3d8c64b0	0.06855142
127	0xbcf4d27f	-0.029885529
128	0x3dbad4eb	0.09122642
129	0xbde88611	-0.11353696
130	0xbcdbd876	-0.026836615
131	0xbd83602f	-0.0641483
132	0x3e260d48	0.16216004
133	0x3cd00145	0.02539123
134	0xbdef6fc8	-0.116912425
135	0xbdbf9cb5	-0.09356061
136	0x3e85b1b0	0.26112127
137	0x3e7b382b	0.24533145
138	0xbe11218a	-0.1417295
139	0x3c997bea	0.018735845
140	0x3efdc980	0.49567795
141	0x3e455287	0.19269763
142	0x3e171399	0.1475357
143	0x3d191976	0.037377797
144	0x3e7937f6	0.24337754
145	0x3e0b82ed	0.13624163
146	0x3c8d8228	0.017273977
147	0xbe24a958	-0.16080225
148	0x3cc51c10	0.024061233
149	0x3d5aa87b	0.05338333
150	0x3d0465fe	0.03232383
151	0xbdbbacca	-0.09163816
152	0x3d851f4d	0.06500111
153	0x3e9a77db	0.30169567
154	0xbe36b02d	-0.17840643
155	0x3c2291f7	0.009922496
156	0x3d7b0ee4	0.061293498
157	0xbe5a521e	-0.21320388
158	0x3dc1619f	0.09442448
159	0xbc8d4669	-0.017245488
160	0x3e1e4afa	0.15458289
161	0x3d0d4d03	0.034497272
162	0x3eaa5d10	0.33274126
163	0x3e74c583	0.2390347
164	0xbe10bd5b	-0.14134733
165	0xbce5ef7e	-0.0280683
166	0x3e3ca9b1	0.18424107
167	0xbdcee0f9	-0.10101504
168	0xbe810e7c	-0.25206363
169	0xbeab378b	-0.33440813
170	0x3db28c6e	0.08718191
171	0x3de33798	0.11094588
172	0xbd980b20	-0.07423997
173	0xbe3eb916	-0.18625292
174	0xbdf2edad	-0.11861739
175	0x3d9b2fc4	0.0757747
176	0x3d7afdb9	0.061277125
177	0x3df47275	0.119358934
178	0xbda32d2f	-0.079676025
179	0x3e8a2df4	0.26988184
180	0x3e99bf51	0.30028775
181	0x3de6dfd0	0.112731576
182	0xbdbca38f	-0.09210884
183	0xbe0ba32a	-0.13636461
184	0x3d9638fa	0.07335086
185	0xbd53b84e	-0.05168944
186	0x3d637420	0.055530667
187	0xbdc9f974	-0.098620325
188	0xbd0ec4a8	-0.034855515
189	0xbde1734d	-0.1100832
190	0xbc09f822	-0.008420976
191	0x3e96334f	0.2933602
192	0xbbb3d0e1	-0.005487547
193	0xbde2ba8b	-0.110707365
194	0xbdee0053	-0.116211556
195	0xbe17c41c	-0.14820904
196	0x3e25a6df	0.16176938
197	0x3e9bd928	0.30439115
198	0x3cb10171	0.021607133
199	0x3e6b163e	0.22957703
200	0x3e83971a	0.2570122
201	0x3e09b183	0.13446622
202	0x3ecf30a0	0.40466785
203	0x3e23bb40	0.15989399
204	0x3c9df665	0.01928253
205	0xbd38cf0e	-0.045119338
206	0x3d64f157	0.055894222
207	0x3d8ec47a	0.06971069
208	0x3e547db8	0.20751083
209	0xbde47f24	-0.11157063
210	0xbd9fd641	-0.078045376
211	0xbd4a736e	-0.04942649
212	0x3d9fb248	0.07797676
213	0xbe6acbe3	-0.22929339
214	0xbe5aeafd	-0.21378703
215	0xbda751cc	-0.081698984
216	0x3d62441e	0.055240743
217	0x3e8659f7	0.26240513
218	0x3d5e1a6c	0.054224417
219	0x3eb8d599	0.36100462
220	0x3e5fc285	0.21851547
221	0x3ec0438f	0.37551543
222	0xbc8b7688	-0.017024294
223	0xbde9c566	-0.11414604
224	0xbc565fe0	-0.013084382
225	0xbd7b1e1f	-0.061308023
226	0x3d2c6855	0.042091686
227	0x3e93e7f5	0.28887907
228	0x3e3e094f	0.18558238
229	0xbe51483a	-0.20437708
230	0xbe0fe07e	-0.1405048
231	0x3d86fa7d	0.065907456
232	0xbd0a55a8	-0.033773094
233	0xbd034270	-0.03204578
234	0xbe5bcdd5	-0.21465237
235	0xbda438ea	-0.08018668
236	0xbc71a4c7	-0.014748759
237	0xbe1ef03a	-0.15521327
238	0x3dab9d8b	0.08379658
239	0xbd08c69f	-0.033392545
240	0x3d40c9a6	0.047067307
241	0x3ca2e783	0.019885784
242	0x3dba009c	0.090821475
243	0x3eb3ba62	0.35103136
244	0xbe9f0570	-0.31058836
245	0x3de5f689	0.112286635
246	0xbc46454f	-0.012101485
247	0x3e0195c0	0.12654781
248	0xbeb6abb6	-0.3567788
249	0xbe6a625f	-0.22889088
250	0x3d60e0b0	0.05490178
251	0x3d5210ab	0.051285427
252	0xbe9e8beb	-0.30966124
253	0xbe1e9775	-0.15487464
254	0x3e58fa6c	0.21189278
255	0xbdf33471	-0.11875237

linear1.bias f4 [100]
0	0xbd26c16b	-0.0407118
1	0x3d7af895	0.061272223
2	0xbd01524e	-0.031572632
3	0x3da9f198	0.082980335
4	0x3d8dfb8d	0.06932745
5	0x3cd7c17c	0.026337378
6	0xbd8da607	-0.06916433
7	0xbc9b813b	-0.01898252
8	0xbc1d4dff	-0.009601115
9	0x3b0d619b	0.002157307
10	0xbb2ac08a	-0.0026054704
11	0x3d0780ac	0.033081695
12	0xbc855dcf	-0.016280083
13	0xbdcf5ff1	-0.10125721
14	0x3d34e96d	0.044167925
15	0xbcf8c2f4	-0.030366398
16	0x3d897288	0.06711298
17	0xbb1beb15	-0.0023791243
18	0xbc19dd04	-0.009391073
19	0xbd020535	-0.031743247
20	0x3cabe1cb	0.02098169
21	0xbdc9c7b7	-0.09852546
22	0xbd666b84	-0.05625488
23	0x3dd11814	0.10209671
24	0x3b269d16	0.002542322
25	0x3dc2107e	0.09475802
26	0x3bd0960a	0.0063655423
27	0x3dcdbe0c	0.10046014
28	0xbe3e798d	-0.18601055
29	0xbd99462d	-0.07484088
30	0x3e42d213	0.1902545
31	0xbd9ad2d6	-0.07559745
32	0x3d3f4614	0.04669769
33	0xbd5ddec3	-0.05416752
34	0x3d2eb18b	0.042649787
35	0x3cef8f14	0.02924303
36	0xbc900f1d	-0.017585332
37	0x3d58e0fe	0.052948944
38	0xbd096b14	-0.033549383
39	0x3d29dffc	0.041473374
40	0xbc5a6766	-0.013330316
41	0x3bded9c8	0.006800864
42	0x3c1dcd52	0.009631472
43	0xbca47298	-0.020074174
44	0x3d024973	0.031808328
45	0x3d7d9007	0.061904933
46	0x3d0b47bb	0.034003954
47	0x3d66cac4	0.056345716
48	0xbd5a9ad1	-0.0533703
49	0x3d31af75	0.04338022
50	0xbdea3005	-0.1143494
51	0xba933dc4	-0.0011233618
52	0x3d42f7e5	0.047599692
53	0xbd97f09c	-0.074189395
54	0x3c9f4694	0.019442834
55	0x3d2ce819	0.042213533
56	0xbc5cccca	-0.01347656
57	0xbd3bb6a0	-0.04582846
58	0xbd6ba9e6	-0.057535075
59	0x3cf5ac0b	0.029989263
60	0x3d906115	0.07049767
61	0xbe2e53cb	-0.17024152
62	0xbc32d010	-0.010913864
63	0x3da5ae3f	0.080898754
64	0x3d8c469b	0.068494044
65	0xbc2cc46c	-0.0105448775
66	0xbb3b7e27	-0.0028609128
67	0xbd7d2ed7	-0.061812248
68	0xbd0c23f5	-0.03421398
69	0xbe15c461	-0.14625694
70	0x3d6927d8	0.056922764
71	0x3c94b1dd	0.018151218
72	0xbda2f9a5	-0.07957772
73	0xbd9644aa	-0.073373154
74	0x3c8529be	0.016255256
75	0x3dc01604	0.09379199
76	0xbd92e4a3	-0.07172515
77	0xbc50fdec	-0.012755852
78	0xbcfa30c6	-0.030540835
79	0xbd52f2b8	-0.051501006
80	0xbdc1c642	-0.09461643
81	0xbd11f672	-0.03563542
82	0xbd3b9140	-0.045792818
83	0x3d0a2793	0.033729147
84	0xbccb0b3b	-0.024785629
85	0xbce55095	-0.027992526
86	0x3d462273	0.048372697
87	0x3d96046f	0.073250644
88	0xbdd38aa8	-0.10329181
89	0xbc2518af	-0.010076686
90	0x3d3ebb44	0.04656531
91	0x3b081e41	0.0020769986
92	0x3d9a2294	0.075261265
93	0xbc958040	-0.01824963
94	0x3e34bc48	0.17649949
95	0xbd25a225	-0.040437836
96	0x3d5ee2c7	0.05441549
97	0x3c985344	0.018594392
98	0x3cdc1da9	0.026869612
99	0x3d887b5a	0.066641524

batchnorm3.weight f4 [100]
0	0x3f3a1dfd	0.7270201
1	0x3f94fc56	1.1639507
2	0x3f31316b	0.6921603
3	0x3f8c7c32	1.0975401
4	0x3f103ceb	0.56342953
5	0x3f3616c3	0.7112848
6	0x3f849ebe	1.0360944
7	0x3f5a3945	0.85243636
8	0x3f0e1325	0.5549796
9	0x3f298edd	0.6623362
10	0x3f3ef4c9	0.7459226
11	0x3f7eea01	0.9957581
12	0x3f57260e	0.8404244
13	0x3f2f8e04	0.68576074
14	0x3f1ed6e8	0.6204667
15	0x3f619536	0.881183
16	0x3f474755	0.7784322
17	0x3eed4fe1	0.46350005
18	0x3fa6e09d	1.3037297
19	0x3f73967c	0.95151496
20	0x3f05894b	0.5216262
21	0x3fb823ae	1.4385889
22	0x3f5145ae	0.8174695
23	0x3f857519	1.042636
24	0x3fa4dc8b	1.2879804
25	0x3f536c1c	0.82586837
26	0x3f878bf3	1.0589584
27	0x3f2d0124	0.67579865
28	0x3f6b57ea	0.9193102
29	0x3f9e0d6f	1.234785
30	0x3f82067b	1.0158228
31	0x3f8c12a5	1.094319
32	0x3fa2d88e	1.2722337
33	0x3fb556f2	1.4167159
34	0x3f0d9eb8	0.5532031
35	0x3f59014b	0.847676
36	0x3f278173	0.654319
37	0x3f0a2d7e	0.53975666
38	0x3f72d741	0.948597
39	0x3f0dafbb	0.5534627
40	0x3f471c61	0.7777768
41	0x3f1a82ed	0.60356027
42	0x3f35f3f1	0.7107535
43	0x3f0e46ef	0.55576986
44	0x3f3e909a	0.74439394
45	0x3f21fd62	0.63277256
46	0x3f1d0fa6	0.61352
47	0x3f41fd04	0.75776696
48	0x3f38998e	0.72109306
49	0x3f2e430d	0.6807106
50	0x3f9e1b3e	1.2352064
51	0x3f110149	0.56642586
52	0x3ef38474	0.4756199
53	0x3f8eb1b9	1.1147987
54	0x3f323136	0.6960634
55	0x3fa3a65f	1.2785147
56	0x3ee00f2e	0.4376158
57	0x3fa63af5	1.2986742
58	0x3fa7fa35	1.3123232
59	0x3f14db73	0.5814735
60	0x3f4754fb	0.77864045
61	0x3fbb8c8b	1.4652265
62	0x3f972005	1.1806647
63	0x3f47a671	0.77988344
64	0x3fa51980	1.2898407
65	0x3fa904c9	1.3204585
66	0x3f413fc3	0.7548792
67	0x3f89bdae	1.0761011
68	0x3f678451	0.90436274
69	0x3f71638b	0.94292516
70	0x3f7e4d98	0.9933715
71	0x3f92cfb4	1.1469636
72	0x3f1199cd	0.56875306
73	0x3f19f5a7	0.6014046
74	0x3f371909	0.71522576
75	0x3f65df2b	0.8979365
76	0x3f88b9d2	1.0681708
77	0x3f6a93a3	0.91631526
78	0x3ec69670	0.3878665
79	0x3f4c6e72	0.79856026
80	0x3f33470b	0.7003028
81	0x3f47ad8a	0.77999175
82	0x3f76083c	0.96106315
83	0x3ef03dc7	0.46922132
84	0xbc9f48d8	-0.019443914
85	0x3f0b8375	0.5449746
86	0x3fa75a21	1.307438
87	0x3f76b28d	0.96366197
88	0x3fad34e7	1.353177
89	0x3f6cb438	0.9246249
90	0x3f740592	0.95321
91	0x3f76a809	0.9635015
92	0x3ee158ac	0.44012964
93	0x3f9be42c	1.2179008
94	0x3f8bfb69	1.0936099
95	0x3f608435	0.8770173
96	0x3f5a727b	0.85330933
97	0x3f1f127f	0.621376
98	0x3f8b2667	1.0871094
99	0x3f26b283	0.6511614

batchnorm3.bias f4 [100]
0	0x3e5cda0c	0.21567553
1	0x3e88e7bc	0.267393
2	0x3e5de24b	0.21668355
3	0x3d0db48e	0.03459602
4	0x3e7e0db6	0.24809918
5	0x3e39bb00	0.18137741
6	0x3e2d824c	0.16944236
7	0x3dc896b8	0.09794372
8	0x3e7245b1	0.23659398
9	0x3e26e6db	0.16299002
10	0x3e74a7fc	0.23892206
11	0x3e2ef183	0.17084317
12	0x3df7e6ee	0.12104593
13	0x3e0efe0e	0.13964102
14	0x3e69566c	0.22786874
15	0x3e901d4c	0.28147352
16	0x3e828536	0.25492257
17	0x3e2b4316	0.1672481
18	0x3ea8c589	0.32963207
19	0x3e8b7059	0.27234152
20	0x3e221ea7	0.15832005
21	0x3e9d4702	0.30718237
22	0x3e9b4ad8	0.3033054
23	0x3e86845f	0.26272866
24	0x3e9572c4	0.29189122
25	0x3d92b83f	0.071640484
26	0x3e0568b6	0.13028225
27	0x3e379db9	0.1793126
28	0x3e8965ce	0.26835483
29	0x3e9a7aaa	0.3017171
30	0x3e80278d	0.25030175
31	0x3e4dea8d	0.20109005
32	0x3e84f921	0.2597132
33	0x3e504459	0.20338573
34	0x3e84df1a	0.25951463
35	0x3e51c393	0.20484762
36	0x3eadf9df	0.339797
37	0x3e42d034	0.19024736
38	0x3e1e2289	0.15442862
39	0x3e63cc8a	0.22245994
40	0x3e35ed74	0.17766362
41	0x3e0f6268	0.14002383
42	0xbc249ad5	-0.01004668
43	0x3e43e41a	0.19129983
44	0x3ebee122	0.37281138
45	0x3e5a76b0	0.21334338
46	0x3dbddbfc	0.09270474
47	0x3e07212a	0.13196245
48	0x3e86c57d	0.26322547
49	0x3e7cf452	0.24702576
50	0x3e7537a4	0.23947006
51	0x3e61d062	0.22052148
52	0x3e91ba26	0.28462332
53	0x3e6ffdb8	0.2343663
54	0x3e411c70	0.18858504
55	0x3e2d150f	0.16902564
56	0x3ea14bfe	0.3150329
57	0x3e82c58a	0.25541335
58	0x3eb35093	0.3502241
59	0x3e775360	0.24152899
60	0x3dd64800	0.10462952
61	0x3e7da856	0.24771246
62	0x3e4e442b	0.20143192
63	0x3dd7544e	0.10514127
64	0x3e6de32b	0.23231189
65	0x3ea72800	0.32647705
66	0x3e409570	0.18807006
67	0x3e1e399c	0.15451664
68	0x3e3d09b4	0.18460733
69	0x3d76a9f8	0.06022069
70	0x3e80f574	0.25187266
71	0x3e3f05cd	0.18654557
72	0x3e3651f3	0.17804699
73	0x3e7b171b	0.24520533
74	0x3e92e2ec	0.28688753
75	0x3da1cbc5	0.07900194
76	0x3e701bac	0.23448056
77	0x3e62359c	0.22090763
78	0x3db19cb6	0.08672468
79	0x3e037385	0.12837036
80	0x3e878f69	0.264766
81	0x3e4f6dfd	0.20256801
82	0x3e813ad7	0.25240204
83	0x3e031d7c	0.12804216
84	0xbd821c36	-0.06353037
85	0x3e5265e6	0.20546684
86	0x3e586102	0.21130756
87	0x3e0bf32b	0.1366698
88	0x3e856034	0.2604996
89	0x3e47ed48	0.1952411
90	0x3e6cfa24	0.23142296
91	0x3e5616a5	0.20907076
92	0x3e38267b	0.17983429
93	0x3e42118d	0.18952008
94	0x3e935929	0.2877896
95	0x3e7d59c3	0.24741273
96	0x3e7c1e3a	0.24620906
97	0x3e427409	0.18989576
98	0x3e409100	0.18805313
99	0x3ea182cb	0.315451

batchnorm3.running_mean f4 [100]
0	0x3f132090	0.5747156
1	0x3dd3ac28	0.103355706
2	0x3cda5105	0.026649961
3	0x3f2db720	0.6785755
4	0xbe058fe2	-0.13043168
5	0xbcc2acd1	-0.023764046
6	0x3e836e09	0.25669888
7	0x3f0d1008	0.55102587
8	0x3f2019e8	0.6253953
9	0x3ee2a5b7	0.44267055
10	0xbf4aff1c	-0.79295516
11	0x3eeaa1d3	0.45826587
12	0x3da6c5bd	0.08143184
13	0xbf87e767	-1.0617493
14	0xbf4900db	-0.7851693
15	0xbf2999e0	-0.6625042
16	0xbde293e5	-0.11063365
17	0x3ea4a582	0.32157522
18	0xbebb7c57	-0.366183
19	0x3e8e718e	0.2782101
20	0x3dadaf31	0.08480681
21	0x3ff58fbc	1.9184489
22	0xbf48dc2d	-0.7846096
23	0xbcce34d3	-0.025171673
24	0x3f8ba4fe	1.0909727
25	0xbe2bac2e	-0.167649
26	0x3f01b09e	0.5066012
27	0x3f897709	1.0739452
28	0xbe44111e	-0.19147155
29	0xbf422e6a	-0.7585207
30	0x3f154ce9	0.5832048
31	0xbe2e7118	-0.1703533
32	0x3b64b885	0.0034900021
33	0x3ef809e2	0.4844504
34	0xbf27b0d6	-0.65504205
35	0xb9b315c1	-0.00034157748
36	0xbec6c293	-0.38820323
37	0x3d4e024f	0.05029517
38	0xbdbefb48	-0.09325272
39	0x3f9415c6	1.1569145
40	0xbe7e2df7	-0.24822222
41	0x3ef43793	0.4769865
42	0x3f7afc36	0.98041093
43	0xbed463f7	-0.41482517
44	0xbe09c598	-0.13454282
45	0xbf287fc9	-0.65819985
46	0xbd3a462d	-0.04547708
47	0xbeb3fb7b	-0.35152802
48	0xbf2eccd6	-0.68281305
49	0xbec8798d	-0.39155236
50	0xbf6fabd8	-0.9362159
51	0xbd8c84d2	-0.06861271
52	0xbd7a5673	-0.0611176
53	0x3d156a29	0.036478195
54	0x3ec3f027	0.3826916
55	0x3f40fc2a	0.7538477
56	0x3ec0ef09	0.3768237
57	0x3cf6a50b	0.030107995
58	0xbedb1c9b	-0.42795262
59	0xbef83dec	-0.48484743
60	0x3e12e970	0.14346862
61	0xbe0bcc1a	-0.13652077
62	0x3f51269d	0.81699544
63	0x3f2666c1	0.6500054
64	0xbe802576	-0.2502858
65	0xbeb0727f	-0.34462354
66	0x3edff2c0	0.4373989
67	0x3ecc2ddd	0.3987874
68	0x3da091a8	0.07840282
69	0x3fcfe459	1.6241561
70	0x3ebc5785	0.36785522
71	0x3fb790c6	1.4341056
72	0x3ed1e46b	0.40994582
73	0xbeffa4e6	-0.49930495
74	0xbf33b6db	-0.7020089
75	0x3f00dce7	0.5033707
76	0xbf69067d	-0.91025525
77	0xbd9be8eb	-0.07612785
78	0x3dcc6278	0.09979719
79	0xbe01bc33	-0.12669449
80	0x3f57ec44	0.8434489
81	0xbfaa07d9	-1.3283645
82	0x3e109d07	0.14122401
83	0x3f345fe6	0.7045883
84	0x3f4cc271	0.79984194
85	0x3f115381	0.5676804
86	0xbe3fb06b	-0.18719642
87	0x3f953647	1.1657189
88	0x3def2ab6	0.11678068
89	0x3e545a66	0.2073761
90	0xbb5d1450	-0.003373403
91	0xbf4eed11	-0.80830485
92	0x3c4d7ace	0.012541486
93	0xbf367f0c	-0.7128761
94	0x3f382059	0.7192436
95	0x3f25a491	0.64704233
96	0xbdc55547	-0.09635406
97	0xbd82c629	-0.06385452
98	0x3e549bb6	0.20762524
99	0x3f45c33c	0.7725103

batchnorm3.running_var f4 [100]
0	0x4003d2a3	2.0597312
1	0x3fa9c845	1.3264242
2	0x3f82002b	1.0156301
3	0x4006ba59	2.1051238
4	0x3fd10670	1.633009
5	0x3f66b15e	0.9011439
6	0x402c400e	2.6914096
7	0x3f6420d4	0.8911259
8	0x3fd5a769	1.6691715
9	0x3fc89f9d	1.567371
10	0x3fa73590	1.3063221
11	0x3fcbda8c	1.592607
12	0x3f9c44e9	1.220853
13	0x3f35265e	0.7076167
14	0x401754fc	2.364562
15	0x3fb705e6	1.4298675
16	0x3fa86e5e	1.3158681
17	0x3f5ea9d9	0.86977917
18	0x3fc49941	1.5359269
19	0x3fd9d7c3	1.701897
20	0x4012fdd1	2.2967417
21	0x3f762972	0.9615699
22	0x3f9aa298	1.208087
23	0x3fe199c4	1.762505
24	0x3fe6ec93	1.8040947
25	0x3f991652	1.1959937
26	0x3fd7c146	1.6855857
27	0x3fa9e0b2	1.3271697
28	0x3f9247f5	1.142821
29	0x3fd0550e	1.6275957
30	0x3f914a78	1.1350851
31	0x4014c0b1	2.324261
32	0x3f7321fd	0.94973737
33	0x3f8392cb	1.0279173
34	0x3fb5d45c	1.4205432
35	0x3fabd3ed	1.342405
36	0x40020e78	2.032133
37	0x3f94877b	1.1603845
38	0x3fce94c6	1.6139152
39	0x4009fe0d	2.156131
40	0x3fc004f7	1.5001515
41	0x3f913cef	1.134672
42	0x3f9f9f5f	1.2470511
43	0x3fb8acec	1.4427772
44	0x3f8f6e30	1.1205502
45	0x3f91fd34	1.1405396
46	0x3fafa2c0	1.3721542
47	0x3f732ce7	0.9499039
48	0x3f8d139f	1.1021613
49	0x3fed163e	1.8522413
50	0x3fbef4b5	1.4918429
51	0x3fef7eba	1.8710549
52	0x3fbd8811	1.4807149
53	0x400dcbba	2.2155595
54	0x3fbeec27	1.4915818
55	0x3fb89f97	1.4423703
56	0x3fe274b0	1.769186
57	0x4000f995	2.0152333
58	0x3fd5d17c	1.6704555
59	0x3fb34a3f	1.4007033
60	0x3fc1305c	1.5092883
61	0x3fd89ee2	1.6923487
62	0x4018433e	2.3791041
63	0x3fb5c927	1.4202012
64	0x3fd40e43	1.6566852
65	0x3fbd2a1c	1.4778476
66	0x3f93feb8	1.1562109
67	0x3f8075d0	1.0035954
68	0x400134d4	2.0188494
69	0x3f9dc3a4	1.232533
70	0x3fd422ac	1.6573081
71	0x3fd93aed	1.6971108
72	0x3f6abd1d	0.91694814
73	0x3fb7328a	1.4312298
74	0x40019f67	2.0253541
75	0x3f75844e	0.95905006
76	0x3fd03716	1.6266811
77	0x3f8d8693	1.1056694
78	0x3fac0aa4	1.3440747
79	0x3feaa65d	1.833202
80	0x3f786fa5	0.97045356
81	0x3f70b305	0.9402316
82	0x3fe99270	1.8247814
83	0x400099bb	2.009383
84	0x3e6c3ea4	0.2307077
85	0x3fba0f43	1.4535908
86	0x3fbbf8b9	1.4685279
87	0x3fd94e17	1.6976956
88	0x3f888429	1.0665332
89	0x3fc3c854	1.529551
90	0x3f93db25	1.1551253
91	0x3fdad2fb	1.7095636
92	0x3fe5f91f	1.7966651
93	0x3f97ca98	1.1858702
94	0x3feb3fdf	1.8378867
95	0x3f9f632f	1.2452143
96	0x3fae53bb	1.3619303
97	0x3fd7c38e	1.6856554
98	0x3fc4a47a	1.5362694
99	0x3f8843f2	1.0645735

linear2.weight f4 [10, 100]
0	0x3e581113	0.21100263
1	0x3e861719	0.26189497
2	0xbde2f959	-0.110827155
3	0xbf1b924c	-0.60770106
4	0xbec10461	-0.37698653
5	0xbf0a5ad1	-0.54044825
6	0xbf11c8b0	-0.5694685
7	0xbeb9b008	-0.36267114
8	0xbeec7fea	-0.4619134
9	0xbf07bbad	-0.53020746
10	0xbf12d7e8	-0.57360697
11	0xbe97a3e5	-0.2961723
12	0x3d8cd039	0.06875653
13	0xbe9d1e9c	-0.30687416
14	0x3da72d54	0.081629425
15	0xbedc996f	-0.4308581
16	0xbeec8244	-0.46193135
17	0xbe8b1754	-0.27166235
18	0xbee2ac76	-0.44272202
19	0x3ed49862	0.4152251
20	0xbf4426ee	-0.766219
21	0x3e4ff329	0.20307602
22	0x3e78d7e9	0.24301113
23	0xbf4f75f4	-0.8103936
24	0x3e92e545	0.28690544
25	0x3ea48cf6	0.32138795
26	0x3e9fba25	0.31196705
27	0xbda43810	-0.080185056
28	0x3ec7ba8d	0.39009514
29	0x3e18f559	0.14937343
30	0x3d495034	0.049148753
31	0x3eb60cee	0.3555674
32	0xbf2f6209	-0.68508965
33	0xbf2a8d8f	-0.6662225
34	0x3de46fe2	0.111541525
35	0xbebe509d	-0.37170878
36	0xbf089b05	-0.5336154
37	0xbeb35137	-0.350229
38	0x3e881b46	0.26583308
39	0x3dd6b2f5	0.10483352
40	0x3e6e67bd	0.2328176
41	0x3eb88df3	0.360458
42	0xbddd6486	-0.10810189
43	0xbf1909ad	-0.5978039
44	0x3e9a0f8c	0.30089986
45	0xbe873e7c	-0.2641486
46	0xbe6a87dc	-0.22903389
47	0x3ef1e360	0.47243786
48	0xbebac55f	-0.36478707
49	0xbedd03ce	-0.43166965
50	0xbf1fa03a	-0.6235386
51	0xbe8fc828	-0.28082395
52	0xbf047709	-0.51744133
53	0x3e0bb22e	0.13642189
54	0xbf44cf2d	-0.76878625
55	0xbf0991a9	-0.53737885
56	0x3dee061c	0.11622259
57	0xbbbd10ca	-0.0057698237
58	0xbeb23709	-0.34807613
59	0xbecea4f9	-0.4036024
60	0xbf07ffae	-0.5312451
61	0x3eb2322b	0.348039
62	0x3e1a34c9	0.15059198
63	0xbee4d47c	-0.44693363
64	0xbea57e09	-0.3232272
65	0x3e853025	0.26013294
66	0x3ebc7ba9	0.36813095
67	0xbe81d7ff	-0.25360104
68	0x3c5c9162	0.013462396
69	0xbe9215b3	-0.2853218
70	0xbe6d6d08	-0.23186123
71	0xbd09b6df	-0.033621665
72	0xbe5b36c6	-0.21407613
73	0x3ed1e975	0.40998426
74	0xbf5ede6c	-0.8705814
75	0xbc9dd99f	-0.019268809
76	0xbe70f59f	-0.23531197
77	0xbe9ed855	-0.31024423
78	0xbdc535b0	-0.09629381
79	0xbdae1dd0	-0.0850178
80	0xbea9bd11	-0.3315206
81	0xbe1610cf	-0.1465485
82	0x3e2d3b0d	0.16917057
83	0x3ed8cda7	0.423444
84	0xbd0e6a3e	-0.03476929
85	0xbf2e687a	-0.6812817
86	0xbeb38b06	-0.35067004
87	0x3d240350	0.04004222
88	0xbe318875	-0.1733721
89	0x3c8aa8c4	0.016926177
90	0xbeb74a61	-0.35798934
91	0xbf47d6d8	-0.780622
92	0xbe559fc7	-0.20861731
93	0xbe1ba4a7	-0.15199529
94	0xbd1e9789	-0.038718734
95	0xbe7bd74f	-0.24593852
96	0xbe8db05b	-0.2767361
97	0xbe883987	-0.2660639
98	0x3ed2c137	0.41163036
99	0xbe6e29b0	-0.2325809
100	0xbe33b25c	-0.17548507
101	0xbe2aa97b	-0.16666214
102	0xbf2e6d9d	-0.68136007
103	0x3e8aadb4	0.2708565
104	0x3ec1eb3a	0.37874776
105	0xbde03aec	-0.109487385
106	0xbef33a36	-0.4750535
107	0x3d1952a4	0.037432328
108	0xbed195e6	-0.40934676
109	0x3e9d3a6e	0.3070864
110	0xbf0e519d	-0.5559328
111	0xbea7c70f	-0.32769057
112	0x3dc67650	0.09690535
113	0xbe85d3fb	-0.2613829
114	0xbe3a8421	-0.18214466
115	0xbf44d37b	-0.76885194
116	0xbf2234d0	-0.63361835
117	0x3dbdb9ec	0.092639774
118	0x3e66425e	0.22486255
119	0xbe02ca48	-0.12772477
120	0xbf360c25	-0.7111228
121	0xbeffbe4b	-0.4994987
122	0xbebd8ba5	-0.37020603
123	0x3e95cd52	0.2925821
124	0xbf3b6563	-0.7320158
125	0xbe998595	-0.29984728
126	0xbe8a1248	-0.26967072
127	0xbd865513	-0.06559195
128	0xbe664b5c	-0.22489685
129	0xbd950c4b	-0.07277735
130	0x3e98185b	0.29706082
131	0xbece4965	-0.4029037
132	0xbf2b2302	-0.6685029
133	0xbe59ff80	-0.21288872
134	0xbe3f17a5	-0.18661363
135	0xbeb5c187	-0.35499212
136	0x3ed4d589	0.41569164
137	0x3ed3f1ac	0.41395319
138	0xbd2aba7f	-0.041681763
139	0xbeb4b307	-0.35292837
140	0xbe2c85bc	-0.1684789
141	0xbe38f012	-0.1806033
142	0xbea5ed89	-0.32407787
143	0xbebdf0e5	-0.3709785
144	0xbee2867b	-0.44243225
145	0xbf425eb5	-0.7592576
146	0xbe9ec792	-0.31011635
147	0xbf2df1b1	-0.67946917
148	0x3e889c3c	0.26681697
149	0xbf3ffc94	-0.7499478
150	0xbf025d30	-0.5092344
151	0xbed1ccaf	-0.40976474
152	0x3e88669a	0.2664078
153	0x3cd15cfd	0.025557036
154	0xbdae7ba8	-0.08519679
155	0xbef4f08a	-0.47839767
156	0x3cab7537	0.020929916
157	0xbf180d0a	-0.59394896
158	0x3eafb903	0.3432084
159	0x3ed05ff9	0.4069822
160	0xbeb6e6bd	-0.35722914
161	0xbec324ff	-0.38114163
162	0xbeb08481	-0.34476092
163	0xbef45248	-0.47719026
164	0x3eaf2090	0.3420453
165	0x3d52ec48	0.051494867
166	0xbed6d0a3	-0.41956052
167	0xbf074357	-0.5283713
168	0xbf208135	-0.62697154
169	0x3e7ae483	0.24501233
170	0xbf1baa7a	-0.60807
171	0x3ecbd883	0.39813623
172	0x3e60506b	0.21905677
173	0xbe660fb1	-0.22466923
174	0xbf1a7b29	-0.6034418
175	0xbe672244	-0.22571665
176	0x3eb28ce7	0.34873125
177	0x3e88b218	0.26698375
178	0xbe7f129a	-0.2490944
179	0xbee7d306	-0.45278186
180	0x3eac377f	0.3363609
181	0x3e409e79	0.18810453
182	0xbf0ab319	-0.5417953
183	0xbe8e7311	-0.27822164
184	0xbd05ec19	-0.032695863
185	0x3c98d615	0.01865677
186	0x3e8cad71	0.27476075
187	0x3ee3e0ca	0.44507438
188	0x3d7b0e88	0.061293155
189	0x3ebb1477	0.3653905
190	0x3e3f17dd	0.18661447
191	0x3e820bee	0.25399727
192	0xbf17da97	-0.59317917
193	0x3eaa7198	0.3328979
194	0xbec29b0e	-0.38008922
195	0xbf47d49b	-0.78058785
196	0xba37f49a	-0.00070173445
197	0x3cde9678	0.027171358
198	0x3dfc3888	0.1231547
199	0xbf7b454d	-0.9815262
200	0x3e2f0822	0.17092946
201	0xbeeb8e2c	-0.46006906
202	0xbd87e928	-0.06636268
203	0xbf159680	-0.5843277
204	0xbdeb1336	-0.114782736
205	0xbe17cf53	-0.14825182
206	0x3e7ac17f	0.24487875
207	0xbecc471e	-0.39898008
208	0x3dae7998	0.08519286
209	0xbf0f8b2b	-0.5607173
210	0xbf364470	-0.7119818
211	0x3d07128f	0.032976683
212	0xbed176fa	-0.40911084
213	0x3e71dba6	0.23618945
214	0x3ea912e6	0.3302223
215	0x3e1b9e43	0.15197091
216	0xbe49e216	-0.19715151
217	0x3cc395b0	0.023875087
218	0xbf02b7b8	-0.5106158
219	0xbf171935	-0.5902284
220	0x3db53939	0.08848805
221	0xbe8b2deb	-0.2718347
222	0xbea47c22	-0.32125956
223	0xbe5d2698	-0.21596754
224	0xbed25592	-0.4108091
225	0xbe86cd3e	-0.26328462
226	0xbdaffb8a	-0.08592899
227	0xbf096b45	-0.53679305
228	0xbef82305	-0.48464218
229	0xbab9c77d	-0.0014173832
230	0x3e90e395	0.2829863
231	0xbea3f177	-0.3202016
232	0x3e91ca47	0.28474638
233	0xbea33c72	-0.31882054
234	0x3e20f580	0.15718651
235	0x3cfb212e	0.03065547
236	0x3e7e747c	0.24849123
237	0x3be46474	0.0069699828
238	0xbda60adb	-0.08107539
239	0x3e90ddc5	0.28294197
240	0x3e9aae99	0.30211332
241	0xbef126c3	-0.47099885
242	0xbed6d242	-0.4195729
243	0x3ec4cb90	0.38436556
244	0xbecdffbf	-0.4023418
245	0xbe83eca5	-0.25766483
246	0xbec23cbe	-0.37936968
247	0xbe9edbb8	-0.31027007
248	0x3e0a4a6a	0.13504949
249	0xbe3ab0ee	-0.18231556
250	0xbed971ec	-0.42469728
251	0x3e2e69d9	0.17032565
252	0xbe15d308	-0.14631283
253	0xbeb061f5	-0.34449735
254	0xbedeac1d	-0.43490687
255	0x3e5e534d	0.21711464

linear2.bias f4 [10]
0	0xbe628e72	-0.22124651
1	0x3e2106d0	0.15725255
2	0xbdcff23e	-0.10153626
3	0x3d018a35	0.031625945
4	0xbca6bf56	-0.020354908
5	0x3db58111	0.08862508
6	0xbdfbbda2	-0.12292029
7	0xbd93203f	-0.07183885
8	0x3dc3e3c0	0.09564924
9	0x3e32cdc1	0.17461301
