research/differential_privacy/multiple_teachers/checkpoint/mnist_10_teachers_5.pth (torch_old, 139301 bytes, 20 tensors)

conv1.weight f4 [16, 1, 5, 5]
00000000: 09e4 a3bd 5fb0 dc3d 720b c2bd 6373 333d
00000010: 67f6 1abe 91f7 2fbd 1b2e 183e f04e af3d
00000020: 5f08 303d 02a8 6cbe d419 053e f4e6 1e3e
00000030: 7f9b 69be 0096 80be f0e7 43bd c3fe 0a3e
00000040: 373c 733e 4b27 573d b96d 813e 6e3c 1c3e
00000050: fd0c b1bd 77e2 be3e 2c2b 7f3e 1618 ec3d
00000060: 6017 fa3e 42c1 fbbd 4a1f 2bbe 3d5a ffbc
00000070: 62ff c73d e359 d83e 2b4e 423c 14db 83bd
00000080: a00e 13be e2ab 83be 33b2 debe 1d64 453e
00000090: 54b1 8f3d 65c0 71be f9d6 f4be ddf9 48be
000000a0: 7002 a3be 7b2f ccbe 3ebd 3abe aff6 12be
000000b0: 75d1 363d bdf8 0abe 2901 183e 5023 7f3e
000000c0: 9efa 903e 0a6e 303d 5bf3 8cbe bf3d 21be
000000d0: edff 9abd 84ea 22be 7a05 a13d 073d ca3c
000000e0: 0cf6 1abd 466e 58bd 453b b83d 565f 9a3e
000000f0: 787d 183e c838 633e 531b cd3e e047 8e3d
00000100: eff1 0f3e a384 9ebd 2619 2d3d a03e 08bd
00000110: 7cd6 143e 63d5 43be 0869 b8bd f97c 73be
00000120: d709 65be 3536 8ebe 9f99 adbe 7273 0e3e
00000130: bff4 333e d0a7 163d 3340 76be dfba 11bf
00000140: b60a 00bc 2ecd acbd 268d 4fbe 92ff f1be
00000150: 2e99 10be 1390 91bd f2ab 8bbd d2b2 e5be
00000160: f46d a3be 4fd4 3a3e 04d0 243e dd95 0ebe
00000170: 9d10 12be 04b6 ddbe 68f4 573c 03e3 3f3e
00000180: 82b3 bcbd 747d 7ebe 5b03 c7be 9577 4c3e
00000190: df9b ecbd dc05 50be d8aa bb3d 145f 50be
000001a0: 2bd6 b1be c74c cfbe 0e43 77be 3042 b5be
000001b0: cdf8 9fbe 611a 8ebe 8c8c 3e3b 206a b8bb
000001c0: 1bef 213c 9f15 af3d 9d98 dc3b f385 b13d
000001d0: 37dd 673e 949d 2fbc 54b2 10bc 0ea7 ba3e
000001e0: a583 2c3e 92b2 dabd 1a33 253e 64cd 843e
000001f0: 4613 9a3e 7877 a13d 75ae 1d3e 6dd3 783e
00000200: 235c 413d e3bc 61be b8cc db3d bcb0 b43d
00000210: 2aab d83e a76e 1dbd 722b dcbd 4a64 a4be
00000220: 15bf 483e 0306 cf3e 39c5 ae3e 5c0e 71be
00000230: dcdf cdbd 5f5a 0ebe c92a 823e b90a 5e3e
00000240: fb16 7cbd 99a7 1cbe d34c 28be 1f96 673d
00000250: cd94 893e 30cc 7cbc 425c b23d ef7c c63d
00000260: 7e41 fcbc e9ad 87bd 6eed 57bd 0547 373d
00000270: f5ec e83d 3500 4f3e 211d 8a3e 7580 3c3e
00000280: 6f7a 0bbe e69b cd3b 963f 243e 4a3a 353d
00000290: 6da1 113e 3f5b 4fbe 9e02 16bd 4d0d a63c
000002a0: 04bb 24be 4a9b 2abe 3efc 0cbe e28f 50be
000002b0: d773 d3be 8390 7cbe 04e3 dabe 09a1 62bc
000002c0: 4442 a7bc 7884 353e f5fd 063d ba74 013e
000002d0: a76d 5ebe b4e2 a73d 1f40 a1be 9e74 7c3d
000002e0: e101 b5be 81ea e33d d3dc f1bd 7fc7 b8bc
000002f0: 07e2 7cbe 6807 d7bd d90d dfbe 2b49 2ebe
00000300: 5b30 87be 33eb 2dbc d203 e93d d9ba 22be
00000310: b4e4 f8bd ff85 d5bd 83e8 e33c 6bd4 bd3b
00000320: d7f7 03bf b7e3 613d 4115 763e 85a2 933d
00000330: 4dc4 ec3d a5ad f5bc 907b c53e 5731 0b3e
00000340: 95b1 2ebe 6b0e 02be a29a 033e 27c7 9c3d
00000350: bad4 853b 5a7b a1be 618d 7abe 13bd 4e3e
00000360: 9b22 9bbe 4e48 37be 78cf 00bd b63d 253e
00000370: 1f86 28be c37a 06be 2082 843b 61ee 713e
00000380: 6015 0e3e 6e26 143e 95aa 6c3e c63d 253e
00000390: 6c62 4c3e 273a b43e 9e04 e2bc cbb2 363d
000003a0: 2ebf cb3d 084a fcbc 6499 693e f0dd cebd
000003b0: 2982 543d 71f8 8e3c 0278 01be 90ea dc3c
000003c0: 6b1c cebe a5ac a9be 6f2e 89be f328 21be
000003d0: 4f5a 603c 39e1 24be fde3 65be 92ca d9be
000003e0: 805f bcbe 030c 43be 39c9 133d fa6c 98bd
000003f0: 842d 1dbe a5a1 a23d d842 97be 401a edbd
-0.08002479 0.107758276 -0.09474839 0.043811213 -0.15133058 -0.042960707 0.14861338 0.08559978
0.042976733 -0.23110965 0.12998134 0.15517789 -0.22813223 -0.2511444 -0.047828615 0.13573746
0.23753439 0.052527707 0.25279024 0.15257427 -0.086450554 0.37282154 0.24918813 0.115280315
0.4884596 -0.122927204 -0.16711155 -0.031170959 0.09765507 0.42256078 0.011859457 -0.0643827
-0.14361048 -0.25717074 -0.4349533 0.19276471 0.070162445 -0.23608549 -0.4782026 -0.19626565
-0.31837797 -0.39879975 -0.18236253 -0.14351915 0.044633348 -0.13571449 0.14844193 0.24915814
0.28316206 0.04307369 -0.27529415 -0.1574621 -0.07568345 -0.15909773 0.07862373 0.024687303
-0.037832305 -0.05283954 0.0899568 0.3015086 0.14891613 0.22189629 0.4005991 0.06947303
0.14057134 -0.07740142 0.04226031 -0.03326285 0.14534944 -0.1912437 -0.09004408 -0.23778142
-0.22367035 -0.27775732 -0.33906266 0.13911226 0.17573832 0.036781132 -0.24047928 -0.5692577
-0.007815054 -0.084375724 -0.20268688 -0.47265297 -0.14120933 -0.07107558 -0.06819905 -0.44862992
-0.31919825 0.18245052 0.16094977 -0.13924356 -0.1426415 -0.4330293 0.01318083 0.18738942
-0.09213926 -0.24852544 -0.38869748 0.19967492 -0.115531676 -0.20314735 0.09163445 -0.2034877
-0.3473371 -0.40488264 -0.24146673 -0.3540206 -0.31244507 -0.277545 0.0029075472 -0.0056278855
0.009883667 0.08549046 0.00673206 0.08668127 0.2264298 -0.010718722 -0.008831579 0.36455578
0.16847093 -0.10678591 0.16132775 0.2593795 0.3009283 0.07884115 0.15398581 0.24299403
0.04720701 -0.22044711 0.107324064 0.08822772 0.42318088 -0.038435604 -0.10750474 -0.32107764
0.19604142 0.40434274 0.34134844 -0.23540634 -0.100524634 -0.13901661 0.25423267 0.21683778
-0.061545353 -0.15298308 -0.16435556 0.05653965 0.26871338 -0.0154295415 0.08709003 0.09691798
-0.030792948 -0.066249676 -0.052716665 0.044745464 0.11373321 0.20214923 0.2697535 0.18408377
-0.13620923 0.006274688 0.16039881 0.044245042 0.14221735 -0.20249651 -0.03662359 0.020270014
-0.16086966 -0.166608 -0.13768098 -0.20367387 -0.41299316 -0.24664502 -0.42751324 -0.013832339
-0.02041734 0.17726314 0.032957036 0.12642184 -0.21721517 0.08197537 -0.31494233 0.061634652
-0.35352996 0.111287124 -0.11809697 -0.022556065 -0.24695598 -0.104994595 -0.43565252 -0.17020099
-0.2640408 -0.010615158 0.11377682 -0.15891589 -0.12152997 -0.10425948 0.027820831 0.0057931445
-0.5155005 0.055148806 0.24031545 0.072087325 0.11560879 -0.029990027 0.38570833 0.1359304
-0.1705993 -0.12700813 0.12851956 0.07655173 0.004084197 -0.31539422 -0.24467994 0.20189314
-0.3029984 -0.17898676 -0.031447858 0.16136822 -0.16457413 -0.13132767 0.0040438324 0.2362609
0.13875341 0.14467785 0.23111947 0.16136846 0.1995942 0.35200617 -0.027590092 0.044604104
0.09948574 -0.03079702 0.2281242 -0.10100925 0.051881943 0.01745245 -0.12643436 0.026967317
-0.40256056 -0.3313953 -0.2679324 -0.15738277 0.013693406 -0.1610154 -0.22450252 -0.4253736
-0.3679161 -0.19047551 0.036080573 -0.07442661 -0.15349394 0.079409875 -0.29543185 -0.115772724

conv1.bias f4 [16]
00000000: fd52 523e 737a 08be 0998 ac3d e6d5 48bd
00000010: 92b7 75bd 8f9c c33d 51b5 143d f080 18be
00000020: 8a38 aeb9 1ae1 b5bd 645f 493e de50 9a3d
00000030: c3f6 ff3d 4107 4bbd a54f cfbc f6e3 703e
0.2053947 -0.1332796 0.08427436 -0.049032114 -0.05998952 0.095513456 0.03630573 -0.14892936
-0.0003322999 -0.08880825 0.19665295 0.075349554 0.12498238 -0.049567465 -0.025306532 0.2352446

batchnorm1.weight f4 [16]
00000000: 8477 4f3e 6933 913e 8c59 793e 9261 4e3f
00000010: 4eb3 2f3f e2de bd3e deb2 4f3f 496c 693d
00000020: f2a8 863f fd8e 633f a03e 8d3d a1fb 1a3f
00000030: fcb0 103f cab1 163f 4444 8e3f 3359 3e3f
0.20260435 0.28359535 0.24350566 0.8061763 0.6863297 0.3708411 0.81132305 0.056988034
1.0520308 0.8889006 0.068967104 0.60540205 0.56520057 0.58865035 1.1114583 0.7435486

batchnorm1.bias f4 [16]
00000000: 06a7 efbe 81b7 c5bd 5581 d7bd 32ad 003d
00000010: 6430 683b 4d7d 85be ec61 813a 99f1 58be
00000020: 4286 91be 51b9 713d 1ce1 e8bd 870c 89be
00000030: 2d64 f2bd 10d3 b3be 629e c0bd bc84 e0be
-0.46807116 -0.09654141 -0.10522715 0.031415172 0.0035429234 -0.2607216 0.0009871102 -0.21185912
-0.28422743 0.059014622 -0.11371061 -0.2676737 -0.11835513 -0.35121965 -0.09405209 -0.43851268

batchnorm1.running_mean f4 [16]
00000000: b6a5 8042 f9e7 92c2 6857 bcc1 d0f1 f7c2
00000010: ca3e f2c1 7790 6042 ad07 0fc2 1138 a2c2
00000020: 803a 43c1 742e 52c2 1f82 a7c2 c012 25c1
00000030: b5d0 04c1 de46 acc1 d888 94c2 b672 50c1
64.323654 -73.45307 -23.542679 -123.97229 -30.280659 56.14108 -35.757496 -81.109505
-12.201782 -52.545364 -83.75414 -10.317078 -8.300954 -21.534603 -74.26727 -13.028006

batchnorm1.running_var f4 [16]
00000000: d418 5446 f85f 9246 7865 e445 8b29 3e47
00000010: a7e2 9946 2851 6446 162e 4246 c8f3 7d46
00000020: 4b99 a045 eab3 c746 340b 5a46 2299 0246
00000030: b33b 3246 194a 4645 c1dd de46 3cb9 e245
13574.207 18735.984 7308.6836 48681.543 19697.326 14612.289 12427.521 16252.945
5139.1616 25561.957 13954.801 8358.283 11406.925 3172.631 28526.877 7255.1543

conv2.weight f4 [16, 16, 5, 5]
00000000: 975b 92be 876b c7bc cb33 9ebd b8fb abbd
00000010: 44b7 73bd b7e4 82bd 3bba d8bd 6d8a 60bd
00000020: f39f 013c ddae 9f3d e7b1 863d 0b26 1cbd
00000030: 59e3 f63a b931 803d 5be6 83bd 07d2 0cbc
00000040: 5143 81bd 4881 773e c536 903e 35a0 a33d
00000050: b94c 8fbd 2577 8a3d c394 873e 1646 d63e
00000060: d3cc 003e 5d69 06be acf6 213e 244f 733d
00000070: b039 403e ff1e 4a3e 80ae a4bc ffee c23d
00000080: 9bc7 673e 707f 063e dff0 2fbe a30c 39be
00000090: a842 c1bd cf9e b6bd d2fe 373b 87d5 c5bc
000000a0: f5f3 3cbe c3c1 bfbd 5bcf 113e f78d 073e
000000b0: 2783 8b3e 52d1 c6bc 062b d9bd 86ff 2dbe
000000c0: 0453 6cbd ac62 763e 877d 80be 27f8 a2be
000000d0: e658 02be 7144 6a3d 4dfa 393e b483 b0be
000000e0: ff67 36be fd74 f43c cf84 d33d 1506 90bd
000000f0: 9fa3 acbe f51a a4be b615 b5be 67c7 b3be
00000100: 4aad 4fbe 6f4c 82be 8886 5ebe cb61 1dbd
00000110: e99f 393d 734b eb3d a329 4dbe cf26 7dbe
00000120: d1e0 abbd ebf6 883d d26e a23e cf4d 223e
00000130: 98f7 323e dd03 b83e f42f a83e b9e9 663e
00000140: ba3d fe3d 7624 1c3e 9b4f 013d 9830 42be
00000150: 560a 06be 8c00 2b3d 2389 ffbd a1aa afbd
00000160: 6089 03be 2057 b8bd 381b c2bc 249a 52be
00000170: a90c 09be 0256 92be 6187 98be a347 a0bd
00000180: 462b 85be 4f5a d9bd 7d2e 5bbe d2ed fcbd
00000190: 39fe 74bd 01bf 0abe cbcc ab3d c857 b83e
000001a0: 31ae b73e 5028 3dbd d45f 413d bedc 153e
000001b0: 84cc 7c3e f5d5 333e 9114 61bd e20b 493d
000001c0: e8c5 8dbd ef0d 86be afae 76be 6ab3 1abe
000001d0: b3ee 77be 6202 90be 0e49 49be 5c73 bdbd
000001e0: 1a10 4ebe 6ee2 9abe 8fb9 48be 6663 803c
000001f0: feea 9e3c 328b 64be ebf2 56be 8b54 86be
00000200: fae8 e6be f79d b0be 2fff 90be faa4 aabe
00000210: 05c4 25be 2288 86be e7c7 ffbd 5307 ab3c
00000220: ad8b 59bd 3ae6 793c 817c 07be d262 5e3d
00000230: a9b1 bd3d 0e52 5f3e 6bcd 883d 74dd f7bd
00000240: 6fd0 a7bb 0709 143e 9fd2 253e 281e f53d
00000250: b4d3 a03c 6bb2 1d3d 7193 35be 3304 c4bd
00000260: ca8e 49be 2ae2 20be dce7 fabd ad89 70be
00000270: 1008 7dbd bace 10be c289 01be f56d 1abe
00000280: cf9d e5be ed32 11bf b90b 5cbe 2c37 e5bd
00000290: a278 b1bb eed9 18be 54b8 4bbe 095b 56be
000002a0: ae0b 33be 0c79 a63d 8d40 d33d 61e2 2f3d
000002b0: d565 743d bfe2 b3bd 366f 99bd 9eea 6e3d
000002c0: 32e6 8bbd 231c 04be 5c52 7abd 8e94 2abd
000002d0: 9b5e 7ebc 8044 3fbe 163b 4ebe 9576 b5bb
000002e0: 6bd3 50bc a221 fbbd 4802 28be 07b9 00be
000002f0: 79be 83bd c079 9bbd 9c7e 2dbe dfc8 0fbe
00000300: d0a6 70bd 8e05 1e3d da2d a5bd 4627 19be
00000310: fde0 15be 0a32 a4bd eaa8 0a3d 4119 3d3e
00000320: c798 c9bc 7c5d 043e b884 d33d 7c18 3fbe
00000330: 2f2f 4bbd 93c7 913e 8383 ac3e a32b 053e
00000340: f626 6abd d109 263d 89e2 3d3e 55b1 f63e
00000350: 180f 193d 959d 6dbd f5b9 89bd 60b3 fd3d
00000360: f7b7 453e 9c1c 443d cf9c 003d 7918 39bd
00000370: 5ddd 213d 3ba1 6abe cf5c 6dbb 8db4 7e3d
00000380: 6baa 8c3e ede8 47be 7727 7fbe c37d b4be
00000390: fca5 b7be aa18 3abe 0ce2 e5be 6d2e 05bf
000003a0: f95b d1be 3393 34be 51b8 08be 086f c8be
000003b0: 5de8 04bf a9b9 82be 4dce 4cbd 090f 5abd
000003c0: 15a1 94bd 242f 54be d379 6bbe 9cf8 dabd
000003d0: 6d01 4abd 7863 343e 3183 45bd 3881 c5bd
000003e0: 7b2e cdbc 0685 22bd b59e 903b 14aa 52bc
000003f0: 710e 403d d369 1bbe d1cc 0bbe 87ff a2bd
-0.28585503 -0.024343265 -0.077247225 -0.08397621 -0.059500948 -0.0639128 -0.10582396 -0.054819513
0.00791167 0.077970244 0.06576901 -0.038122218 0.0018836065 0.06259484 -0.06440421 -0.008594996
-0.06311668 0.2417041 0.28166786 0.079895414 -0.069970556 0.06761006 0.26480684 0.41850346
0.12578134 -0.1312613 0.15816754 0.059401646 0.18772006 0.19738387 -0.02010274 0.09518241
0.22634737 0.13134551 -0.17181729 -0.18071227 -0.09436542 -0.08917009 0.0028075469 -0.02414967
-0.18452437 -0.09363129 0.14239256 0.13237749 0.272485 -0.024269734 -0.10603909 -0.16992006
-0.057696357 0.24061078 -0.2509577 -0.3182995 -0.12729225 0.057194177 0.18161888 -0.34475482
-0.17813109 0.02984094 0.103280656 -0.0703241 -0.33718583 -0.32051817 -0.35368127 -0.3511307
-0.20280948 -0.2544894 -0.21731007 -0.03842334 0.045318518 0.11489 -0.20035414 -0.24721836
-0.0839249 0.06687721 0.31725174 0.15849994 0.17477262 0.35940447 0.32849085 0.22550096
0.12414117 0.15248284 0.03157006 -0.1896385 -0.1308988 0.04174857 -0.12477329 -0.08577467
-0.12845373 -0.09000993 -0.02369462 -0.20566612 -0.13383736 -0.28581244 -0.29790786 -0.078261636
-0.26009578 -0.10612928 -0.21404453 -0.12350048 -0.059812758 -0.13549425 0.083886705 0.36004472
0.35875085 -0.046181023 0.04721053 0.14634988 0.24687392 0.17562087 -0.054951254 0.049083598
-0.06922513 -0.26182505 -0.24090074 -0.15107504 -0.2421215 -0.28126818 -0.19656774 -0.09250519
-0.2012333 -0.30250877 -0.19602035 0.015672397 0.019399162 -0.22318724 -0.20991103 -0.26236376
-0.45099622 -0.34495518 -0.2831969 -0.33328992 -0.16188057 -0.26275736 -0.124893 0.020877516
-0.05311172 0.015252644 -0.13231088 0.05429346 0.092624016 0.21808645 0.06679805 -0.12102786
-0.005121283 0.14456569 0.16193627 0.119686425 0.019632198 0.03850023 -0.17732026 -0.095711134
-0.19683376 -0.15711275 -0.12251255 -0.23490019 -0.061775267 -0.1414136 -0.12650207 -0.15081008
-0.4484696 -0.5671833 -0.21488847 -0.11192164 -0.005415992 -0.14926884 -0.19894534 -0.20933165
-0.17484924 0.081285566 0.103150465 0.0429405 0.059667427 -0.08783483 -0.07491915 0.058329217
-0.06831016 -0.12901358 -0.0611137 -0.04164558 -0.015525485 -0.18678474 -0.20139727 -0.0055378177
-0.0127457185 -0.12262274 -0.1640712 -0.12570582 -0.06432814 -0.07591581 -0.16942829 -0.1404147
-0.058752835 0.038579516 -0.08065386 -0.14956388 -0.14636607 -0.08017357 0.033852495 0.18466665
-0.024608983 0.12926286 0.103280485 -0.18661684 -0.049605545 0.28472576 0.33694085 0.13004927
-0.057166062 0.040536705 0.18543448 0.4818217 0.03736791 -0.05801161 -0.067249216 0.12387729
0.19308458 0.047878847 0.031399544 -0.045189355 0.03951775 -0.22913067 -0.0036218648 0.062183905
0.2747377 -0.19522448 -0.24917398 -0.352522 -0.35868824 -0.18173471 -0.44899023 -0.52023965
-0.40890482 -0.17634277 -0.13351561 -0.3914721 -0.5191706 -0.25532272 -0.05000143 -0.053236995
-0.072572865 -0.20721108 -0.22995691 -0.1069195 -0.049317766 0.1761607 -0.048220817 -0.09643787
-0.025046578 -0.039677642 0.0044134506 -0.012857933 0.046888772 -0.15177087 -0.1365235 -0.07958894

conv2.bias f4 [16]
00000000: 24c6 2d3e 9e3f 783d c064 8cbe 8e17 493e
00000010: 005a b73d cbf4 213e b33d 98bd f058 49be
00000020: 1ff5 963d 71c3 ffbd b0c1 973d 4f5c 7e3d
00000030: 3e70 153e 1fa9 29be ea22 003e f5d2 e33d
0.16970116 0.060607545 -0.27420616 0.19637892 0.08952713 0.15816037 -0.07433643 -0.19662833
0.07370972 -0.12488449 0.0740999 0.06209975 0.14593598 -0.16568421 0.12513319 0.11124221

batchnorm2.weight f4 [16]
00000000: 7c6f a13e 2314 c83e 741a 0e3f 29fb c73e
00000010: 7fc6 0d3f 9b6f f13e c8e4 393f f05a f63e
00000020: 88e0 5b3f 414d 433f e707 923e 48ed 043f
00000030: 668f dc3e 6cd2 033f 797d a73e 44a2 523e
0.31530368 0.39077863 0.55509114 0.39058807 0.55381006 0.4715546 0.7261472 0.48116255
0.8588948 0.76289755 0.28521654 0.5192456 0.43078154 0.51492953 0.32712916 0.20569712

batchnorm2.bias f4 [16]
00000000: 38a3 35be 6189 db3c 2cb2 48bd 29f7 1bbe
00000010: 87b6 89bd 2f58 2cbe 53e6 7bbe b57f cbbe
00000020: 93f8 83be 59f4 03be 22ff adbd de86 84be
00000030: 12b2 ccbd 6a06 3cbe 9999 23bd 21f2 82bd
-0.17738044 0.026798906 -0.048998043 -0.15231003 -0.067242675 -0.16830514 -0.2459958 -0.3974587
-0.25775585 -0.1288618 -0.08495928 -0.25884145 -0.09994902 -0.18361822 -0.039941404 -0.06393839

batchnorm2.running_mean f4 [16]
00000000: 31ee 2ec0 d052 d7bf 4ded 0cbe 4965 11bf
00000010: dea7 173e 0129 f9bf 780a 87bf 6209 8abf
00000020: 21d1 ccbf 4c66 86bf 64ad e83f 4048 a7bf
00000030: 1092 96bf 8fab ebbf 8233 73be 88d7 8340
-2.733288 -1.6822147 -0.13762398 -0.56795174 0.1481013 -1.9465638 -1.055007 -1.0784113
-1.6001321 -1.0499969 1.8177915 -1.3068924 -1.1763325 -1.841173 -0.23750117 4.12006

batchnorm2.running_var f4 [16]
00000000: 75c8 7f40 494d 5940 af2d ae40 288d 6840
00000010: f194 d440 d3d5 9040 82c3 da40 c488 e140
00000020: d05d 9940 be26 0741 1122 ae40 a165 e840
00000030: 62b8 a240 a6cf b840 6b70 a540 5b22 8140
3.99661 3.395342 5.4430766 3.6336155 6.6431813 4.5261016 6.8363657 7.047945
4.7927017 8.446959 5.4416585 7.262406 5.0850077 5.7753477 5.169973 4.035444

linear1.weight f4 [100, 256]
00000000: c82e 243c 95be 4cbd abcd 78be 5b2c 5f3d
00000010: 262b 443e ce47 153e 40bc b4bd 22ed 1dbe
00000020: 7096 813e 79f1 a13e 0221 b33e 851a 193d
00000030: 242a 083f 1ec8 823e f852 793e 407e e3bd
00000040: dd00 93be ffbc 8cbe 7772 c0be df81 f1bd
00000050: d21d 93bd 502e 89be cfb3 51be fed4 c1be
00000060: 069f 19bd 0bdb ee3e 9bcc fabc 8846 fdbd
00000070: 6468 46be b59f 8e3e a73e 4bbe b2d0 91bd
00000080: bcb8 583d d90f d7bd 3614 b63d 5b23 b03e
00000090: b1d2 1b3e d2db 8e3e e62b 743e 1c25 033e
000000a0: dd5d 55be 4df1 07be bcb4 843d de61 49be
000000b0: 5b0c 13be 703f 8abe 50cc 7b3e 3992 61be
000000c0: 9a13 9dbc 9515 783c ca98 903b 2e62 f43d
000000d0: 50cf 163e 476a 083e e48a bfbd c6e3 8b3d
000000e0: 98ce 16be e89d 523d 77fc 083e 3804 e7bd
000000f0: 1716 78be b928 4f3e bb06 a4bc 654d 443e
00000100: b7d1 91bc 7a0a 413e 14a0 3e3d fcb2 bcbc
00000110: 98b7 83be 0172 0cbe b9c8 303e 0c55 b8bd
00000120: 47f7 d2be 466f 96bd 553e 8c3c 4ef4 363e
00000130: 090c 543d 5f67 933e 3372 a93e fd8f 563e
00000140: 9f28 2abe e417 9abd 3603 52bd 1132 7c3d
00000150: 17e0 93bb 2422 8bbd 63de 923e 19f7 cd3e
00000160: 6386 853b c985 3d3e 3ab8 b33d fd23 553e
00000170: de35 dfbd 3239 a53e 0520 883e 82fe f3bd
00000180: 25b0 cd3d 1c8f 923d 3303 4e3e 41b5 87bc
00000190: ccac e53d 71f6 e33c b743 14be deff a43b
000001a0: e6f8 b73d e048 fa3c f56e 38be f15d 033d
000001b0: 6692 3c3e a979 683c 3490 0a3e a554 29bd
000001c0: 53e4 ddbd cbd7 b8bd d059 893d 7b9d 753e
000001d0: d7c7 b83e 9fe4 91be fbe1 d33b c464 cbbc
000001e0: 391e 3c3e 6695 0cbd e1fa 07bd e4a3 fcbd
000001f0: 9a03 93be 4535 49be a2ce cc3d f8c0 893d
00000200: fb0c d23c 49a3 81bd 0ad1 45bd 5757 f2bc
00000210: 05b3 193e e843 b33d cc83 30be cb0b a0bd
00000220: 0f42 933e 1621 653e 6a2b d9bd ea81 4b3c
00000230: 9050 1a3f 017d 093e 75f3 073d b24a 143c
00000240: 43ca 863e eb95 5f3e e24f 2d3d c151 cfbd
00000250: 1542 a43c 163c d23d a5f5 8a3d 0934 ecbc
00000260: ab8b 733d 2a6e a83e 06d0 67be 0c47 04bd
00000270: 7416 153c bbcf 0fbe dd99 eb3d 0a83 25bd
00000280: cd92 623e 0707 ff3d 963a d93e 761a a33e
00000290: 876a 2cbe 63ca f63c f762 713e 2967 63bd
000002a0: 0fd7 6dbe c9af 85be 365f 5c3d 60a8 043e
000002b0: f0c5 16bd b916 c4bd 40e0 1abb d7da 183e
000002c0: 7322 233e 8eca 403e fb15 393d fe99 b93e
000002d0: 5fb7 8f3e e269 163e 4314 b8bd 2585 07be
000002e0: e695 473c e017 8ebd 5b7d bb3d a719 edbd
000002f0: 261c 95bd bbf0 87bc 4f83 ab3d 39aa a83e
00000300: 2575 c2bc 74a9 5fbd e5aa 16be c2bc c3bd
00000310: b9d8 503e ae4b a33e e1b3 3c3d b0d6 2b3e
00000320: c52b e43e 3b6e 5e3e 0121 f73e bfc9 763e
00000330: f785 583d f8fe e2bc a12a da3b 3340 f8bc
00000340: 58af 183e 914b cdbd 090e 01be 9e7f e0bc
00000350: b918 1e3d 3b86 29be 6b6c 6fbe 1199 36bd
00000360: a44c f83d 59dd a33e 4e55 863d d3e0 a63e
00000370: 396f b63e 4c24 e43e e71b debd 9cda ffbd
00000380: 960a dabd 294c 1bbe a59e 6a3c 50f0 183e
00000390: a992 933e 46ce f4bd 28ae 2fbd 96fe 163e
000003a0: 87f2 9cbd 91e2 3cbd 634e 30be c6e9 163d
000003b0: 674e 233b bfbc f9bd bf9a 8c3d c02d afbd
000003c0: cc94 4c3c bdcc cdbd 7c55 023d e1e5 a83e
000003d0: f87e adbe 7a46 de3d 0011 ff3c 65db 403e
000003e0: cc44 e4be d6b8 babe 4997 db3d e6e4 bc3d
000003f0: 72d6 95be 8217 c0bd ed84 923e c0a2 aebd
0.010020919 -0.04998644 -0.24297206 0.05448566 0.19157085 0.14578173 -0.08824968 -0.1542249
0.25310087 0.31629542 0.3498612 0.037378807 0.531893 0.25543302 0.24348056 -0.11108065
-0.28711596 -0.27487943 -0.3758733 -0.11792349 -0.07183422 -0.26793146 -0.20478748 -0.37857813
-0.037505172 0.46651492 -0.030615142 -0.123669684 -0.1937576 0.27856222 -0.19848119 -0.071198836
0.05291055 -0.105010696 0.08890574 0.34401974 0.15217091 0.27902085 0.23844871 0.12807125
-0.20836587 -0.13275643 0.06479785 -0.1966624 -0.14360182 -0.27001524 0.24589658 -0.22028436
-0.019174386 0.015141864 0.004412745 0.11932789 0.14727521 0.13321792 -0.09352663 0.06830554
-0.14727247 0.051420122 0.13377558 -0.112801015 -0.24227177 0.20230378 -0.02002274 0.19170149
-0.017800195 0.18851653 0.04653938 -0.023034565 -0.25726008 -0.13715364 0.1726407 -0.090005964
-0.41204283 -0.073454425 0.017119566 0.17866632 0.05176929 0.28789803 0.3309494 0.20953365
-0.16617058 -0.07524088 -0.051272593 0.061571185 -0.0045127976 -0.06793621 0.28685293 0.40227583
0.004074858 0.18508066 0.08775373 0.2081451 -0.10898946 0.322702 0.2658693 -0.11913778
0.100433625 0.07156202 0.20118408 -0.01656592 0.11214599 0.027827473 -0.14478956 0.0050353846
0.089830205 0.030552328 -0.18011077 0.03207201 0.18415222 0.014189162 0.13531572 -0.04134049
-0.10834565 -0.09025534 0.067065835 0.23985855 0.36089966 -0.28494737 0.006466148 -0.024828322
0.18370904 -0.034322165 -0.03319824 -0.12335947 -0.28713685 -0.19649227 0.100003496 0.06726259
0.025640955 -0.06329972 -0.04829506 -0.029582663 0.15009697 0.087531865 -0.17237777 -0.07814749
0.28761336 0.22375903 -0.10603984 0.012421111 0.6027918 0.13426591 0.033191163 0.009051012
0.26326188 0.21834533 0.04231251 -0.10123015 0.020051042 0.10265367 0.06785134 -0.028833406
0.05945937 0.32896549 -0.22637948 -0.032294318 0.0090995915 -0.14044087 0.115039565 -0.04040817
0.22126313 0.12452512 0.4242751 0.31856126 -0.16837512 0.030125802 0.23572908 -0.055518303
-0.2322657 -0.26110676 0.053801738 0.12954855 -0.03680986 -0.095746465 -0.0023632199 0.14927231
0.1593111 0.18827268 0.045186978 0.362503 0.2806959 0.14688829 -0.089882396 -0.13234384
0.012181735 -0.069381475 0.09154769 -0.115771584 -0.072807595 -0.016594281 0.083746545 0.3294237
-0.0237375 -0.054604962 -0.14713629 -0.09557487 0.20395173 0.31893677 0.046069983 0.16781116
0.44564644 0.21721737 0.48267367 0.24100398 0.052862134 -0.02770947 0.006657914 -0.03030405
0.14910638 -0.10024179 -0.1260301 -0.027404603 0.038597796 -0.16555111 -0.23381202 -0.04457957
0.12123993 0.32004812 0.06559239 0.32593402 0.3563173 0.44558942 -0.10845166 -0.12492868
-0.1064655 -0.15165772 0.01432005 0.14935422 0.2882283 -0.11953406 -0.042890698 0.14745554
-0.07663446 -0.046114508 -0.17217402 0.036844037 0.0024918558 -0.121942036 0.06865453 -0.08553648
0.012486648 -0.10048816 0.031819806 0.32987884 -0.33885932 0.10853286 0.031136036 0.18833692
-0.44583738 -0.36469144 0.10722215 0.092233464 -0.2926517 -0.09379484 0.2861704 -0.08527136

linear1.bias f4 [100]
00000000: c075 1cbd 5a4d 663d cf5a 98bd 63e8 953d
00000010: dc7d 6c3d e70a cc3c 9857 99bd 1b0b bd3b
00000020: a8b2 adbb e56d a13b 99a6 0fbc e596 953c
00000030: d817 b638 17fb 9bbd c980 4d3d 3447 7dbc
00000040: a5d4 ab3d d6d9 15bb 4d0a 8e3c 967c f0bc
00000050: 16f3 0e3d afdf c6bd 1f59 b8bd 7415 bf3d
00000060: 300b 36bc f048 e53d e8df a53c f926 aa3d
00000070: 301d 2bbe bc71 b6bd 0d46 353e 3678 b1bd
00000080: 27ba 0d3d 16fa afbd 5eac 353d e9b5 153d
00000090: 9466 f4bc 7a07 233d b353 c6bc c770 2d3d
000000a0: 9680 a6bc c2aa 513c e044 bd38 b653 ef3b
000000b0: 15c7 0d3d 3c3e 573d 7a65 463d 5c75 873d
000000c0: d332 53bd 2790 4f3d 39e2 0cbe 6db8 da3b
000000d0: 7204 273d c42d 8cbd 44f5 cc3b 468c 763d
000000e0: 5875 a2bb 232f 45bd b72b a3bd 4ca2 133d
000000f0: e11d a03d 96d5 4fbe aacd 76bc b8c9 a93d
00000100: b8ef 213e 46b7 df3b 332b 9abc 69cf 9bbd
00000110: 8c70 2abd b112 1fbe 3d91 823d 362e 503a
00000120: 57cc adbd 7ce2 9dbd 970c 113c 8b43 0b3e
00000130: 939a 4fbd 846f 86bb ee59 3bbd 3291 85bd
00000140: 68ce e3bd fee0 dfbc d05f b5bc 41db 3f3d
00000150: 3b0b cbbc 0499 34bc 7c58 8e3d d4f2 b83d
00000160: 52bd d9bd 899e 25bd f277 823d 36fc 013c
00000170: 7e77 a83d 59ad e3bc 619f 273e b93a 0dbd
00000180: 8b81 d53b 16e1 1a3d 1b46 243d 1058 933d
-0.038198233 0.056226112 -0.07439195 0.07319715 0.057737216 0.024907542 -0.0748741 0.005769146
-0.0053008385 0.0049264305 -0.008767747 0.018260429 8.6828775e-05 -0.07616251 0.050171647 -0.015458871
0.08390168 -0.0022865436 0.017338896 -0.029356282 0.034899794 -0.09710633 -0.090013735 0.09330264
-0.011111066 0.11195552 0.020248368 0.08308215 -0.16710353 -0.08908412 0.17702504 -0.086655065
0.034601357 -0.08592622 0.044353835 0.036550436 -0.02983407 0.039802052 -0.024209833 0.04234388
-0.020324986 0.0127970595 9.025051e-05 0.0073036803 0.034613688 0.052549586 0.04843662 0.066141814
-0.05156214 0.050674584 -0.13758172 0.0066748173 0.040775724 -0.068446666 0.006254824 0.06019237
-0.004957836 -0.048140656 -0.07967322 0.03604345 0.07818199 -0.2029632 -0.015063683 0.08290428
0.15814102 0.006827268 -0.018819427 -0.0760792 -0.04161124 -0.15534474 0.06375358 0.0007941456
-0.0848624 -0.07709214 0.008853099 0.13599984 -0.050684523 -0.004102649 -0.04574006 -0.065218344
-0.11123353 -0.027328964 -0.022140414 0.046839956 -0.024785629 -0.01102281 0.06950471 0.09030691
-0.10631813 -0.040434394 0.06370534 0.007933667 0.08225916 -0.02779262 0.16369392 -0.03447983
0.006515687 0.037812315 0.04010592 0.07194531

batchnorm3.weight f4 [100]
00000000: 2217 413f 4be9 993f 6441 393f 4f4f 813f
00000010: 8b90 013f f34c 2a3f 972d 8b3f dcd6 643f
00000020: 80f9 093f ed06 3b3f 9cef 543f f7ed 813f
00000030: d49b 483f 644d 2d3f 6002 2d3f c24c 6d3f
00000040: 3463 4d3f 9273 d23e eecc aa3f aefb 643f
00000050: f7d4 0f3f 5ef2 b83f f7c4 663f 10db 813f
00000060: 7c55 a43f 49fe 423f cfd6 903f 2669 1d3f
00000070: 2f71 7a3f 18dc a63f 185f 753f 3c84 8e3f
00000080: 8d90 9e3f 8624 b03f dd2b 263f b774 5b3f
00000090: e215 253f edb0 0d3f 03f6 763f 4a37 3e3f
000000a0: 91e5 4f3f 35e2 463f b42c 363f d7f5 1c3f
000000b0: 80fa 423f ccb6 333f 0190 133f 13ea 4f3f
000000c0: e2a2 343f 787d 3b3f f796 9a3f 64f0 023f
000000d0: 486b 103f 6026 903f 081c 3c3f 2ab7 a53f
000000e0: 29fa eb3e 42ab a63f 0395 aa3f 9601 143f
000000f0: b0ae 453f a98a be3f 8daf 9e3f 697b 473f
00000100: 30e3 9d3f d36c ac3f 961a 2c3f 2689 833f
00000110: c9d8 5e3f ce4f 743f c700 753f 61c4 923f
00000120: 6771 f83e bacb 263f cdbb 383f 3cf4 5c3f
00000130: a024 883f daf7 763f 1799 e43e dfc2 513f
00000140: e889 493f 0ae1 473f 86fe 863f cdec 163f
00000150: d848 9fbc 319c 043f 17cc a23f 6a7b 713f
00000160: 0ea4 aa3f 56b6 6e3f de17 673f 434e 753f
00000170: a251 013f cdab 9a3f 6505 903f b982 563f
00000180: b505 6e3f d407 243f e752 913f 946c 1c3f
0.7542592 1.202432 0.72365403 1.0102328 0.5061118 0.66523665 1.0873288 0.8939035
0.5389633 0.7305744 0.83178115 1.0150746 0.78362775 0.67696214 0.6758175 0.9269525
0.80229497 0.41103798 1.334379 0.8944653 0.56184334 1.4448965 0.90144295 1.0144978
1.2838588 0.7616926 1.1315554 0.6148857 0.97828954 1.3035917 0.95848227 1.1134105
1.2387863 1.3761146 0.6491068 0.8572497 0.64486516 0.5534809 0.96469134 0.74303114
0.81209666 0.77688915 0.7116196 0.6131262 0.7616348 0.702008 0.5764161 0.81216544
0.7056104 0.73238325 1.2077321 0.51148057 0.564137 1.1261711 0.7348027 1.2946522
0.46089295 1.3021014 1.3326725 0.5781492 0.77219677 1.4886066 1.2397324 0.77922684
1.2334957 1.347071 0.67228067 1.0276229 0.8704954 0.9543427 0.9570431 1.146618
0.4852402 0.6515461 0.7216156 0.8631017 1.0636177 0.9647194 0.44648048 0.81937975
0.78726053 0.7807776 1.0546424 0.5895508 -0.019443914 0.5180083 1.2718533 0.9432894
1.3331316 0.9324697 0.90270793 0.9582254 0.50515187 1.208368 1.1251646 0.83793217
0.9297746 0.64074445 1.1353425 0.6110318

batchnorm3.bias f4 [100]
00000000: 58d4 673e bee4 983e af0d 7b3e 863e 4bbd
00000010: 773c 393e c202 123e 6a24 0c3e 4dba 083e
00000020: c21c 703e 91bc e93d 6b54 a53e d151 283e
00000030: 3a09 dc3c fe31 c03d 3b4d 763e 1dd3 733e
00000040: 9793 853e 700e 453e 47a4 c43e 90dc 6d3e
00000050: 458d 203e a7dc a23e c17a b83e 0583 923e
00000060: 2e3f b63e dffb c9ba d9ae 503e cb47 ff3d
00000070: f0c0 933e 85b0 9c3e a03d 873e b54c 593e
00000080: 8956 2e3e 9a10 493e f089 943e 1de8 713e
00000090: c172 b93e c68e 303e 5f89 143e fb04 8e3e
000000a0: 940f 3f3e 5b19 613e 09b7 323c 28eb 5b3e
000000b0: 3bd6 dc3e 6c03 513e 8f9c 1f3d 1a0c 1f3e
000000c0: c68f 753e 0c9f 8a3e 51f5 503e a10b 3c3e
000000d0: bcfa 5a3e 7368 673e b735 633e 8596 f13d
000000e0: 518b bd3e 99c0 743e 67c5 bb3e 74ad 4f3e
000000f0: 2cd3 773d 80af 923e 17bb 6e3e 1799 fa3d
00000100: 4f2c 193e 7534 bf3e 3ed8 093e b848 d63d
00000110: 81cb 173e d89e 9d3d 62e0 573e f11a 5f3e
00000120: beee 013e 65a3 853e d9f1 873e 8ad0 8c3c
00000130: 2925 643e 8be1 4b3e 1fa6 933d bf24 e83d
00000140: 7f76 913e e991 1f3e 23ff 933e ef7d 273e
00000150: 361c 82bd 0534 783e f2b0 ed3d 9a77 d13d
00000160: e8af 403e 5143 123e 3dbf 4e3e 9fbc 573e
00000170: 8c2c 233e 65da 213e 7ef9 503e 7e0a 6e3e
00000180: 7a00 563e 530b fe3d 9d84 4b3e b893 ad3e
0.22639596 0.29862016 0.24516939 -0.049620174 0.18089472 0.14258865 0.13685766 0.13352318
0.2344847 0.11412919 0.32290968 0.1643746 0.026859868 0.09384535 0.24052899 0.23811002
0.26089165 0.19243789 0.38406584 0.23228669 0.1567889 0.3180897 0.36031154 0.28615585
0.35595077 -0.0015410146 0.20379199 0.12464865 0.28858137 0.30603424 0.26414204 0.21220668
0.17025198 0.19635239 0.29011488 0.236237 0.36220363 0.17241964 0.14505528 0.27738175
0.18658286 0.21982329 0.010907897 0.21476424 0.43132195 0.20411462 0.038967665 0.1553196
0.23980626 0.27074468 0.20406081 0.18363811 0.2138471 0.22598438 0.2218846 0.117962874
0.37020352 0.23901595 0.36674044 0.20281011 0.060504124 0.2864952 0.23313557 0.12236231
0.14958309 0.3734471 0.13461396 0.10463089 0.14823724 0.07696313 0.21081689 0.21787621
0.12688729 0.26101223 0.26551703 0.017189283 0.222798 0.19910257 0.072094195 0.11335134
0.28410718 0.15583004 0.2890559 0.16356634 -0.06353037 0.24238594 0.11606015 0.1022789
0.18817103 0.14283492 0.20190139 0.21068047 0.15934962 0.15805967 0.20407674 0.2324619
0.2089862 0.12404504 0.19874807 0.33901763

batchnorm3.running_mean f4 [100]
00000000: af7e 5d3f 64b6 333f 8d79 54bb 5168 653f
00000010: 790f 59bf ea82 0abf afb5 94bd 16a4 c93e
00000020: 59be 913f 10d5 843f 269b 77bf 6c2d 403e
00000030: c581 b5be 3d5a 8abf da58 9fbc 8153 6bbe
00000040: 658e 40bd fb0a 903d 9076 c4be ecc6 1a3e
00000050: 0890 dd3e ba26 2040 63d1 37bf c7f9 35bf
00000060: 41b8 a43f 3e44 fdbe 3a89 503e a690 873f
00000070: 58e8 bbbe c1a9 5fbe 58bd 343f 8718 693e
00000080: e302 933d 34ca 0b3f 9c93 f6be 3b9f 8e3e
00000090: b828 d1be 1cd9 91be 98e3 203f 75c0 af3f
000000a0: d968 1e3e da53 213d fdf3 463f b004 babe
000000b0: 0f8b 75be 24ac 22bf 7662 2a3e 771c afbe
000000c0: 2f7f afbf b3e6 d7be b891 76bf fa7f 203f
000000d0: 81ce 113e e209 1c3f d0f8 20bd 6835 a73f
000000e0: 3ec4 0cbe 862c 0f3d dc1f f2be 1e27 a0be
000000f0: 65a3 1b3e 2a3e c0be f6f6 7f3f fc65 903e
00000100: edfd 6abf 7cab eabe 77a3 a73e d5d4 27bd
00000110: 7180 d9bc 4b2d e63f b6d0 863f cd35 7d3f
00000120: 4585 933e c1b1 00bf 6e20 d0be 7f63 023f
00000130: 10fb 77bf 7eb6 0b3e 56bc 0f3e f98a 85bd
00000140: 465a 253f 1218 c8bf a835 193f 8b1f bd3e
00000150: ea39 4a3f c7aa c03e 6698 efbe 246e 913f
00000160: e6d4 013e 56e0 613e 2d0d cdbd a6da 6fbf
00000170: 0e8a 07bd 06e5 33bf ca80 cc3f 7512 8c3f
00000180: fc4e ed3c 9efe 35bc 7daf 313f d349 a33f
0.8652143 0.7020018 -0.0032421083 0.896123 -0.84789234 -0.5410601 -0.07261216 0.39383
1.1386214 1.0377522 -0.9672111 0.18767327 -0.3545057 -1.0808789 -0.019451547 -0.22981073
-0.047010798 0.07033344 -0.38371706 0.15114945 0.4327395 2.5023637 -0.71803874 -0.71084255
1.286873 -0.49466127 0.20364848 1.0591018 -0.36700702 -0.218421 0.70601416 0.22763263
0.07178285 0.5460541 -0.48159492 0.27855858 -0.40851378 -0.28485954 0.6284728 1.3730608
0.15469684 0.039386608 0.77716047 -0.363317 -0.23978828 -0.63543916 0.16639122 -0.34201404
-1.3710688 -0.42168197 -0.963161 0.62695277 0.14238931 0.6095258 -0.039299786 1.3063173
-0.13746735 0.03495457 -0.47289932 -0.31279844 0.15199049 -0.37547427 0.9998621 0.28202808
-0.9179371 -0.45833957 0.327419 -0.040974457 -0.026550503 1.7982572 1.0532444 0.9891022
0.28812614 -0.5027123 -0.40649742 0.5093307 -0.96867466 0.13643834 0.14036688 -0.065206476
0.6459087 -1.5632346 0.598475 0.36938128 0.7899462 0.37630293 -0.46795958 1.1361737
0.1267887 0.22058234 -0.10012279 -0.93693006 -0.033090644 -0.7027134 1.5976803 1.0943133
0.028968327 -0.011108069 0.694084 1.2756904

batchnorm3.running_var f4 [100]
00000000: 4db1 0b40 3824 f73f db28 d73f 3687 3040
00000010: fb9c 1440 4734 c03f bc5f 3e40 b0ac 5e3f
00000020: 596b 1940 bbce de3f c398 d33f 7ff6 a03f
00000030: 43fe 1140 7999 893f 8616 1440 5598 d53f
00000040: 2047 b53f c364 b53f 33cc 1540 7cc7 0640
00000050: 0488 0540 c4ae 833f 8169 ad3f a8ff 1140
00000060: 2ddd fa3f 2ebc 1740 31cb 0f40 2da6 ce3f
00000070: 2a20 8b3f 7962 d83f 5914 c33f 23d9 0240
00000080: 62c0 ac3f 356a d43f 67fb a33f 19e0 a93f
00000090: 72c8 0940 c072 e43f 1364 0340 d227 e83f
000000a0: 44c4 c13f 9f78 d03f fd5e bb3f 0085 dc3f
000000b0: d9c8 b33f 4b44 893f 08d4 c33f 4530 963f
000000c0: c1e6 c93f 15c2 c53f c7cb c63f df6b f23f
000000d0: c216 c43f 728b 0540 37d1 e53f 96c3 b23f
000000e0: 5cc6 f43f b4ef 0140 761d e43f f8f8 0940
000000f0: 812f b93f ca02 fc3f 7916 3340 b805 e73f
00000100: 1bcc 5a40 94c3 e63f 0d19 dd3f b4b0 ff3f
00000110: 5975 0a40 007f ed3f 7c3f eb3f 948b 2040
00000120: e0ad bc3f d28f e03f ee98 f53f 8e7a d73f
00000130: f6a1 f53f 1bb6 c23f 2dad 923f ff9c de3f
00000140: b035 913f e5f4 b63f dcb2 2640 ecad ed3f
00000150: ca86 7d3e 964c b83f 3cdb fe3f 1654 0140
00000160: 9669 943f c0a3 f83f 0b5f b93f b3ef 0c40
00000170: abb8 c83f 40ee d73f 44d0 e03f 9024 f53f
00000180: f93e cd3f ce05 fc3f 408f b33f 380d e23f
2.1826966 1.9307928 1.6809343 2.7582526 2.3220813 1.5015954 2.9745932 0.8698225
2.397177 1.7406839 1.6530994 1.2575225 2.281144 1.0749961 2.3138747 1.6687113
1.4162331 1.4171375 2.3405883 2.1059256 2.0864267 1.0287709 1.3547822 2.281229
1.9598747 2.3708606 2.2467768 1.6144463 1.0869191 1.6905051 1.5240585 2.044503
1.349621 1.6594912 1.2811097 1.3271514 2.1528592 1.7847519 2.052983 1.8137152
1.513802 1.6286811 1.4638363 1.7228088 1.4045669 1.0723966 1.5299082 1.1733481
1.5773546 1.5449854 1.5530938 1.893917 1.5319445 2.086636 1.7954472 1.3965938
1.9123034 2.0302553 1.7821491 2.1558208 1.4467622 1.9688351 2.7982466 1.804862
3.4187076 1.8028436 1.727327 1.99758 2.1634123 1.8554382 1.8378749 2.5085192
1.4740562 1.754389 1.9187295 1.6834276 1.9190052 1.5211824 1.1459099 1.7391661
1.1344509 1.4293486 2.6046667 1.8568702 0.24758449 1.4398372 1.9910655 2.0207572
1.1594722 1.9424973 1.448213 2.20213 1.5681356 1.6869583 1.7563558 1.9151783
1.6034843 1.9689271 1.4028091 1.7660284

linear2.weight f4 [10, 100]
00000000: 4895 433e 61bf 8d3e cbd0 d2bd 537a 17bf
00000010: 0e34 b5be 261e fdbe 7739 22bf d39a 09bf
00000020: 33af 0dbf 71c1 25bf ca7e 37bf 4e35 83be
00000030: 040a ba3d 5682 a3be ea6d b23d 6131 ebbe
00000040: 9024 f6be 0704 b0be 7f22 26bf d6aa d83e
00000050: d337 5cbf c4f6 073e 2360 5e3e 59ba 67bf
00000060: 5f33 843e a82d a73e 0c55 ad3e 06ce 62bd
00000070: 4938 ce3e f0d4 1c3e 7fcd 353d 3e68 ba3e
00000080: bef3 2dbf ebc9 4bbf 51de 4f3d 824e 03bf
00000090: 700a 05bf 3f47 a1be 5631 663e 1cc4 f03d
000000a0: 4614 823e f428 c53e 101d 53be 9fe3 3cbf
000000b0: cb83 9b3e e995 9dbe 3ee6 b8be 8211 e23e
000000c0: e4d6 b3be 9fa2 06bf 0096 24bf 3129 dabe
000000d0: b3a6 10bf 58c3 e53d abe6 6ebf 8fc8 0bbf
000000e0: 3a99 bb3d 9389 85bd c5df adbe 36cb ccbe
000000f0: 9577 e3be f868 9d3e 5daf 073e a1e6 03bf
00000100: 291b b5be 36a3 903e 5868 b93e f90a b0be
00000110: 42ec cebd e938 9ebe 63b1 a0be 1fec 66bb
00000120: 114d 35be 10e0 dd3e a9d2 7bbf 6bfe e6bc
00000130: 33af 89be 0728 e3be 7aae ecbd 4012 7abe
00000140: 774c acbe d453 15be 2da6 353e 2cbc df3e
00000150: 3e6a 0ebd e330 52bf 0a33 a3be 50e2 08be
00000160: b43a 10be 68ce 153c f0e7 b2be 4644 43bf
00000170: 9c07 76be 6fe2 89be 4473 c4bd e199 6bbe
00000180: e58d b9be cdc3 b7be dd68 dd3e 171f 7ebe
00000190: bb56 30be 952b 53be f552 40bf ceb1 503e
000001a0: 02c9 b43e 3bde 20be f2ca febe 3661 553c
000001b0: a81a cebe d6e7 813e 5eca 11bf 2f13 f2be
000001c0: 1c48 9b3d 8342 c5be ba3a 51be 3653 48bf
000001d0: 2f88 34bf c4fb a13d ffc8 463e af15 1bbe
000001e0: 2fbc 38bf eec6 10bf cef8 e7be d5a8 9d3e
000001f0: 7d07 49bf 3af0 a0be ba44 b9be 07d8 dabd
00000200: a166 adbe 149a afbd 014b 4e3e 229d f2be
00000210: 559f 48bf ce4a 82be 728f 42be cd9c adbe
00000220: 62e5 c63e 1a0b cd3e 40e8 1fbd 0907 0ebf
00000230: 3daa a9be efcb 6bbe 814d afbe 6ce1 96be
00000240: fc9b 00bf 18ea 4dbf 2061 b9be 13ba 34bf
00000250: 8061 5f3e 8384 43bf fe15 0fbf 7f03 b8be
00000260: a230 813e 8cf9 87bc a435 10be 4c19 f7be
00000270: 92ec b5bc 8051 2dbf 182c ad3e e7b3 c43e
00000280: d47f 2ebf da3f b4be 01ba fcbe b4e7 16bf
00000290: 95b6 af3e 70a8 b53c 6623 d4be 31d1 0dbf
000002a0: 79e2 28bf 6ac9 343e 867d 2dbf 7a85 bc3e
000002b0: 50f0 0a3e 8d1d 61be 8789 17bf 7ec0 81be
000002c0: 7be9 ae3e c621 8b3e 74e0 b3be 5dd0 05bf
000002d0: 4ad3 853e cb13 1e3e 839d 14bf 6474 e8be
000002e0: 19ec 05bd 7faf 6bbc 89c7 6a3e 272c dc3e
000002f0: b7e5 a03d adc5 c03e c480 b83d 6111 6f3e
00000300: 03cc 26bf 976e b43e a2c8 c3be de06 53bf
00000310: 69d9 9abd 0c4e 6bbd 0c1f cf3d 5880 81bf
00000320: 7c9f 363e bbb8 03bf 31b6 b8bd fe98 14bf
00000330: 1512 84bd ce62 efbd be02 973e 926a 02bf
00000340: ed68 ea3c 31cb 46bf 1b9b 3cbf 5bca 883d
00000350: 704d b6be 9f97 963e 1a88 a13e 9be9 193e
00000360: 9aaf 5fbe a107 04bc 879e 1dbf 8d95 0fbf
00000370: 5ec1 053e 82fb a9be a6e5 c8be 7bfb c8be
00000380: e314 e7be 82fb 5abe 44df 89bd c3a3 f2be
00000390: 9547 f6be 822d 37bd 231e a13e d91a c5be
000003a0: 7896 a23e 85ed d3be fffd e93d 9090 2b3d
000003b0: 844e 813e ba0d 193e 6675 32be 4401 a53e
000003c0: 6bc0 9a3e 125c e6be b156 15bf 5c95 c93e
000003d0: f3d9 f2be 566a 8cbe 1158 b6be ee2a b3be
000003e0: a247 5d3e 1226 49be 047d 04bf d37d 1e3e
000003f0: dded a9bd 10a1 f3be e464 00bf 09b6 7e3e
0.19099915 0.27685073 -0.1029373 -0.59171027 -0.35391277 -0.49437064 -0.63368934 -0.5375187
-0.5534546 -0.64748293 -0.7167784 -0.25626606 0.090839416 -0.31935376 0.08712371 -0.4593611
-0.4807477 -0.34378073 -0.64896387 0.42317837 -0.8602268 0.13277727 0.21716361 -0.9051872
0.25820443 0.3265202 0.33853948 -0.05537226 0.40277317 0.15315604 0.04438543 0.36407655
-0.67950046 -0.7960498 0.050749127 -0.5129167 -0.5196905 -0.3149967 0.22479758 0.11756155
0.25406092 0.38507807 -0.20616555 -0.7378482 0.30373988 -0.30778435 -0.3611316 0.44153982
-0.35124886 -0.5259189 -0.6429138 -0.42609552 -0.5650436 0.112188995 -0.9332072 -0.54602903
0.09160085 -0.06520381 -0.33959785 -0.39998788 -0.4442717 0.30744147 0.1325049 -0.51523787
-0.35372284 0.2824952 0.3621242 -0.3438337 -0.10103656 -0.30902794 -0.31385335 -0.0035235954
-0.1770518 0.4333501 -0.98368317 -0.028197488 -0.2689148 -0.44366476 -0.11556716 -0.24421024
-0.33652088 -0.14582759 0.17739172 0.4369825 -0.03476929 -0.82105845 -0.31874877 -0.13367581
-0.14084893 0.009143449 -0.3494258 -0.7627605 -0.2402634 -0.26930568 -0.09592298 -0.23007919
-0.3624107 -0.35891572 0.43244067 -0.24816547 -0.17220585 -0.20622094 -0.7512658 0.20380327
0.35309607 -0.15709774 -0.4976421 0.013023665 -0.40254712 0.2537219 -0.5694941 -0.4728026
0.07582113 -0.38527307 -0.20432559 -0.7825197 -0.705203 0.079093486 0.19412611 -0.1514499
-0.72162145 -0.5655354 -0.4530701 0.3079287 -0.7852705 -0.31433278 -0.36185247 -0.10685735
-0.33867362 -0.0857431 0.20145799 -0.47385508 -0.7836812 -0.25447696 -0.19000033 -0.33908692
0.3884688 0.40047532 -0.03903985 -0.55479485 -0.33137694 -0.23027013 -0.34238818 -0.29468858
-0.50238013 -0.80435324 -0.36206913 -0.70596427 0.21814537 -0.7637407 -0.5589293 -0.35940167
0.25232416 -0.016598485 -0.14082962 -0.48261487 -0.022207532 -0.67702484 0.33822703 0.38418505
-0.681638 -0.35204965 -0.4936066 -0.589473 0.34318987 0.022175044 -0.41433257 -0.55397326
-0.6597057 0.17654958 -0.6776966 0.36820585 0.13568234 -0.21983929 -0.59194225 -0.25342172
0.34162506 0.27174205 -0.35132182 -0.5227106 0.26137763 0.15437238 -0.58052844 -0.454013
-0.032695863 -0.014385103 0.22927679 0.43002436 0.07856315 0.37650815 0.09008935 0.23346473
-0.6515505 0.35240623 -0.38239008 -0.82432353 -0.07560999 -0.05744748 0.101133436 -1.0117292
0.17834276 -0.5145375 -0.09019125 -0.5804595 -0.064487614 -0.116887674 0.2949428 -0.50943863
0.028614486 -0.77653795 -0.7367417 0.06679221 -0.35605955 0.29412553 0.3154915 0.1503052
-0.2184433 -0.0080584595 -0.6157002 -0.5608757 0.13062045 -0.33199698 -0.39237708 -0.39254364
-0.45133123 -0.21385005 -0.06732038 -0.47390565 -0.48101488 -0.044721134 0.31468305 -0.38497046
0.31755424 -0.4139215 0.11425399 0.041885912 0.25255215 0.14946643 -0.17427596 0.32227528
0.30224928 -0.4499212 -0.58335406 0.39371765 -0.47431907 -0.27424878 -0.35614064 -0.3499369
0.21609357 -0.19643429 -0.5175326 0.15477686 -0.08297322 -0.47583818 -0.50153947 0.24874128

linear2.bias f4 [10]
00000000: a176 7abe 75f3 f83d 8137 b5bd bd72 f93c
00000010: d637 84bd 9907 5a3d 8e0a 14be ccc2 6ebd
00000020: 1d71 d73d caf0 603e
-0.24459316 0.12155811 -0.08848477 0.03045022 -0.06455962 0.053229902 -0.14457151 -0.05829124
0.105196215 0.21966854
