research/differential_privacy/multiple_teachers/checkpoint/mnist_10_teachers_3.pth (torch_old, 139301 bytes, 20 tensors)

conv1.weight f4 [16, 1, 5, 5]
00000000: 2c4c b1bc fda6 e63d 8c33 02be a103 563d
00000010: 1063 f4bd 5c0e e33b 8df8 233e 3a82 b73d
00000020: 9796 043d a70a 6dbe 2fef 543e 0dbf 3b3e
00000030: b09e 47be 826e 88be 5d97 05be 2dcb ee3d
00000040: 9069 993e 8f63 f83c c74c 173e d1bd be3c
00000050: 05e1 81bd 87dc 843e 15c3 b63d 5578 bebc
00000060: e343 b93e e448 e3bd cb0f 1ebe c115 99bd
00000070: b62b b23d fe56 f23e c1ec 993c 7f1f d1bc
00000080: 8e70 b2bd a428 2fbe 2076 9abe b5c3 203e
00000090: 2c64 a33d a072 22be 8eb9 b1be f23c 90bd
000000a0: a1c5 83be 3be4 abbe 0624 53bd 6b8b 14bd
000000b0: 2f98 af3d 6167 b3bd 3e3b 383e 1536 813e
000000c0: 09d4 823e 0249 a63c ecb6 95be 8b76 51be
000000d0: 9b42 00be bb1d 5cbe 6715 08bc 487c 403d
000000e0: 783c 88bd 4fe0 ccbd 227f 043d 1e83 5a3e
000000f0: 4a2a 223e 1d61 4d3e 4790 b63e ad01 7abc
00000100: 061f 4e3d 706b cfbc 64a4 1a3d b568 0ebd
00000110: 48ff 133e 72ca 48be d31f b5bc 44f0 7bbe
00000120: d1fc 39be 74c9 38be 5626 80be f9e5 ef3d
00000130: 24d6 fa3d d6f5 fb3c c73b 30be 56f8 cdbe
00000140: 89a5 8abd 8d35 3bbe e8e8 1ebe 2b35 9cbe
00000150: d2a9 38be 41a2 25be 5239 65be 2c85 34be
00000160: babf 20be 5d08 4a3d bca1 a73d 26cc 4abe
00000170: 3316 cebc ee6e bfbe 1a43 ccbd 1e2f 363e
00000180: 4777 95bd bcd7 06be 55b0 c1be 04bf 053e
00000190: 1582 16be c4db a9be bee6 c9bc 351b 59be
000001a0: 6ed8 7dbe 8386 dabe 3324 9ebe 58de bfbe
000001b0: 5e86 88be ee63 63be 97dd bebb f6bf 00bd
000001c0: 3702 05bd a188 823d 550c 10bd a663 d63d
000001d0: 48d8 7d3e 3e8f adbc 27f7 aabd 1ea0 7f3e
000001e0: 4ebd 5f3e 6614 29bd 1d34 1d3e e346 e33d
000001f0: 5566 043e d927 3a3d 1d9b 7f3d 7d87 c73d
00000200: 1a2f 53bd 2c80 08be e5ce 2a3d cc39 c6bd
00000210: 9b23 623e d183 c3bd 4dbd 3ebb c062 bbbe
00000220: bb57 593d bd8e 603e 1276 a73e f841 35be
00000230: 176a 3abe 6094 7bbe 460b 033e e34c 723e
00000240: aa4d 6eb9 5085 5fbe 250f 6fbe 7fea 60bd
00000250: 80eb 873e 9b35 603d 1db6 da3d 1a5e b23d
00000260: 5246 6fbd 38fb d2bd 1444 a3bd f2c0 403d
00000270: 0b48 a63d a3a4 0a3e 77e7 463e 2d74 0f3e
00000280: 833e 06be e121 f0bc 913b a53d a320 8abc
00000290: c62c 053e b17d 32be 677b 51bd 41a8 9bbc
000002a0: 80a2 1bbe 4787 97bd b2c1 f4bd 386d 69be
000002b0: 6445 e3be 4fd7 4bbe 132b c0be 09a1 62bc
000002c0: 4442 a7bc 7884 353e f5fd 063d ba74 013e
000002d0: a76d 5ebe b4e2 a73d 1f40 a1be 9e74 7c3d
000002e0: e101 b5be 81ea e33d d3dc f1bd 7fc7 b8bc
000002f0: 07e2 7cbe 6807 d7bd d90d dfbe 2b49 2ebe
00000300: 5b30 87be 33eb 2dbc d203 e93d d9ba 22be
00000310: b4e4 f8bd ff85 d5bd 83e8 e33c 6bd4 bd3b
00000320: 34f3 cfbe 38c2 283d 00e5 4d3e b25f 433d
00000330: 9a2d 073e ec4e 4e3d f6a1 c13e 568e 0e3e
00000340: e0b3 2cbe 86ba 5ebd bbb4 263e 992c 0a3d
00000350: 205e 0fbb e894 aabe 0e1c 81be b8e8 1a3e
00000360: 4ea0 acbe 1195 35be dc04 efbd 7858 993d
00000370: f132 38be 84ae a0bd 3dec 0b3c 0ae9 173e
00000380: e5cb 113e b8b9 053e 35c9 373e 262b 053e
00000390: c06b 493e 6755 a33e 258d 64bd 3128 b2bc
000003a0: f1cc c53c b3f4 f8bc 2b23 593e 4c5a ecbd
000003b0: ece7 c13c 3ba9 293c 4d29 04be 1e86 093d
000003c0: 1bc9 cebe bcba 88be 1f30 04be 9a72 c6bd
000003d0: d4d3 493d bb19 52be f755 23be 5666 a8be
000003e0: ba4a b5be 47fc 3ebe 39c9 133d fa6c 98bd
000003f0: 842d 1dbe a5a1 a23d d842 97be 401a edbd
-0.021642767 0.11262319 -0.12714976 0.052249555 -0.11932957 0.006929202 0.16012783 0.089603856
0.032370176 -0.23148595 0.20794366 0.18334599 -0.19494128 -0.2664681 -0.13046022 0.116598465
0.2996335 0.03032091 0.14775382 0.02328387 -0.06341747 0.259495 0.08923928 -0.023250738
0.36184606 -0.11097887 -0.15435712 -0.07474852 0.086997434 0.47331995 0.01878965 -0.025527714
-0.08712874 -0.17105347 -0.30168247 0.15699656 0.07978091 -0.15864038 -0.3471188 -0.070428744
-0.25736716 -0.33572564 -0.051548027 -0.03626577 0.085739486 -0.08759952 0.17991349 0.25236574
0.25552395 0.020298485 -0.2924112 -0.20455377 -0.12525408 -0.21495716 -0.008305884 0.046993524
-0.066521585 -0.10003721 0.032347806 0.2133908 0.15836444 0.20056577 0.3565695 -0.015259189
0.050322555 -0.025319785 0.03775443 -0.034767825 0.14452851 -0.19608477 -0.022109902 -0.24603373
-0.18162848 -0.18045598 -0.25029248 0.11713786 0.12247875 0.030756872 -0.17210303 -0.40228528
-0.067698546 -0.18282147 -0.15518534 -0.30509314 -0.18033531 -0.16175176 -0.22385147 -0.17628926
-0.15698138 0.049324382 0.08185145 -0.19804439 -0.02515707 -0.3738932 -0.09973736 0.17791411
-0.07298141 -0.13168234 -0.37829843 0.13061148 -0.1469806 -0.3317548 -0.02464616 -0.21201785
-0.24789593 -0.4268075 -0.30886993 -0.37474322 -0.26665014 -0.22206089 -0.0058247554 -0.03143307
-0.032472815 0.06373716 -0.03516801 0.10468225 0.24789536 -0.021186467 -0.08347922 0.24963424
0.21849558 -0.04127922 0.15351911 0.11097505 0.12929662 0.045448158 0.062403787 0.09742639
-0.05155859 -0.13330144 0.041701216 -0.09678993 0.22083895 -0.09546626 -0.0029104531 -0.36598778
0.053062182 0.2192945 0.32707268 -0.17700946 -0.18204533 -0.2456832 0.12797269 0.23662142
-0.00022726381 -0.21828198 -0.23345621 -0.054911133 0.2654686 0.054738622 0.106792666 0.08709355
-0.058416672 -0.103018224 -0.07971969 0.047059007 0.0811921 0.13539366 0.19424234 0.14009161
-0.13109784 -0.02931303 0.08068002 -0.016861266 0.13005361 -0.1743076 -0.051143076 -0.019001128
-0.15198708 -0.07398849 -0.11951007 -0.2279557 -0.44388878 -0.19906352 -0.37532863 -0.013832339
-0.02041734 0.17726314 0.032957036 0.12642184 -0.21721517 0.08197537 -0.31494233 0.061634652
-0.35352996 0.111287124 -0.11809697 -0.022556065 -0.24695598 -0.104994595 -0.43565252 -0.17020099
-0.2640408 -0.010615158 0.11377682 -0.15891589 -0.12152997 -0.10425948 0.027820831 0.0057931445
-0.40615237 0.041200846 0.20106888 0.047698684 0.1320099 0.050368235 0.3781888 0.13921484
-0.16865492 -0.0543771 0.1627988 0.033733938 -0.0021876171 -0.3331673 -0.25216717 0.15127838
-0.33716053 -0.17732646 -0.11670849 0.07487577 -0.17988183 -0.07845786 0.00854021 0.14834991
0.14237936 0.13059127 0.17947848 0.13004741 0.1967001 0.31901094 -0.05579867 -0.02174768
0.024145575 -0.03039012 0.21204822 -0.1154066 0.02367016 0.010355289 -0.1290638 0.03357517
-0.40387806 -0.26704967 -0.12908982 -0.09689827 0.04927428 -0.20517628 -0.15950762 -0.32890576
-0.35408574 -0.18650924 0.036080573 -0.07442661 -0.15349394 0.079409875 -0.29543185 -0.115772724

conv1.bias f4 [16]
00000000: 5ff9 363e eab1 03be 5766 cc3d 0ae0 9fbd
00000010: 0495 95bd 3a25 be3d 725a 1b3d f080 18be
00000020: e8a1 1ebd 452d b1bd 645f 493e 478c 273d
00000030: 5f05 cd3d 18d3 78bd 509c ef3a 6e3b 2e3e
0.17868565 -0.12860838 0.09980457 -0.07806404 -0.07303813 0.09284444 0.037928052 -0.14892936
-0.038728625 -0.086512126 0.19665295 0.040905263 0.1001079 -0.06074819 0.0018280838 0.17014858

batchnorm1.weight f4 [16]
00000000: 7fbd 983e da12 893e 4482 713e 6a94 4c3f
00000010: 45cc 0c3f 1256 8c3e 9dba 623f 496c 693d
00000020: 4d2b 803f 484c 823f a03e 8d3d f5b1 083f
00000030: 8481 d43e 93e2 113f 72cb 8d3f 1b38 3e3f
0.29832074 0.26772195 0.23584849 0.7991396 0.5499919 0.27409416 0.88566 0.056988034
1.0013214 1.0179529 0.068967104 0.5339654 0.41505063 0.5698635 1.1077712 0.7430436

batchnorm1.bias f4 [16]
00000000: 20f1 9ebe 1f04 03be 0de3 23be 3865 583c
00000010: 8447 af3c a5f4 7dbe 1e8d 283d 99f1 58be
00000020: a493 c5be 0b51 193e 1ce1 e8bd 7f98 c4be
00000030: 063f 9bbd 54f6 a8be e273 8fbd c359 d7be
-0.3104334 -0.12794541 -0.16004582 0.013207726 0.021396406 -0.24800356 0.041150205 -0.21185912
-0.38589203 0.14972322 -0.11371061 -0.38397595 -0.0758038 -0.33000433 -0.07004525 -0.4206067

batchnorm1.running_mean f4 [16]
00000000: 23d5 2f42 c972 edc1 47f2 12c2 aa7f ffc2
00000010: 140c 87c2 bc7c 78bf 15d4 64c2 975f b1c2
00000020: 9087 b1c1 bde8 5bc2 c958 b7c2 cbb8 8dc2
00000030: 8fa8 6941 c891 a4c1 a55b bbc2 3eae 8dc1
43.95814 -29.681047 -36.7366 -127.749344 -67.52359 -0.9706533 -57.20711 -88.6867
-22.191193 -54.977283 -91.67341 -70.86092 14.603652 -20.571182 -93.67899 -17.71008

batchnorm1.running_var f4 [16]
00000000: ecb1 0646 134b ce45 dd2f a845 30f5 1347
00000010: aa2e c446 04f0 ce45 891c 4a46 0e1e 8e46
00000020: 18dc ad45 ca86 a446 a713 7946 91c0 4f46
00000030: 8d82 8b45 235b 5a45 d47d dc46 9783 a845
8620.48 6601.3843 5381.983 37877.188 25111.332 6622.002 12935.134 18191.027
5563.5117 21059.395 15940.913 13296.142 4464.319 3493.696 28222.914 5392.4487

conv2.weight f4 [16, 16, 5, 5]
00000000: d74e 3cbe 9c44 e63b 2b40 10bd 98a3 a1bd
00000010: 102b 063d df0e 413c 69f6 373d 560b ff3c
00000020: 8986 93bb b764 903d 8314 aa3d baa7 cbbc
00000030: 5313 30bd 3aa2 84bd 6392 3dbe 89a0 413c
00000040: 0c98 57bd 3f5a 523e e39b 343e 744c d8bc
00000050: 046f 043d 3873 b43d f839 7d3e ed8e a83e
00000060: 412c bd3d a70b b13d 5095 7b3e ae05 053e
00000070: b34c db3d 4841 6d3d 43d0 dd3d d051 083e
00000080: 424c 503e 9f9b 183d 2b74 56be eba5 7cbd
00000090: 48ee 26bc 9e67 fabc 7bbf 1c3d 0d72 2f3c
000000a0: cea4 eb3c 67b1 6e3d b0f8 7d3e 49ea 503e
000000b0: ea6e 5e3e 4efd f43a 47d8 96bd c1ed 0ebd
000000c0: 0726 dd3c 576f 3d3e 5d69 f8bd b39c 41be
000000d0: bd94 e8bc c7b3 9d3d f0c0 ee3d 242a 92be
000000e0: 3eab f2bd 8968 593d c80b d83d 92ae bebb
000000f0: a8ab 61be 7f94 82be 7884 90be 0720 83be
00000100: 254a 22be f826 62be 62c9 73be f2b9 fcbd
00000110: 1c12 85bd 9f83 d6bc 6693 bcbd c15c a0bd
00000120: 38cf 1c3d 5f4b 243e 1dfd 7d3e 742d 6a3d
00000130: 9285 783c 6e7a 723e 8863 523e 124f 103e
00000140: b5f0 dfbb 0b78 a9b9 40c2 e2bb 08a2 1cbe
00000150: 2f5b 70bd fb85 a0bd 2c04 97be 0175 f1bd
00000160: 05c2 80bd cf45 9e3b 24c5 f2bd fddc 81be
00000170: 40ea 41be 7efe 6abe 7096 06be 6ed5 06be
00000180: 51bb 71be b3ce 5fbe 0c56 4dbe c144 84bd
00000190: ddf8 00bd cdcd e4bd 4bcd 9a3d 5ff3 743e
000001a0: 8c56 833e 8152 1cbc 48cb a53c 27f3 783d
000001b0: ca17 a93d aea8 28ba 0cb5 a7bb 40d1 68bc
000001c0: c8f2 38be 5683 a6be d447 91be d319 b7bd
000001d0: 22ec 4abe 3141 1abe 965a aebd 273a 68bd
000001e0: 72af 21be 6865 77be 1529 c9bd 17b9 c43d
000001f0: d76a d23d 9ae2 22be 5ccc dbbd 2541 cdbd
00000200: 3155 92be 2976 04be 5868 62be 8610 8ebe
00000210: 014f d5bd 170a 3abe 2859 b5bd 6904 923b
00000220: a2ce 13bc 2562 d23c bd1c d3bd b46e 9f3c
00000230: 87e8 4d3d cda8 6d3e a037 893c 2c1b 1ebe
00000240: 0760 b2bd d0fa 1f3e 51ce 4d3e db54 553d
00000250: d8c1 90bd 40ec c2bd 7ab3 80bd b3b9 eaba
00000260: 1dda a3bd 2034 c7bd 58b8 04be 3a6d 2bbe
00000270: 30a3 96bb 2362 d1bd 640c aabd 1bde 07bc
00000280: 3fd3 90be 533f e3be e361 59be 1722 abbd
00000290: 99d2 d13d 010c 07be 695a 56be ac62 43be
000002a0: 23de 16be a665 b43d ec66 993d 519f 3b3c
000002b0: 73eb 103c 383c e2bd 179d aebd 9eea 6e3d
000002c0: 32e6 8bbd 231c 04be 5c52 7abd 8e94 2abd
000002d0: 9b5e 7ebc 8044 3fbe 163b 4ebe 9576 b5bb
000002e0: 6bd3 50bc a221 fbbd 4802 28be 07b9 00be
000002f0: 79be 83bd c079 9bbd 9c7e 2dbe dfc8 0fbe
00000300: d0a6 70bd 8e05 1e3d da2d a5bd 4627 19be
00000310: fde0 15be 0a32 a4bd eaa8 0a3d 4119 3d3e
00000320: c04a 493d 3d2b 073e db21 303e 78e6 10be
00000330: b182 b6bd eb77 6a3e cba0 a23e 56dc dd3d
00000340: f66f dabd 9ad7 fabc 6d9a b43e e7ee 023f
00000350: d89f b13d f86c 2f3c ea1d 023d 4ba1 5d3e
00000360: 1540 8b3e 8b05 123e 9709 f43d 6fb3 81bc
00000370: 6291 b13d fc24 04be 371a 7f3d da4f 223d
00000380: 4c93 2c3e bc65 94bd cc72 41be 39a0 89be
00000390: f0ce 83be 13cf 1dbe 35d8 a4be 2d55 cdbe
000003a0: a482 a9be 3a0f adbd 3ddf 453c dadf 94be
000003b0: 5887 d0be 5b42 83be 6bfc 9ebd 81e5 0f3b
000003c0: 998a b23c ddcb 5cbe dd66 5ebe 7c7a 96bd
000003d0: 5a8e 453a bc31 253e a0e0 85bd da78 18be
000003e0: 6e57 aabd 5e02 bfbd b59e 903b 14aa 52bc
000003f0: 710e 403d d369 1bbe d1cc 0bbe 87ff a2bd
-0.1838945 0.007027222 -0.035217445 -0.07892531 0.03275591 0.011783331 0.04491273 0.031133335
-0.004502122 0.0705046 0.083046935 -0.024860252 -0.04298718 -0.06476255 -0.18512873 0.01181806
-0.052635238 0.20542239 0.17637591 -0.026403643 0.032332435 0.08811039 0.24729145 0.32921544
0.092369564 0.08644801 0.24568677 0.12990448 0.107079886 0.057923585 0.108307384 0.13312459
0.2034159 0.037257787 -0.20942752 -0.06168167 -0.010188647 -0.030566987 0.038268548 0.010708344
0.028765108 0.058274653 0.24801898 0.20401873 0.21721998 0.0018691213 -0.073654704 -0.03489471
0.026995672 0.18499504 -0.121294715 -0.18907432 -0.028391236 0.077003054 0.11657894 -0.28547776
-0.11849068 0.053078208 0.10549122 -0.0058191502 -0.22038138 -0.2550392 -0.28226066 -0.25610372
-0.15848596 -0.22085178 -0.2380729 -0.12340154 -0.06497595 -0.026185809 -0.092078015 -0.078301914
0.038283557 0.16044377 0.24803586 0.057172254 0.015168564 0.23679516 0.2054578 0.14092663
-0.0068341144 -0.0003232363 -0.006920129 -0.15296185 -0.05868071 -0.07838055 -0.2949537 -0.11789895
-0.06287006 0.004830099 -0.11854008 -0.25363913 -0.18937016 -0.22948644 -0.13143325 -0.13167354
-0.23606612 -0.21856193 -0.20052356 -0.06458426 -0.031487335 -0.11172066 0.07558688 0.23920964
0.25651968 -0.009541155 0.020238534 0.060778763 0.082564905 -0.00064338266 -0.005118018 -0.014210045
-0.18061364 -0.32522076 -0.28375113 -0.089404725 -0.1981664 -0.15063931 -0.08513372 -0.056696083
-0.15789583 -0.24159777 -0.09822289 0.096056156 0.10274284 -0.15906754 -0.10732338 -0.10022191
-0.2858062 -0.129357 -0.22110116 -0.2774698 -0.104154594 -0.18167911 -0.08854896 0.004456092
-0.009021433 0.025681565 -0.10308216 0.019461967 0.050270583 0.23208924 0.016750157 -0.15440053
-0.08709722 0.15623021 0.20098235 0.052082878 -0.07068223 -0.09517717 -0.062842324 -0.0017908126
-0.08000586 -0.09726739 -0.12960947 -0.16740885 -0.00459709 -0.10223796 -0.083031446 -0.0082927
-0.28286168 -0.4438425 -0.21228747 -0.083561115 0.102452464 -0.13188173 -0.20932926 -0.19080609
-0.14733176 0.088084504 0.07490334 0.011451558 0.008845198 -0.11046642 -0.08526056 0.058329217
-0.06831016 -0.12901358 -0.0611137 -0.04164558 -0.015525485 -0.18678474 -0.20139727 -0.0055378177
-0.0127457185 -0.12262274 -0.1640712 -0.12570582 -0.06432814 -0.07591581 -0.16942829 -0.1404147
-0.058752835 0.038579516 -0.08065386 -0.14956388 -0.14636607 -0.08017357 0.033852495 0.18466665
0.049143553 0.13200088 0.17200415 -0.14150417 -0.08911646 0.22897308 0.317633 0.10833041
-0.10665886 -0.030620385 0.35274068 0.51145786 0.08673066 0.0107071325 0.03176681 0.2164356
0.27197328 0.14259927 0.119158916 -0.01583263 0.08670308 -0.12904733 0.06228086 0.039626934
0.16853064 -0.07245967 -0.18891448 -0.26880053 -0.25743818 -0.15411024 -0.32196203 -0.40104046
-0.33107483 -0.0845017 0.01207715 -0.29077035 -0.4072826 -0.25636563 -0.07762989 0.0021956863
0.021794604 -0.21562143 -0.21718927 -0.07347581 0.00075361656 0.16132253 -0.065369844 -0.14889851
-0.08317457 -0.093266234 0.0044134506 -0.012857933 0.046888772 -0.15177087 -0.1365235 -0.07958894

conv2.bias f4 [16]
00000000: 2811 823e ad53 08bd 53a2 8dbe 7b98 1b3e
00000010: cda4 d2bd 322a c63c 9f5f a33c f831 93bd
00000020: 02ca f23d ddf8 dbbd e876 aa3b 8ed8 273d
00000030: f163 d63d 0c23 a5bd 251f 753d 8be3 c43d
0.25403714 -0.033282924 -0.27662906 0.15194885 -0.102853395 0.024190042 0.019943057 -0.07187265
0.11854936 -0.10740826 0.005202163 0.040978007 0.10468281 -0.08063325 0.059844155 0.09613713

batchnorm2.weight f4 [16]
00000000: 7902 9b3e 6c1c ba3e 9e10 ff3e 2237 be3e
00000010: 0a0b 103f 2c82 d73e 3146 443f eb61 053f
00000020: 3301 4b3f 1998 483f 65f7 8e3e 1021 0c3f
00000030: 5f4f 9c3e 2480 fe3e eff2 843e d01f 683e
0.30275324 0.3634981 0.49817365 0.37151438 0.56266844 0.420915 0.76669604 0.52102536
0.79298705 0.7835708 0.27923122 0.5473795 0.30529305 0.4970714 0.25966594 0.22668386

batchnorm2.bias f4 [16]
00000000: 421e 13be a3d3 873d 684b d3bd 5f2e efbd
00000010: 39d2 39bd 912b 22be 295b 37be 1a8b bcbe
00000020: 6563 88be d0f6 88bd ecd4 04be 765e 23be
00000030: 72f8 14be 3acc 1dbe 06ee 37bd b3c5 53bd
-0.14367011 0.066321634 -0.10317117 -0.116787665 -0.0453665 -0.15836932 -0.17905869 -0.36824876
-0.26638332 -0.06687701 -0.12971848 -0.15954003 -0.145479 -0.15409938 -0.04490473 -0.051702213

batchnorm2.running_mean f4 [16]
00000000: 56d0 09c0 5fed acbf a3ef 4ebf d741 cbbf
00000010: aaf3 5cbf 1a0c b9bf 8817 113f ec8f a1bf
00000020: 4c64 c4bf b921 60bf b064 4a3f 1ed5 96bf
00000030: b61c d0bf e7a4 bcbf e899 183e 6c51 4040
-2.1533408 -1.350994 -0.80834407 -1.5879468 -0.863093 -1.4456818 0.5667653 -1.2622046
-1.5343108 -0.87551457 0.79059887 -1.1783788 -1.6258762 -1.4737824 0.1490246 3.0049696

batchnorm2.running_var f4 [16]
00000000: e4bd 8540 b072 e73f f21d 6940 d1e7 0f40
00000010: d5fc 5a40 b791 3540 3a98 8640 1449 7840
00000020: bd7d 4a40 d350 8340 6927 7440 a482 5b40
00000030: 96fc 4d40 f4f0 8140 4a03 0640 37de 7040
4.17943 1.8081875 3.6424527 2.248524 3.4216816 2.8370187 4.2060823 3.8794603
3.1639245 4.103616 3.8149054 3.4298487 3.2185416 4.060663 2.0939507 3.763563

linear1.weight f4 [100, 256]
00000000: 875b ef3d 2c75 1abd d37f 0abe 4b58 953d
00000010: ae55 4c3e 54b1 133e 8d47 3dbe b85b 5dbe
00000020: 856e 2e3e 2e39 c13d cde7 203e 4592 b63d
00000030: 1be0 723e aad9 7e3e 376f 9b3e 673f bbbd
00000040: 2a48 36be b7ca a5be a473 81be b3ad e7bd
00000050: e796 44bd d543 77be df99 09be a83f a4be
00000060: cb2b 24bd 19e0 d53e 5740 8dbd 3e2b 2bbe
00000070: 005d 5bbe 915e 8c3e b55b 30be 93f2 113d
00000080: 50cd f53d 787f 8fbd db3e 703d 1cf8 8c3e
00000090: d84a c43d 1e2a 083e e160 c33d bc8e 883d
000000a0: 7e30 86bd fe04 85bc 8251 463e cc7e d8bd
000000b0: 3f28 e4bd c56d febd 8b3e 1b3e 28c3 5bbe
000000c0: 6aae 983d 088e c63c 4076 e93b 7348 243e
000000d0: 5960 3b3c feda d13d fd33 073c 72a8 0dbb
000000e0: 3475 57bd 3461 aebd b8bd 10bc 8b5a d9bd
000000f0: 90aa 56be 1bf9 133e 9474 193d 6132 843e
00000100: 2718 303c 2d96 4a3e 8ec1 4bbd 7604 91bd
00000110: e7cb ccbd 6cb3 d4bd 85cd 203e b204 b63d
00000120: 7d8e f4be 37a6 40be 6862 d0bd d846 09bd
00000130: 7a9f a43d 15b0 963e 3b11 be3e 6918 953e
00000140: e851 7abd e0f3 453c f9e9 30bb 9275 e1bc
00000150: e387 613d 9ace 3e3c 463d bd3e df96 e53e
00000160: 2417 3fbd 4f56 903d 99a5 503d 43bf 103e
00000170: cb88 a6bd 9cff 2d3e f733 8c3e 4451 fb3c
00000180: 85d7 f93d a7d4 d83d cdc8 b43e acc4 653d
00000190: 9edb a33d 2123 12bd e5d1 d9bd 851b 4c3c
000001a0: 060d 163d 13bf 59bc fe45 86be ca49 57bd
000001b0: a061 5d3e 7322 1b3d 4bc6 3d3e 3e09 9f3d
000001c0: 921f 88bd e3ce 69bc 6bf9 77bd 01ed 0e3e
000001d0: 066e 8c3e 90bf c5bd bf34 af3d a1df ed3d
000001e0: ea6c 4e3e d6d5 a2bd 6e48 91bd f849 73be
000001f0: 2b0f 37be de47 09be 2cc6 6d3c fb1d 89bd
00000200: 65e3 d43a ae2d 4cbe 7a7f d9ba bfa4 a3bd
00000210: 3022 a53d 1b75 35bd 8f92 b8bd f14d b4bd
00000220: 9939 0c3e 23ad 363e cead 91bd fdeb e4bc
00000230: dfec d13e a597 5a3e 4504 083d 470a 7e3d
00000240: befb 333e 963d aa3d fbb8 063e 8076 b6bd
00000250: 76d7 d23b 8d65 1fbc da3e b43d 0ef6 9abd
00000260: 172e 4dbc 5743 613e 65a9 0dbe f1d1 83bd
00000270: 79a9 c33c 71e1 6fbe 3263 663d 2062 92bd
00000280: b088 4c3e 14f8 8a3d 70ad 983e c40b 7f3e
00000290: 9ed3 02be 2b40 89bd 77ac 183e b204 20bd
000002a0: a12d d7bd 8993 31be 13f4 2d3c b0a7 903d
000002b0: d4f3 35be f8c3 90be b521 6bbe f909 25bb
000002c0: b6ab 953c 7028 303e 640b 28bc 5ed2 873e
000002d0: faf0 793e c4a5 da3d f025 fabc 5833 20bd
000002e0: e81e d43d a464 94bd ce84 b43d f3e3 393c
000002f0: a124 d9bd 21e3 f9bd 7fd7 b8bc dafc 2c3e
00000300: 96ab d63c 6d30 a2bd 5300 0ebe 7465 19be
00000310: df6a 483e 5cb7 6b3e c153 b0bc 79d2 553e
00000320: cf36 483e b965 013e 4b7d c73e 3f2d 8f3e
00000330: 1c9b cc3d f4e1 103d 4fe3 05bc 6003 103e
00000340: 9291 803e f581 05be ee3d 41bd 4145 843c
00000350: f34b fe3d c189 28be ef6c 4fbe efd8 a6bd
00000360: 1aa2 633d efb5 273e 8c5a 40bc f1da 873e
00000370: ffa5 103e 1c0b e53e 1c76 923d 4668 2ebc
00000380: 4ff0 2f3d 0f02 97bc d492 06bd 9bd9 503e
00000390: 15bf 2b3e 9d84 32be dc5e a7bd b1af 293d
000003a0: 0b39 ef3c a394 8fbb 1c36 fcbd c0fe 8b3b
000003b0: cda9 a73c af4a cebd 8f15 ea3d 4b11 103c
000003c0: 9323 073e c701 ec3c 5547 023d d2a3 793e
000003d0: a68d 7fbe 137a 083e 047b 59bd dd3e f63d
000003e0: e335 85be ae24 69be b44d 25bc 7d4d 153e
000003f0: 992a 89be 7390 08be d866 093e b3f3 08be
0.11687379 -0.0377094 -0.13525324 0.07292231 0.19954559 0.14423114 -0.18484326 -0.21617019
0.17034347 0.09434734 0.15713425 0.089146174 0.23718302 0.2488772 0.30358288 -0.091429524
-0.17800966 -0.32381222 -0.2528354 -0.11312427 -0.047995474 -0.2414697 -0.13437603 -0.32079816
-0.040080827 0.41772535 -0.068970375 -0.16715714 -0.21422195 0.27415898 -0.17222483 0.035631727
0.12002051 -0.070067346 0.058653694 0.27533042 0.09584588 0.13297316 0.095399626 0.066678494
-0.06552218 -0.016237732 0.1936703 -0.105710596 -0.11140489 -0.124232806 0.15160577 -0.21461165
0.07455142 0.024237648 0.007124692 0.16043262 0.011436545 0.102468476 0.008252141 -0.0021615294
-0.052602008 -0.08514634 -0.008834295 -0.10612973 -0.20963502 0.14450495 0.037464693 0.25819686
0.010747946 0.1978385 -0.049745135 -0.07080929 -0.09999829 -0.103857845 0.157034 0.08887614
-0.4776496 -0.18813406 -0.101750195 -0.033514827 0.0803823 0.29431215 0.3712252 0.29120186
-0.061113268 0.01208207 -0.0026994927 -0.027521882 0.055061232 0.011645937 0.3696081 0.44841668
-0.046652928 0.07047712 0.050939176 0.1413546 -0.0813156 0.16992038 0.27383396 0.030678399
0.1219931 0.10587435 0.3530945 0.056095764 0.08000873 -0.035678033 -0.10635737 0.012457733
0.036633514 -0.013290185 -0.26225275 -0.052560605 0.21619272 0.03787465 0.18532674 0.07765435
-0.066466466 -0.014270517 -0.060540598 0.13957597 0.2742769 -0.09655678 0.085549824 0.116149195
0.20158735 -0.07950942 -0.07093893 -0.23758686 -0.1787688 -0.13406321 0.01451258 -0.066951714
0.0016242085 -0.199393 -0.0016593777 -0.07990407 0.080631614 -0.044301134 -0.09012329 -0.08803929
0.13693847 0.17839484 -0.07113229 -0.02794456 0.4100103 0.2134691 0.033207197 0.06202152
0.17576501 0.08312528 0.13156502 -0.08909321 0.0064343764 -0.009728801 0.088010505 -0.075664625
-0.012523196 0.21998344 -0.1383415 -0.064365275 0.023884522 -0.23425843 0.056246944 -0.07147622
0.19974017 0.067855984 0.29819822 0.24906832 -0.12776038 -0.06701692 0.1490954 -0.039066978
-0.1050675 -0.17341436 0.010617274 0.07063234 -0.17768794 -0.28274512 -0.22962077 -0.0025182946
0.018270355 0.17202926 -0.010256622 0.26527685 0.24408332 0.106761485 -0.030535668 -0.039111465
0.103574574 -0.07245758 0.08814393 0.011345851 -0.106026895 -0.122015245 -0.022563694 0.1689333
0.026204865 -0.07919393 -0.13867311 -0.14980108 0.19572018 0.23019165 -0.021524312 0.2088107
0.19552158 0.1263646 0.38962778 0.27964208 0.09990522 0.035371736 -0.00817187 0.14063787
0.2511106 -0.13037856 -0.0471782 0.016146304 0.1241683 -0.16458799 -0.20256399 -0.081468455
0.055574514 0.16377996 -0.011740338 0.26534227 0.14125822 0.44735038 0.07151434 -0.010644978
0.042953786 -0.018433599 -0.03285487 0.2039551 0.16772111 -0.174334 -0.0817239 0.041427318
0.029202005 -0.0043817325 -0.12315008 0.004272312 0.02046671 -0.100728385 0.11429893 0.008793185
0.13197164 0.028809441 0.03180631 0.24378899 -0.24956378 0.13327818 -0.053095832 0.12023709
-0.26017675 -0.22767898 -0.010089327 0.1458034 -0.26790312 -0.13336353 0.13418138 -0.13374214

linear1.bias f4 [100]
00000000: ad06 2fbd 879e 713d 46fa ffbb 407d 923d
00000010: d1b3 823d d45e 7a3c f5e0 95bd eaa9 adbc
00000020: 76d9 da3b 0198 ba39 9741 65bc 78b9 123d
00000030: 5492 13bc 9a02 83bd 3194 283d 0b98 5dbc
00000040: f467 373d 6fd9 103a 2d06 043c 197e 4cbc
00000050: a924 223c 02c6 a2bd 2b56 28bd 2b08 a13d
00000060: ac14 5d3d f8e8 a13d 5d50 e03b 3463 a73d
00000070: c1c0 3abe 999d 9dbd 8c10 123e 0be0 e3bd
00000080: 7c41 313d 1559 84bd d31e 6a3d a0cf 1f3d
00000090: cba1 8fbc 0828 6d3d 12e2 663c dedc 0e3d
000000a0: 4a2b fbbc e60e 703c f8d8 383d 59f1 4fbc
000000b0: 85ad a73c bb7d 783c 8596 22bc 0733 983d
000000c0: 57bd 34bd 1ead 873d c4be c4bd cadc b53c
000000d0: c847 413d 7e74 d1bd ff0d 393c 3b1e 113d
000000e0: 8efa abbb 1b13 61bd 96e7 6fbc fc08 bc3c
000000f0: 23b2 b03d d28b 26be ab74 65ba 49fc b93d
00000100: 3a46 c23d ab25 80bd 348b fd3b 2ac8 0cbd
00000110: c4ca 15bd 86a7 09be 3b4e 993d 81d9 fc3b
00000120: 5bf0 92bd 41f1 adbd 1a73 e03b 6431 9c3d
00000130: db1a aabd 4d5a 8bbc 7d78 1ebd 89f4 7ebd
00000140: d88b babd 88e1 20bd f7c7 54bd 986e c83c
00000150: 3b0b cbbc 088b b3bc c8c1 ea3c ca96 a23d
00000160: 6eff 95bd 5099 b0bc 0d68 983d 476d 953c
00000170: 43ee a23d b7b0 bc3b f00f 203e 3c40 13bd
00000180: c7be fc3c 36c6 b63c 1d68 0b3d 824b 863d
-0.042730976 0.058989074 -0.0078118173 0.07152796 0.063819535 0.015281398 -0.07318298 -0.021199185
0.0066787554 0.00035589936 -0.013992689 0.035821408 -0.009007055 -0.063969806 0.04115695 -0.013525019
0.04477687 0.0005525564 0.008058113 -0.012481236 0.009896436 -0.07947923 -0.0410978 0.07862886
0.053974792 0.079057634 0.0068455175 0.08173218 -0.18237592 -0.07696075 0.14264125 -0.11126717
0.04327534 -0.064623035 0.057158303 0.039016366 -0.017533204 0.057899505 0.014091985 0.034878604
-0.03066029 0.01465199 0.045128793 -0.012691819 0.020468483 0.015166695 -0.009923582 0.07431608
-0.04412588 0.06624816 -0.09606698 0.022200007 0.047187597 -0.10227297 0.011294841 0.03542922
-0.0052483743 -0.05494986 -0.014642617 0.022953503 0.08627727 -0.16264275 -0.00087530416 0.09081323
0.09486051 -0.062571846 0.0077375416 -0.03437058 -0.036570325 -0.13442811 0.074856244 0.007716358
-0.071747504 -0.08493281 0.0068496587 0.07626608 -0.083059035 -0.017010832 -0.038689125 -0.062244926
-0.09108704 -0.039277583 -0.051948514 0.024466798 -0.024785629 -0.021916881 0.028656855 0.07938917
-0.0732411 -0.02155748 0.07441721 0.018240584 0.07955601 0.0057583707 0.1563108 -0.03594993
0.030852688 0.022311311 0.034034837 0.06557371

batchnorm3.weight f4 [100]
00000000: 6167 413f 676e 943f 7d56 2f3f 2654 873f
00000010: e43f f83e 5ca2 1d3f 06b0 8c3f 320e 543f
00000020: a5b3 103f 3a29 1b3f c3df 233f d0ee 7f3f
00000030: eb2a 523f af54 1b3f 2176 213f 5999 643f
00000040: 2318 4b3f 0871 c63e 205c aa3f 2418 7e3f
00000050: 6fa9 143f 9f97 b33f 7422 583f c148 833f
00000060: b5da a43f 73ce 5c3f f113 913f 1f16 1f3f
00000070: 088b 713f 759e 9b3f 2fde 833f 58a5 903f
00000080: 3487 973f 7998 ad3f 8c3e 043f 331e 5d3f
00000090: 60bb 243f 7967 0d3f 2567 633f 77f3 293f
000000a0: daec 4b3f d3e2 283f d91b 583f dc34 0a3f
000000b0: 5a0e 383f b8bc 0b3f c3c3 153f ddac 2f3f
000000c0: 7f9d 3d3f a555 413f 70fc 9c3f 9712 1d3f
000000d0: fcf3 033f 6766 903f c5aa 293f fcf6 a43f
000000e0: b9bc e23e f81f ac3f f311 9d3f 320e de3e
000000f0: 17d5 563f 55d0 ba3f fdb2 993f 3c4f 473f
00000100: 737f a73f a5f6 a43f db79 3a3f 6ae8 8f3f
00000110: f2bd 5d3f c3a3 803f e2b6 853f 2351 903f
00000120: 9dea 013f c3f0 0e3f 5874 213f 218f 6e3f
00000130: fd19 8a3f c7ea 793f 40df d13e 1927 4a3f
00000140: f88d 093f 4f77 383f 7600 723f 0da9 e43e
00000150: d848 9fbc a7be f23e 4ca8 a63f cb24 6d3f
00000160: a8df ac3f ff9a 5a3f b23e 763f 6965 833f
00000170: c9c1 ce3e 664a 9e3f 544b 963f d737 593f
00000180: 0cde 5d3f f33e 083f 25b6 8a3f e44f 0f3f
0.7554837 1.1596192 0.68491346 1.0572555 0.48486245 0.61575866 1.0991218 0.8283416
0.56524116 0.6060978 0.6401331 0.99973774 0.8209674 0.6067609 0.63070875 0.8929649
0.79333705 0.3875811 1.3309364 0.99255586 0.58071035 1.4030646 0.8442757 1.0256578
1.2879244 0.86252517 1.1334211 0.6214313 0.9435277 1.2157732 1.030218 1.1300459
1.1838136 1.3562156 0.5165794 0.86374205 0.6434841 0.5523601 0.8882926 0.6638712
0.7965828 0.65971106 0.8441749 0.53986907 0.718969 0.54584837 0.58501834 0.68623143
0.74068445 0.7552131 1.2264538 0.6135649 0.51544166 1.1281251 0.662762 1.2887874
0.4428461 1.3447256 1.2271103 0.43370205 0.839189 1.4594828 1.2007748 0.7785528
1.308577 1.288777 0.72842187 1.1242802 0.8661796 1.0049976 1.0446436 1.1274761
0.50748616 0.55836123 0.6306815 0.9318715 1.0789181 0.97623867 0.4099064 0.7896591
0.5373225 0.7205705 0.94531953 0.44660226 -0.019443914 0.4741108 1.302011 0.92634267
1.3505754 0.85392755 0.96189415 1.0265323 0.4038222 1.2366455 1.1741738 0.8485083
0.8666694 0.5322105 1.0836836 0.5598128

batchnorm3.bias f4 [100]
00000000: 9b14 813e 606b 8f3e 9f18 333e 664e 9f3d
00000010: 769a 723e 4b25 6c3e 9f7c 753e 97d5 ce3d
00000020: cf5e 813e caab 423e 7a50 603e 29bd 5b3e
00000030: 053a 303e 9c99 313e 7b8c 7a3e 6bac 823e
00000040: 32ee 9a3e c8f3 193e 4502 a33e ffa2 893e
00000050: 65ee 293e cb53 d53e 09a5 a43e 98b8 6d3e
00000060: 7a0c a33e cad7 383e 8839 643e f5e2 4e3e
00000070: a4e3 813e fb20 933e 88b3 8d3e 50de 873e
00000080: 7380 733e 4193 353e 691e 763e 4fd5 7a3e
00000090: 93fa 893e 48df 3a3e fd37 213e adfb a03e
000000a0: 8fa9 453e 9ef8 573e c6f6 233e e9ef 583e
000000b0: e8c8 bf3e 982a 803e 00bb 013e 9926 0e3e
000000c0: 2f78 4d3e 7304 763e 946b 603e 7c0e 7c3e
000000d0: 3419 8b3e 86de 663e ec30 603e de96 413e
000000e0: c0d8 a23e 24c1 893e e60b ac3e 6e82 193e
000000f0: e39d 343e 84be a93e 63c0 5f3e 74ff 1a3e
00000100: c638 903e fe7b 9f3e f7a4 623e 86a7 543e
00000110: 1777 3a3e d89c 823d f448 9b3e 93d3 973e
00000120: 68b6 123e fdc0 6b3e f0fd a63e c433 263e
00000130: bffe 6c3e 51f8 8e3e 5da3 e83d 909f 003e
00000140: 1443 843e 0d26 403e d4fe a13e 65e3 cd3d
00000150: 361c 82bd ddc9 473e d990 473e f370 033e
00000160: b309 813e 8d9a 403e 799f 533e 6eba 723e
00000170: 5273 473e 5a11 1b3e ef3b 9d3e 8fed 7f3e
00000180: 806f 813e a77f 2f3e d08b 3c3e 83b6 853e
0.25211033 0.28011608 0.17489861 0.07778625 0.23691735 0.23061101 0.2397332 0.10099333
0.25267646 0.19010845 0.219057 0.21458878 0.17209633 0.17343754 0.24467652 0.2552217
0.30259854 0.15034401 0.3183767 0.2688217 0.16594847 0.4166549 0.32157162 0.23214948
0.31845456 0.18051067 0.22287571 0.20203765 0.2536899 0.287361 0.27676034 0.26536798
0.23779468 0.17731954 0.24035038 0.24495433 0.26948985 0.18249238 0.15744014 0.31442013
0.19302963 0.21090934 0.16012105 0.21185268 0.37457967 0.25032496 0.12668991 0.13881911
0.20065378 0.24025135 0.21916038 0.246149 0.27167666 0.22545823 0.21893662 0.18905208
0.31805992 0.26905167 0.33602828 0.14991161 0.17638354 0.33153164 0.21850733 0.1513651
0.28168315 0.31149286 0.22133242 0.2076703 0.18209492 0.06377572 0.30329096 0.29653606
0.14327395 0.23022838 0.32615614 0.16230685 0.23144053 0.27923825 0.11359284 0.12560868
0.25832427 0.18764515 0.3163973 0.10053138 -0.06353037 0.19510598 0.19488849 0.12836055
0.25202712 0.18808956 0.20666303 0.2370393 0.19477585 0.15143338 0.30709788 0.24992965
0.2528038 0.17138539 0.18412709 0.26115808

batchnorm3.running_mean f4 [100]
00000000: 3be4 2b3f 1c3e ba3e 365a ea3d 576c 0cbd
00000010: 2c11 17be 4c46 72be f198 afbe ca20 9c3e
00000020: 6954 1e3f 955c 603c 8bc7 23bf 3dc9 69be
00000030: 63a9 fbbd 6243 5ebf 226c 1cbf 1e45 23bf
00000040: 700f 4fbf fe12 e13e 9adf bbbe 0f43 3a3e
00000050: ace5 9bbd 64f9 b03f 5460 60bf b658 60be
00000060: abcb 4b3f 4882 b1be 6798 a7bd 7883 083f
00000070: fcdb e2be f12c a5be b055 8e3d 6cf8 7abf
00000080: 23c4 78be 1aed be3e b048 9fbe 9972 d9bd
00000090: a1cf 65bd fc1e 94bd 69d0 7c3c 6e8a 693f
000000a0: ab55 d3be c6c9 47bd 6c4d 403e 93a4 4bbe
000000b0: 916f f7bd 46f3 a0bf 0077 ebbe 153d 4abf
000000c0: e061 02bf 3e3b cfbd 0249 30bf 0fde 2fbe
000000d0: 56fc 93be 7664 c33e 9a32 c13d a0e5 d23e
000000e0: 32b5 e63e 3322 cabe 1e96 dabd 180b 6c3e
000000f0: 2644 80be a99b 2ebe 3cee 433f 6300 7dbb
00000100: 50b2 3dbe 2417 06bf 77bb 733e 0e20 a73e
00000110: 9282 f83d 9397 b53f 1544 eebb 3596 803f
00000120: a5bc 053e f615 08bf 747c 79bf ea55 cc3c
00000130: 50cc 1fbf d0c5 8cbe b4e3 f0be b229 88be
00000140: 3acb 703f 5a24 bfbf b10d 313e b6c8 4b3e
00000150: 0021 483f baf2 ed3e 216a 29bf c703 b03f
00000160: e24e 29be d2b4 143f bebf 403e b0e1 22bf
00000170: 084d 74be abc5 debe a425 f43e 16db 0f3f
00000180: eaa1 23bf 9c94 bebe 99a6 0d3f f4f1 413f
0.6714513 0.3637551 0.114429876 -0.03428301 -0.14752644 -0.23659629 -0.34296373 0.30493766
0.6184755 0.013693948 -0.63976353 -0.22830673 -0.12288167 -0.8682157 -0.611025 -0.6377734
-0.8088293 0.43959802 -0.36694032 0.18189643 -0.07612166 1.3826108 -0.87646985 -0.2190884
0.7960765 -0.3466971 -0.08183365 0.53325605 -0.4430846 -0.3226085 0.06949937 -0.9803531
-0.2429357 0.3729027 -0.31110144 -0.10617561 -0.056106213 -0.07232472 0.015430548 0.9122685
-0.41276297 -0.04877641 0.18779534 -0.19886999 -0.120818265 -1.2574241 -0.45989227 -0.78999454
-0.50930595 -0.101187214 -0.688614 -0.17174552 -0.28903455 0.38162583 0.094334796 0.41190815
0.45060116 -0.39479217 -0.10673164 0.23051107 -0.25051993 -0.17051567 0.7653539 -0.0038604967
-0.18525052 -0.5237906 0.23801981 0.32641643 0.12134279 1.4186882 -0.0072712996 1.004584
0.13060243 -0.5315851 -0.97455525 0.02494331 -0.6242113 -0.2749467 -0.47048724 -0.2659431
0.940601 -1.4932969 0.17290379 0.19900784 0.78175354 0.46474248 -0.66177565 1.3751153
-0.16533998 0.5808841 0.18823144 -0.6362562 -0.2385751 -0.43510184 0.47684968 0.56193674
-0.63918936 -0.37222755 0.5533233 0.75759816

batchnorm3.running_var f4 [100]
00000000: ddd8 b23f b2f6 9e3f 5afa 9d3f 5977 c03f
00000010: 36c1 aa3f 9e21 2a3f 6a63 f83f ae92 bb3f
00000020: e385 8c3f 6798 0d40 0eae 843f cd3b 713f
00000030: 1e47 653f 06a9 1f3f 2f5e 0340 713b 993f
00000040: 862d 963f a440 5f3f 4dfb 0b40 895c 8f3f
00000050: a691 b73f e780 283f 4c3e 933f 342c 1740
00000060: 4e8b 943f d7c5 5a3f e8d5 bc3f 074c 833f
00000070: d420 493f 18e9 bb3f d108 413f 8572 af3f
00000080: ad67 783f 76a3 9d3f 45cf 913f 3fd5 5d3f
00000090: 0c41 bb3f 518a 673f de23 ad3f ed1e bc3f
000000a0: 98b7 ad3f 0fe9 a03f 5b22 893f 0ae6 963f
000000b0: 9325 753f f512 873f d376 703f 9b24 663f
000000c0: 758f 5c3f 1f1d 8b3f 4e8c 673f 87cb 8e3f
000000d0: 42ce 943f 9467 bf3f 0393 0b40 b256 9a3f
000000e0: ae40 cf3f 09cb b73f 86a1 aa3f d4cc a43f
000000f0: 7a37 443f 04d3 923f fc41 0040 3a11 e23f
00000100: 4757 893f 7b92 893f 77f4 933f 2ca1 6b3f
00000110: 17ae c13f c971 653f 290b 803f fd43 be3f
00000120: 44f9 5b3f 2321 ab3f e0fe a73f 5d06 643f
00000130: 5162 573f fbe7 2d3f fab8 5f3f 6daf af3f
00000140: c5db 443f 83c3 503f 5231 d63f 63fa ca3f
00000150: 9111 743e c7b4 5a3f 0ada 813f 9806 db3f
00000160: e04c 173f d28a 8e3f 4360 833f 7a1f 7f3f
00000170: 1372 bf3f c1a9 5e3f c450 a33f 2533 833f
00000180: bbf8 993f d4bf 953f cabc a13f c842 7e3f
1.3972431 1.2419035 1.2342026 1.5036422 1.3340213 0.66457546 1.9405339 1.4654138
1.0978359 2.212427 1.0365617 0.94231874 0.8956164 0.62367284 2.0526235 1.1971265
1.1732643 0.8720801 2.1872132 1.1200114 1.4341323 0.6582169 1.1503386 2.362073
1.1605012 0.8545813 1.4752779 1.0257577 0.78565717 1.468051 0.7540408 1.3706824
0.97033197 1.2315509 1.1391379 0.8665351 1.4629226 0.9044543 1.3526571 1.4696938
1.3571653 1.2571124 1.071361 1.1788952 0.9576046 1.055266 0.9393131 0.89899606
0.861564 1.0868262 0.9044846 1.1155862 1.1625445 1.4953485 2.180848 1.2057707
1.6191614 1.4358836 1.3330543 1.2875009 0.7664715 1.1470647 2.0040274 1.7661507
1.072976 1.0747827 1.155898 0.92042804 1.5131253 0.8962675 1.0003406 1.4864498
0.85927224 1.3369488 1.3124657 0.8907221 0.84134394 0.679321 0.87391627 1.3725411
0.7689784 0.8154833 1.6733801 1.5857662 0.23834826 0.85432094 1.0144665 1.7111387
0.59101677 1.1136115 1.0263752 0.99657404 1.4956688 0.86977774 1.2759023 1.0249983
1.2029032 1.1699166 1.2635739 0.9932065

linear2.weight f4 [10, 100]
00000000: ad7e 383e 217e 5c3e a405 8dbc 35a3 03bf
00000010: fdcc b7be bf8c 0cbf 382d 16bf 1e1c 9dbe
00000020: a08d b4be 2a38 fbbe cbea e8be 0798 90be
00000030: e08f 163d 2b74 94be e6d9 f23d 34e6 d3be
00000040: 50ef b0be 7571 99be a955 ddbe bcf6 d73e
00000050: 220b 24bf 17ee 383e 1b04 8b3e 986c d3be
00000060: 9a29 a43e 1ceb a43e e7df 8a3e f346 83bd
00000070: f524 cf3e 0247 313e 94e3 173d adb2 bf3e
00000080: 33f1 25bf 93d6 c4be 3a54 283e b46f b6be
00000090: 52f6 e9be 4bfc 94be 68d0 783e ab81 f43d
000000a0: ba76 773e df9e b23e 5c43 8cbd 3a4d 06bf
000000b0: a8f3 a13e 22f1 6dbe 036c 7bbe 0777 d63e
000000c0: 51dc bebe 2133 e0be d6a2 adbe 0806 89be
000000d0: 812e 09bf e753 da3d 8445 2fbf 6934 f1be
000000e0: 69dd 163e eaf8 2f3b 8135 98be bd03 a5be
000000f0: ef0a 00bf c8d9 9d3e 66c4 293e a4dc d3be
00000100: e214 b7be 0d20 853e 2f3e b13e 4364 abbe
00000110: 5627 a2bd e400 b3be 159c 69be 39a9 25bd
00000120: 512a 59be 7799 b63e f4a6 2dbf 8a6d a8bd
00000130: b16c 79be 75ae bcbe b00c bfbd 586f 1abd
00000140: 6659 7fbe 22b3 81be 98fc 4e3e 603a e23e
00000150: 3e6a 0ebd 7cd9 05bf 7162 acbe 49ae 94bd
00000160: 5fb3 30be 9914 9cbd 6b74 b3be 1df2 02bf
00000170: 5e68 0fbe a9b5 5dbe a99b 82bd c474 25be
00000180: 5c94 97be 2d27 83be b9b0 913e 1d3f 45be
00000190: 38a6 72be 9531 27be 1350 27bf 79f2 3d3e
000001a0: 76a7 a13e fa35 2ebe 6249 fabe 2227 f13b
000001b0: 14b0 f4be 591a 803e 309c 24bf b353 b0be
000001c0: 618d 1f3d d3a3 6fbe 7e8e 5bbe d8d9 3bbf
000001d0: 3412 0ebf 2c4c 873d a86f 4e3e a7eb 8fbe
000001e0: de73 edbe 7fbb 05bf eb59 aebe 6e1f 873e
000001f0: e509 0ebf 4a39 94be ac2a aebe 94e7 27be
00000200: 911c 83be cab2 dfbd 6d88 683e 1f09 e2be
00000210: 4c27 d9be 9c3b 88be a27e bebd 9cbd cbbe
00000220: b677 a73e e826 b53e 9b0b aabd bbd3 d8be
00000230: 9fa0 5ebe c18c 97be 76d7 cdbe ecdf 91be
00000240: 21c4 c5be 2922 39bf 6187 a9be 9ed2 09bf
00000250: 2703 563e 1493 ffbe ba50 d6be c22b e6be
00000260: 5b44 6b3e 81d7 b5bc e589 02be 7eea 08bf
00000270: dcf9 f2bc 3e3b 1bbf 9cf1 7c3e 271a a33e
00000280: 5918 d6be 0500 a2be 9168 d1be 20d4 02bf
00000290: 119a 6f3e 171a 873d 0c70 bdbe 2cb1 04bf
000002a0: 5359 1ebf fc50 143e 801d 28bf 4b86 9a3e
000002b0: 45cf ab3d ce74 7abe 465d 07bf 691c 8ebe
000002c0: 4752 943e 3fee 433e 0ae6 a6be cafb f7be
000002d0: f13a 383e 9221 243e fd67 0ebf 2595 9ebe
000002e0: 19ec 05bd 06df 5ebd 462a 443e 7362 bb3e
000002f0: ba66 4e3e 955c 773e f000 583e 8fa8 8d3e
00000300: b51a 10bf e8d8 883e dc17 e4be e233 3bbf
00000310: 1705 2e3d aa62 8cbd cafc a93d bc62 51bf
00000320: 50bc 4e3e 660f dbbe e0a3 20be ec63 a4be
00000330: a33f 08be 4897 b7bd cb20 6f3e b981 b1be
00000340: 1c9e 073e 377a 16bf 4e5e 1abf e39b cc3d
00000350: d92a d8be 7681 523e a323 b03e 3630 d53d
00000360: 9762 8bbe 71a2 b3bd c193 f5be 456d 18bf
00000370: 7110 403c 8f63 7cbe a888 6fbe 5b46 93be
00000380: e904 d2be ef5b 9cbe 2e66 973a 1275 f8be
00000390: 992f afbe f61f f43b 1ec2 ae3e 368a 8bbe
000003a0: 489f 6d3e 44d7 aabe 103d fc3d 1c17 a33d
000003b0: ecff 983e 1358 703d fc17 69bd 05af ac3e
000003c0: b850 9f3e e2ca babe 7432 dabe a242 be3e
000003d0: 759e ccbe ae58 b8be e8ed d5be d953 8dbe
000003e0: 40e6 123e e8af 43be 013c a2be 7e02 5c3e
000003f0: cc28 0abe f014 a8be c047 f3be 76aa 6a3e
0.18017073 0.2153249 -0.017214604 -0.5142091 -0.3589858 -0.5490226 -0.5866275 -0.30685514
-0.352643 -0.49066287 -0.45491633 -0.28240988 0.036758304 -0.2899488 0.11857967 -0.4138657
-0.3455758 -0.29969373 -0.43229416 0.4218043 -0.6407949 0.18059574 0.2715157 -0.41293788
0.3206299 0.32210624 0.2712395 -0.06410017 0.40457883 0.17312244 0.03708227 0.37441006
-0.64821166 -0.38444957 0.1643838 -0.35632098 -0.4569574 -0.29098734 0.2429825 0.11938795
0.24166384 0.34886834 -0.06848785 -0.5246159 0.31631207 -0.23236516 -0.24552922 0.41887686
-0.37277463 -0.43789008 -0.33913296 -0.26762414 -0.53586584 0.10660534 -0.6846545 -0.47110298
0.14732899 0.0026851245 -0.2972832 -0.32229415 -0.50016683 0.30830216 0.16578826 -0.41379273
-0.3575812 0.26001015 0.34617755 -0.3347493 -0.07917659 -0.34961617 -0.22813447 -0.040444586
-0.21207549 0.3566396 -0.67832875 -0.08224018 -0.24357869 -0.3685185 -0.09328592 -0.037703842
-0.24936447 -0.2533198 0.20213544 0.44185162 -0.03476929 -0.5228498 -0.33668855 -0.07259805
-0.17255925 -0.07621116 -0.35049757 -0.51150686 -0.14004657 -0.21651329 -0.06377346 -0.16157824
-0.29605377 -0.25615826 0.2845514 -0.19262357 -0.2369622 -0.16327508 -0.6535656 0.18549527
0.31573075 -0.17012778 -0.48884112 0.0073594013 -0.47790587 0.25020102 -0.64300823 -0.34438857
0.03895319 -0.23402338 -0.21441075 -0.7337928 -0.55496526 0.066063255 0.20159781 -0.28109476
-0.46377462 -0.5223922 -0.34052977 0.26391166 -0.5548385 -0.28949958 -0.3401693 -0.16396934
-0.25607732 -0.10922773 0.22708292 -0.44147584 -0.42412794 -0.26607978 -0.09301497 -0.39793098
0.3270852 0.35381246 -0.08302995 -0.42349038 -0.2174096 -0.29599574 -0.40203446 -0.2849115
-0.38626197 -0.7231775 -0.33111098 -0.53837 0.2089964 -0.499169 -0.41858464 -0.4495526
0.22975294 -0.022197487 -0.12747915 -0.53482807 -0.029660158 -0.6063727 0.24701542 0.3185589
-0.4181545 -0.3164064 -0.4090009 -0.5110493 0.23398615 0.06596773 -0.36999547 -0.5183284
-0.6185505 0.14484018 -0.65670013 0.30180582 0.08389143 -0.2445862 -0.528767 -0.2775605
0.28969023 0.19133852 -0.3259738 -0.48434287 0.17991234 0.16028431 -0.55627424 -0.30973163
-0.032695863 -0.05441191 0.19156751 0.36598548 0.20156375 0.24156411 0.21094108 0.27667663
-0.5629075 0.26727986 -0.44549453 -0.7312604 0.042485323 -0.06854756 0.08300169 -0.8179128
0.20189023 -0.42785186 -0.15687513 -0.32107484 -0.13305525 -0.089644015 0.23352353 -0.34669283
0.13243908 -0.58780235 -0.6030015 0.099906705 -0.4222019 0.20557198 0.3440219 0.10409586
-0.27223656 -0.087712176 -0.4796429 -0.5954173 0.01172267 -0.24647354 -0.23391974 -0.28764614
-0.4101937 -0.3053889 0.0011550838 -0.48526818 -0.34216002 0.007450099 0.34132475 -0.27253884
0.23205292 -0.3336736 0.12316334 0.07963392 0.29882753 0.058677744 -0.05690764 0.3372728
0.3111627 -0.36482912 -0.42616618 0.37160212 -0.39964643 -0.36005157 -0.4178307 -0.27603033
0.14345646 -0.19110072 -0.31686404 0.21485326 -0.13492125 -0.32828474 -0.47515678 0.22916588

linear2.bias f4 [10]
00000000: 350e 57be 252a a13d 0331 97bd b6b6 673d
00000010: ed7f 1b3c b9ac cc3d 5024 dbbd db00 d5bd
00000020: 6b13 a73d 2b91 223e
-0.21001513 0.078693666 -0.07382395 0.05657073 0.009490949 0.09993882 -0.107002854 -0.10400554
0.081580006 0.1587569
