research/differential_privacy/multiple_teachers/checkpoint/mnist_10_teachers_9.pth (torch_old, 139301 bytes, 20 tensors)

conv1.weight f4 [16, 1, 5, 5]
000000 cf e3 57 be c6 26 9d bb dd 4e 4d be 08 54 f8 bd
       -0.21082996 -0.004795882 -0.20049615 -0.12125403
000010 9c 51 a3 be fa f5 f7 bd 79 14 08 3e 33 73 4f bc
       -0.318982 -0.12107463 0.1328906 -0.012661743
000020 27 db f1 bd b9 23 d4 be e1 12 e9 3d 02 7b 33 3e
       -0.11809378 -0.41433504 0.11380554 0.17527393
000030 27 09 90 be e1 e2 ca be 1b eb 80 be f3 57 02 3e
       -0.28131983 -0.3962622 -0.2517937 0.12728862
000040 49 a7 8c 3e 4d fb 2a bd 8b 0f b6 3d 9b 3a ab bd
       0.27471378 -0.041743565 0.08889683 -0.083607875
000050 84 3e 8a bd 65 6c b9 3e 47 1f 42 3e 98 0e 1a bd
       -0.06750205 0.3621551 0.18957244 -0.037611574
000060 48 7d 99 3e f4 b3 1b be 7d d2 d9 bd 11 13 b1 3d
       0.29978395 -0.15205365 -0.106358506 0.08646215
000070 6a bb 9c 3e 1b 75 10 3f 5b 64 8b bd 35 64 5d be
       0.30611736 0.5642869 -0.06806251 -0.21620257
000080 2a 47 6b be 29 11 93 be 67 ae ef be d5 f9 e5 3d
       -0.22976366 -0.2872403 -0.46812746 0.11229292
000090 93 9e 88 bd f6 f8 a8 be 57 15 e3 be 75 01 8d be
       -0.06670871 -0.33002442 -0.44352219 -0.27540174
0000a0 88 36 91 be 46 5e b9 be 1c 33 87 bd 9b 1f 9a bd
       -0.28361917 -0.36204737 -0.06601545 -0.075255595
0000b0 87 b3 8f 3c 92 5b ae bd 6c e3 49 3e 23 a6 b2 3e
       0.01754166 -0.085135594 0.19715661 0.34892377
0000c0 36 13 a4 3e 76 d6 e0 3c d6 88 ca bd 36 c4 7b 3d
       0.32045907 0.027446013 -0.09889381 0.06146642
0000d0 d5 e6 15 3e 4a fb 91 bc 1f 8f b0 3d ff a1 2a 3e
       0.14638837 -0.01782002 0.08621048 0.16663359
0000e0 f0 ca ff 3d 79 d5 bc 3d 99 ac 98 3e 2b c6 e7 3e
       0.12489879 0.09220404 0.29819182 0.45268378
0000f0 a9 b8 3d 3e 85 c9 90 3e 23 83 ef 3e f6 5a 64 3e
       0.18527474 0.28278747 0.46779737 0.22300324
000100 1e e4 93 3e b7 60 28 be 28 bc 77 bc a8 21 9e bd
       0.28884977 -0.16443144 -0.015120544 -0.07721263
000110 43 d0 5b 3e 31 3b 18 be 89 0d 5d be e1 20 b7 be
       0.21466164 -0.1486633 -0.21587195 -0.35767272
000120 57 2c a5 be 34 ce 9f be a0 00 aa be 47 fe cb 3d
       -0.3226039 -0.31212008 -0.33203602 0.09960609
000130 ba ca e4 3d e3 bb 03 bc d7 a9 6d be 94 88 0c bf
       0.111714795 -0.008040401 -0.2320932 -0.548959
000140 51 0b aa bd 4d 41 48 be 8b f8 af be a6 55 dd be
       -0.0830294 -0.1955616 -0.3436931 -0.43229407
000150 57 61 e4 bd 57 a8 10 be 9e 77 22 be cc 38 19 bf
       -0.111513786 -0.14126717 -0.15865943 -0.5985229
000160 0c 38 6d be d1 c5 b1 3e f6 31 09 3e 41 cc 6f be
       -0.23165911 0.34721234 0.13397965 -0.2341776
000170 9a 7e c8 be 01 05 ac be 16 4d 4f 3e 94 4f 4d 3e
       -0.3915909 -0.33597568 0.2024425 0.20049888
000180 68 b7 01 be 69 8a cf be ff 57 cf be 72 af 8f 3e
       -0.1266762 -0.40535286 -0.40496823 0.28063542
000190 34 3d 5c be 85 7d 91 be 7a 91 3e bd 61 e4 75 be
       -0.21507722 -0.28416076 -0.046525456 -0.24012901
0001a0 3b 84 d8 be 0e ed 0b bf 08 4f dc be 69 e8 1c bf
       -0.42288384 -0.5465859 -0.43029046 -0.6129213
0001b0 aa 5e 05 bf c2 ac e5 be d1 6a 97 bd f7 fe c4 bd
       -0.5209757 -0.44858366 -0.073934205 -0.09618943
0001c0 56 0c 02 bd bc 08 82 3d 85 d6 79 bd 18 74 86 3d
       -0.031750046 0.06349322 -0.060995597 0.06565112
0001d0 b0 99 60 3e 3c 18 2a bc 67 28 66 bc c2 97 8e 3e
       0.21933627 -0.0103817545 -0.014047719 0.27850157
0001e0 c0 4f 06 3e 16 4b 25 be d5 89 98 3d d9 c9 29 3e
       0.1311636 -0.16141924 0.074481644 0.16580905
0001f0 b6 b2 07 3e 3f b5 01 3b ce 94 14 3e 80 4e 45 3e
       0.13251767 0.001979187 0.1450989 0.19268227
000200 4f 14 d7 bd 4c 93 b7 be 66 ae 3c 3c 90 97 4a 3d
       -0.105019204 -0.35854566 0.011516189 0.049460948
000210 7c d5 c3 3e 88 69 47 be 08 cb 90 be 0d c5 d2 be
       0.38248813 -0.1947385 -0.282799 -0.41165963
000220 dd af 2e 3e ef 7e c3 3e 77 30 5f 3e 43 4c c9 be
       0.17059274 0.3818278 0.21795832 -0.39315996
000230 29 02 00 be 6a 4b 84 bd 30 c9 b3 3e 72 13 51 3e
       -0.12500824 -0.064596966 0.3511443 0.20417574
000240 fd 22 10 be 1c a3 11 be e4 6d ca bd a0 5c 38 3e
       -0.14075847 -0.14222378 -0.09884241 0.18004084
000250 13 e3 ae 3e 4e a1 13 bc 26 c5 a7 3d 21 c1 7e 3d
       0.3415762 -0.009010626 0.081919 0.0621959
000260 e8 80 65 bd ac 5f cf bd bf af 17 be 9e 31 05 3d
       -0.056031138 -0.1012567 -0.14813136 0.03251802
000270 f7 76 db 3d f6 f4 6f 3e 5e 39 a6 3e bc de 54 3e
       0.1071605 0.23433289 0.32465643 0.20788091
000280 52 d4 48 be 18 b6 fc bc 0c f4 4b 3e c7 f8 f2 3d
       -0.19612244 -0.030848548 0.19917315 0.11863857
000290 14 ac 29 3e 1f 15 aa be 70 f4 13 be 83 40 a2 bc
       0.16569549 -0.3321924 -0.14448714 -0.019806152
0002a0 ea 32 5a be 87 b3 51 be d0 a9 90 be b2 33 85 be
       -0.21308485 -0.2047864 -0.28254557 -0.26016003
0002b0 6b 38 02 bf 0c a6 9d be c7 21 dc be 09 a1 62 bc
       -0.50867337 -0.30790746 -0.4299452 -0.013832339
0002c0 44 42 a7 bc 78 84 35 3e f5 fd 06 3d ba 74 01 3e
       -0.02041734 0.17726314 0.032957036 0.12642184
0002d0 a7 6d 5e be b4 e2 a7 3d 1f 40 a1 be 9e 74 7c 3d
       -0.21721517 0.08197537 -0.31494233 0.061634652
0002e0 e1 01 b5 be 81 ea e3 3d d3 dc f1 bd 7f c7 b8 bc
       -0.35352996 0.111287124 -0.11809697 -0.022556065
0002f0 07 e2 7c be 68 07 d7 bd d9 0d df be 2b 49 2e be
       -0.24695598 -0.104994595 -0.43565252 -0.17020099
000300 5b 30 87 be 33 eb 2d bc d2 03 e9 3d d9 ba 22 be
       -0.2640408 -0.010615158 0.11377682 -0.15891589
000310 b4 e4 f8 bd ff 85 d5 bd 83 e8 e3 3c 6b d4 bd 3b
       -0.12152997 -0.10425948 0.027820831 0.0057931445
000320 22 13 09 bf d3 53 b4 3d 88 f4 78 3e 0d b5 1f 3e
       -0.5354482 0.08805051 0.24312031 0.15596409
000330 05 9f 43 3e 09 f4 84 3b 2d 1f de 3e d3 ec 28 3e
       0.1910363 0.0040574116 0.4338316 0.16496591
000340 fb db 14 be 1b e5 04 be 1e 96 01 3e df ba 05 3e
       -0.14537041 -0.12978022 0.12654921 0.13059567
000350 c5 6a 1a be bf 6d 04 bf 01 a5 af be 25 4c 4e 3e
       -0.15079792 -0.5172996 -0.34305575 0.20146234
000360 f5 4a 87 be 53 89 ac be 5f 7c f2 bd 2a 7d 3a 3e
       -0.26424375 -0.3369852 -0.11840128 0.18211809
000370 69 de 2a be b6 84 1c bd c4 3e 9d 3d e9 02 81 3e
       -0.16686405 -0.0382125 0.07677987 0.25197533
000380 b4 3a 4e 3e 4b 8d 4c 3e 6f 1c 80 3e 82 57 23 3e
       0.20139581 0.19975774 0.25021693 0.1595135
000390 fd 2a 39 3e 3e 50 b3 3e 4a 68 e2 bc 28 eb 80 3d
       0.18082805 0.35022157 -0.02763762 0.062948525
0003a0 f8 0c 1d 3e 80 a4 96 3d ac f2 b5 3e 42 a8 2a be
       0.15336978 0.07355595 0.35536706 -0.16665748
0003b0 19 9e de 3c 0b d3 90 3d a3 94 63 3c 22 72 18 3e
       0.027174996 0.07071503 0.013890418 0.14887288
0003c0 ce bd 04 bf cc 85 df be b3 f3 a0 be fc 5d 01 be
       -0.5185212 -0.43656766 -0.31435928 -0.12633508
0003d0 cf 0f 35 3d 86 00 1d be 07 d3 5f be 1c 41 ed be
       0.04420453 -0.15332231 -0.21857844 -0.46338737
0003e0 ae 20 c3 be 45 49 5b be 39 c9 13 3d fa 6c 98 bd
       -0.3811087 -0.21414669 0.036080573 -0.07442661
0003f0 84 2d 1d be a5 a1 a2 3d d8 42 97 be 40 1a ed bd
       -0.15349394 0.079409875 -0.29543185 -0.115772724

conv1.bias f4 [16]
000000 70 1d 4f 3e 53 23 04 bd 51 02 cf 3d cc 2a a0 bd
       0.20226073 -0.03226025 0.10107864 -0.07820663
000010 22 dd 78 bd 87 37 df 3d 2d 34 64 3d f0 80 18 be
       -0.060757764 0.10899263 0.05571382 -0.14892936
000020 5a 5f cb bb 00 84 6f bd 64 5f 49 3e 0a 07 97 3d
       -0.006206435 -0.058475494 0.19665295 0.073743895
000030 61 f8 0b 3e 45 26 c4 bc f7 81 0d bd f6 d3 ca 3e
       0.13668968 -0.02394403 -0.034547772 0.39614838

batchnorm1.weight f4 [16]
000000 11 7a 03 3e 8f 61 af 3e aa bd 3b 3e 35 b5 48 3f
       0.12839533 0.3425412 0.1833407 0.784015
000010 d1 5c 27 3f d9 b9 b2 3e ac 24 65 3f 49 6c 69 3d
       0.65376 0.34907416 0.8950908 0.056988034
000020 0f c2 83 3f d4 05 5c 3f a0 3e 8d 3d 14 c3 18 3f
       1.0293597 0.85946393 0.068967104 0.59672666
000030 8a ec 2e 3f 81 d5 39 3f 13 78 82 3f 79 47 46 3f
       0.6832968 0.72591406 1.0192894 0.7745281

batchnorm1.bias f4 [16]
000000 93 2b 0c bf af c7 60 be f5 dc 0b be a8 ae c5 39
       -0.5475399 -0.21951173 -0.13658507 0.00037704897
000010 b0 cc 41 3d f8 43 c1 be 1a fc c9 bc 99 f1 58 be
       0.047314346 -0.3774717 -0.024656344 -0.21185912
000020 37 54 ac be 94 ce d1 3d 1c e1 e8 bd 8d 8c 4e be
       -0.33658 0.1024448 -0.11371061 -0.20170803
000030 50 c3 01 be 2e e4 a4 be 94 a2 12 be 92 75 01 bf
       -0.12672162 -0.32205337 -0.14319831 -0.50570023

batchnorm1.running_mean f4 [16]
000000 49 d5 25 c2 34 61 91 c2 c2 69 46 42 1b 79 27 c3
       -41.458286 -72.68985 49.60328 -167.47307
000010 0e 75 0e c3 23 3f 80 41 71 07 9d c2 1f ed b3 c2
       -142.45724 16.030828 -78.514534 -89.96313
000020 1b 20 61 c1 9d 42 2f c2 94 fb b9 c2 6e d6 db c1
       -14.070338 -43.815052 -92.99136 -27.479702
000030 92 85 52 c1 06 0c d1 c1 38 ca f2 c2 1e 51 b6 c1
       -13.15761 -26.13087 -121.39496 -22.789608

batchnorm1.running_var f4 [16]
000000 bc 7a 87 46 34 2e ae 46 67 74 d1 46 3e fe 94 47
       17341.367 22295.102 26810.201 76284.484
000010 4c e7 77 47 6a 90 1b 46 7a dc be 46 f2 9b 93 46
       63463.297 9956.104 24430.238 18893.973
000020 9f bd 0a 46 dc 85 00 47 be 36 7f 46 d7 f8 53 46
       8879.405 32901.86 16333.686 13566.21
000030 be 79 c8 46 79 5f aa 45 81 7e 55 47 a9 46 09 46
       25660.871 5451.934 54654.504 8785.665

conv2.weight f4 [16, 16, 5, 5]
000000 bf ff 5c be 63 50 97 bd b7 a0 ee bd 43 44 0f be
       -0.21581934 -0.073883794 -0.11651748 -0.13990884
000010 a5 d9 fa bd 62 73 ef 3b 26 8a d4 ba fe 7e 95 3b
       -0.12248544 0.007307456 -0.0016215488 0.004562258
000020 d8 d3 0e 3d 03 d1 bf bc 43 45 45 3e df e0 b2 bb
       0.03487 -0.023415094 0.19264702 -0.0054589356
000030 5a f6 26 3c a6 e8 4f 3d bf a5 b3 bd 31 29 d6 3d
       0.010190571 0.05075898 -0.08771848 0.104570754
000040 43 d9 9a 3c c0 d8 8a 3e 33 59 a1 3e 39 3c b4 3d
       0.018902427 0.27118492 0.31513366 0.08800549
000050 2c 55 d1 bd 70 88 4a 3e 1d 48 a6 3e b9 54 09 3f
       -0.10221323 0.1977861 0.32476893 0.536449
000060 e5 06 3e 3e c4 01 26 bd 73 48 b8 3e fe 9c 94 3e
       0.18557318 -0.040529028 0.35992774 0.29026026
000070 92 a3 c5 3e 80 7e 7d 3e 9a cb 51 3d ee 7a 20 3e
       0.38601357 0.24755287 0.05121956 0.15671894
000080 b4 28 8f 3e 7f 2c bb 3d f4 89 ba be 97 76 3d be
       0.27960742 0.09139346 -0.36433375 -0.1850227
000090 db 0e 37 be fb 78 82 be 22 01 e9 bd eb 6f 6f be
       -0.1787676 -0.25482926 -0.11377169 -0.23382537
0000a0 c2 0c 8e be 6d c3 4e be 86 9b 8d 3d f4 ac c1 3c
       -0.27744108 -0.20191737 0.06914429 0.02364204
0000b0 f8 a9 7c 3e 62 24 1d be 5d 15 a0 bd f3 16 25 be
       0.24674213 -0.1534591 -0.07816575 -0.16122036
0000c0 f8 e9 3a bd ed 1b ab 3e 63 7e a3 be b0 d0 8a be
       -0.045633286 0.33419743 -0.31932363 -0.2711234
0000d0 46 ac 43 be bd 6b ab bb 45 f4 c5 3d fb 6e a5 be
       -0.19108686 -0.0052313493 0.09665731 -0.32311234
0000e0 14 98 10 be 07 86 d2 3c 66 16 11 3e 6f 5c e5 bd
       -0.14120513 0.025698675 0.141687 -0.11199271
0000f0 39 7f 89 be d6 c1 4e be 8f 8e c7 be 78 71 e4 be
       -0.26854876 -0.2019113 -0.3897595 -0.4461782
000100 a0 42 89 be 44 fa 49 bd 83 38 a9 bb af db 8d bd
       -0.26808643 -0.049310938 -0.0051642074 -0.06926667
000110 23 e0 2c bd 33 a2 55 bd f8 c2 88 bc 37 33 96 bd
       -0.04220594 -0.05215664 -0.01669453 -0.07333987
000120 3a 70 39 bd 20 3f b3 bb 18 36 fd 3d 80 3b e2 3d
       -0.045273043 -0.0054701716 0.12363833 0.11046505
000130 6f 33 c9 3d 58 a8 c6 3e 63 d6 d7 3e df 2a ab 3e
       0.09824263 0.3880031 0.42155752 0.33431146
000140 18 24 80 3d 67 ac 78 3e 1c 73 c6 3d 3b d3 34 be
       0.06256884 0.24284516 0.09689924 -0.17658703
000150 bd 44 73 bd 61 03 9b 3d bb f0 4f bd f7 be 07 be
       -0.059391726 0.07569004 -0.050766688 -0.13256441
000160 b6 43 a3 bd bf 6a ed 3d e1 9d d0 bc 01 f5 3e be
       -0.07971899 0.11592626 -0.025465908 -0.18648149
000170 d1 32 ea bd 80 0e f3 bd 21 81 e5 bd 84 ab 0f be
       -0.11435474 -0.11868 -0.1120627 -0.14030272
000180 d5 1e 89 be 09 2a 92 be 79 d7 35 be 44 de 88 bd
       -0.26781335 -0.28547695 -0.17757978 -0.06683019
000190 f8 e5 53 be 82 b5 88 be 40 80 04 3e 84 29 13 3f
       -0.20693195 -0.2670098 0.12939548 0.5748522
0001a0 07 d3 f9 3e a3 78 5e bd 61 0d 4f 3e 1f 05 d7 3e
       0.48793814 -0.054314267 0.20219947 0.41996095
0001b0 86 6d be 3e 8c a2 6c 3e 15 64 02 bd 08 82 7b 3e
       0.37192935 0.23108882 -0.031833727 0.24561322
0001c0 43 d0 20 3d 9f 6b a9 be 03 ac 9f be cb 7b ab bd
       0.039261114 -0.3308992 -0.31185922 -0.08373221
0001d0 95 49 38 be c8 58 95 be df 00 6a be f0 51 f1 3c
       -0.1799682 -0.29169297 -0.22851895 0.029458016
0001e0 0b 8b 9f be d6 86 00 bf 1b 3f 71 be c4 2b 82 3d
       -0.3116077 -0.50205743 -0.23559229 0.06356004
0001f0 79 bc de 3d eb 85 ca bd 68 65 44 be 4b e5 79 be
       0.10875792 -0.09888824 -0.19179308 -0.24403875
000200 3b 39 05 bf de bd e2 be 97 e5 2d be bf 4c 99 be
       -0.5204045 -0.44285482 -0.16982113 -0.29941365
000210 59 59 62 be 99 0b 90 be 32 02 0f bd a2 32 87 3d
       -0.22104396 -0.28133848 -0.034914203 0.06601454
000220 26 cd 00 be b1 74 f0 3d 02 4d 09 bb 78 12 89 3e
       -0.12578258 0.11741007 -0.0020950441 0.26771903
000230 3a 4f 3d 3e 13 d4 07 3e 84 2c 83 3e 0d 12 36 3d
       0.18487254 0.13264494 0.256199 0.04445081
000240 40 24 fb 3d 9b 2b e8 3e 65 62 a0 3e 91 b7 89 3e
       0.122627735 0.45345768 0.3132507 0.26897863
000250 e2 0e 07 3e 92 76 2e 3e e8 92 61 be 77 0d b8 bc
       0.13189271 0.17037418 -0.22028697 -0.022467358
000260 1e dd 0a be 4a 72 13 be 63 8e f1 bd e4 5a c3 be
       -0.13560912 -0.14399067 -0.11794736 -0.38155282
000270 72 7f ed bd 27 37 87 be 0a da 2f be ae 5f 16 be
       -0.11596574 -0.26409265 -0.17173019 -0.14684936
000280 be 01 12 bf 3c f9 17 bf aa 27 86 be 60 bc ac bd
       -0.5703391 -0.59364676 -0.26202136 -0.08434367
000290 ba 02 6a bc d1 d2 15 be 2a 3e d3 bd 57 38 b1 bd
       -0.014282877 -0.14631201 -0.10314591 -0.08653324
0002a0 05 ce f4 bd 1f 33 24 3d 95 d1 aa 3e 65 8f 88 3e
       -0.119533576 0.040087815 0.33363023 0.266719
0002b0 cb 43 52 3e f4 76 a1 3b 2d 32 aa bd 9e ea 6e 3d
       0.20533673 0.0049275104 -0.083103515 0.058329217
0002c0 32 e6 8b bd 23 1c 04 be 5c 52 7a bd 8e 94 2a bd
       -0.06831016 -0.12901358 -0.0611137 -0.04164558
0002d0 9b 5e 7e bc 80 44 3f be 16 3b 4e be 95 76 b5 bb
       -0.015525485 -0.18678474 -0.20139727 -0.0055378177
0002e0 6b d3 50 bc a2 21 fb bd 48 02 28 be 07 b9 00 be
       -0.0127457185 -0.12262274 -0.1640712 -0.12570582
0002f0 79 be 83 bd c0 79 9b bd 9c 7e 2d be df c8 0f be
       -0.06432814 -0.07591581 -0.16942829 -0.1404147
000300 d0 a6 70 bd 8e 05 1e 3d da 2d a5 bd 46 27 19 be
       -0.058752835 0.038579516 -0.08065386 -0.14956388
000310 fd e0 15 be 0a 32 a4 bd ea a8 0a 3d 41 19 3d 3e
       -0.14636607 -0.08017357 0.033852495 0.18466665
000320 04 04 97 3d e0 18 cc 3e cb 4c 07 3f c9 57 15 bd
       0.07373813 0.39862728 0.5285155 -0.03646067
000330 ba 5d f3 bc 26 1e b1 3e cf 39 f5 3e 1f 62 10 3e
       -0.029707778 0.34593314 0.47895667 0.1409993
000340 18 02 aa bd 88 6c f4 3c 74 d1 c5 3d 71 ad a5 3e
       -0.083011806 0.029836908 0.09659091 0.32358888
000350 35 16 a8 bd 50 91 96 bb 47 34 d6 bc 86 60 82 3d
       -0.08207361 -0.0045949593 -0.026147975 0.06366067
000360 9a 17 29 3e 61 27 f9 bc 46 b2 92 bd fb 3b 14 be
       0.1651291 -0.030414285 -0.07162909 -0.14476006
000370 ac 83 dc bb fd 92 99 be 7e 95 1b 3d 41 6f b4 3d
       -0.0067295637 -0.29994956 0.037984364 0.088102825
000380 bf 8e 95 3e cb a3 8f be 49 7b 86 be 73 f2 96 be
       0.2921047 -0.28054652 -0.26265934 -0.2948185
000390 98 4b 95 be ef 2c 68 be 34 fd 09 bf 80 9a 02 bf
       -0.29159236 -0.22673391 -0.5390198 -0.51017
0003a0 a6 85 09 bf c4 4f 7a be 27 28 13 be 43 c4 e8 be
       -0.53719556 -0.2444449 -0.14370786 -0.45462236
0003b0 d5 f4 19 bf 49 04 a9 be 78 af 3b 3d 53 5a d6 3c
       -0.6013921 -0.33011082 0.045821637 0.026166117
0003c0 d7 1c 07 be ce b7 74 be 64 ab 7b be c8 a0 e8 bd
       -0.13194595 -0.23898241 -0.24577099 -0.113587916
0003d0 5e b5 9e bd a6 ed b1 3e 50 46 1e 3e b8 f2 2c 3d
       -0.07749437 0.34751624 0.1545651 0.042223662
0003e0 e9 e1 86 3d 28 cc e1 bd b5 9e 90 3b 14 aa 52 bc
       0.06586058 -0.11025268 0.0044134506 -0.012857933
0003f0 71 0e 40 3d d3 69 1b be d1 cc 0b be 87 ff a2 bd
       0.046888772 -0.15177087 -0.1365235 -0.07958894

conv2.bias f4 [16]
000000 15 59 94 3d b8 3f 97 3d a5 7c 4e be 45 92 93 3e
       0.072435535 0.073852 -0.20164736 0.28822532
000010 fc e4 bc 3d f9 56 30 3e f0 9e 62 bd 76 e2 a3 be
       0.09223363 0.17220677 -0.055327356 -0.32008713
000020 64 7b 95 3b 8a ad 26 bd 5d 78 19 3e 62 07 6d 3d
       0.0045618284 -0.040692843 0.14987321 0.05786837
000030 4e 13 f3 3d a4 34 4f be 2d 8c 12 3e 56 ac 75 3e
       0.118689165 -0.20234925 0.14311285 0.23991522

batchnorm2.weight f4 [16]
000000 4b f3 a3 3e 26 7a 00 3f 62 3c f1 3e a3 f9 c4 3e
       0.32021555 0.50186384 0.4711638 0.38471708
000010 07 aa ee 3e cc 2f 11 3f fe 14 37 3f dc 69 02 3f
       0.46614096 0.5671356 0.71516407 0.5094278
000020 13 5a 70 3f ae 45 44 3f db ce cf 3e 20 ba 18 3f
       0.9388744 0.7666882 0.40587506 0.59659004
000030 27 4e 04 3f 0d 2f 0c 3f cc e9 a4 3e b5 0b 81 3e
       0.5168175 0.54759294 0.32209623 0.25204244

batchnorm2.bias f4 [16]
000000 ee 93 87 be 4b 36 f7 3c 84 e0 89 be 1d 5f 53 be
       -0.2648005 0.030177256 -0.26929104 -0.20641752
000010 db 82 26 bd 70 5f 57 be aa 5e 7e be 03 9d d3 be
       -0.040652137 -0.210325 -0.24840799 -0.41330728
000020 31 3f 5b be 13 ce 30 be 4e 45 b2 bd 3a 47 8b be
       -0.21410824 -0.17266111 -0.08704625 -0.2720278
000030 1b ec 4d be 94 f5 96 be dc 59 68 bc f2 d3 a5 bd
       -0.20109598 -0.29484236 -0.01418158 -0.08097066

batchnorm2.running_mean f4 [16]
000000 dd 8c bb bf b7 61 18 c0 18 be 5b be 79 fc 5e bf
       -1.4652363 -2.380964 -0.21459234 -0.8710399
000010 af ff bc be 7c d4 20 c0 80 14 8f bf d3 3b 41 bf
       -0.3691382 -2.512969 -1.1178131 -0.7548191
000020 1e 76 0e c0 4b 5a 02 be e0 6d c0 3f e4 6c 9c bf
       -2.2259593 -0.12729757 1.5033531 -1.2220731
000030 ee e7 7f bf 36 36 05 c0 40 88 a5 bf 9b f7 7d 40
       -0.9996327 -2.0814338 -1.2932205 3.9682376

batchnorm2.running_var f4 [16]
000000 cc a6 e3 40 30 16 bc 40 3a 89 14 41 3d af be 40
       7.114111 5.8777084 9.283503 5.9588914
000010 5c a5 1d 41 c9 ef d3 40 8f 4a 36 41 c0 ae c4 40
       9.852871 6.6230206 11.393203 6.146332
000020 13 cb 21 41 27 34 5d 41 e1 63 03 41 9c 0b 38 41
       10.112079 13.8252325 8.2118845 11.502834
000030 13 df d6 40 46 e5 0a 41 02 78 ca 40 70 f3 bd 40
       6.7147307 8.680975 6.3271494 5.9359665

linear1.weight f4 [100, 256]
000000 34 5f 32 bd 8e 49 2d bd 9c 05 25 be c5 b5 c3 3e
       -0.043547824 -0.042306475 -0.16115421 0.38224617
000010 3c 58 93 3e 11 1e 22 3e 5b 8e 66 3c b1 93 52 bc
       0.28778255 0.15831782 0.014072026 -0.012852595
000020 94 54 eb 3e c6 7d 01 3f eb 49 d5 3e df 9c 77 3e
       0.45962965 0.5058254 0.41657957 0.24180935
000030 8e 89 2f 3f fe 78 f0 3e 54 d6 41 3e 41 55 6c be
       0.68569267 0.4696731 0.18929416 -0.23079397
000040 82 b4 a9 be b0 35 3f be c2 47 60 be be f3 59 be
       -0.3314553 -0.18672824 -0.21902373 -0.21284387
000050 8b a9 fc 3d 69 82 fa bd 06 c8 27 bd 16 01 e5 be
       0.12337025 -0.12231905 -0.04096224 -0.4472739
000060 0c 83 3b 3e 9f 1c e1 3e ea 06 cd 3d 24 ff 02 3d
       0.18311709 0.4396715 0.100110844 0.031981602
000070 e9 44 05 be 2d 84 a6 3e b7 48 ad be 32 54 16 3c
       -0.13014568 0.32522717 -0.3384454 0.009175347
000080 e6 39 26 bd c3 8d 60 bd 1e aa 9c 3e 80 b6 03 3f
       -0.04058256 -0.054822695 0.3059854 0.5145035
000090 dc cf a2 3e fe b8 df 3e 4e 24 8b 3e ff 85 0d 3e
       0.3179921 0.43695825 0.27176136 0.13820647
0000a0 00 39 b3 be 8f ed cc 3d 27 04 58 3e 8f 17 52 bd
       -0.35004425 0.10006248 0.21095334 -0.051292
0000b0 51 25 10 be a6 52 7c bd d9 b0 dd 3e f0 d6 6d be
       -0.14076735 -0.061602257 0.43298987 -0.23226523
0000c0 8b 6d 62 3e 9b 81 0f 3d c1 75 0c 3d c0 60 8d 3e
       0.221121 0.03503571 0.034291986 0.27612877
0000d0 bc 52 48 3d b6 27 06 3e 40 1c 2a 3d ff fb 9d 3e
       0.048907027 0.13101086 0.041530848 0.3085632
0000e0 72 a1 29 be 93 7b 8a bd 5d 95 b1 3e 91 21 05 3e
       -0.16565493 -0.06761851 0.34684268 0.13001086
0000f0 aa 97 41 be dd 85 26 3e 08 59 5f 3d c7 f9 88 3e
       -0.18905511 0.16262002 0.054528266 0.26753065
000100 7b d9 06 3e 7d e9 d5 3d 5c 0f 12 3e 5c 0f c9 3d
       0.131689 0.10444925 0.14263672 0.09817383
000110 a3 a8 50 be f5 24 3d be dc c7 9d 3e 57 65 c8 bd
       -0.2037683 -0.18471129 0.30816543 -0.09784954
000120 ac f0 cd be 87 2f 5a 3d 23 b6 cd 3d b4 99 35 3e
       -0.4022268 0.05326798 0.100445054 0.17734414
000130 67 62 88 3d 4f fb f3 3e b2 64 01 3f fb d0 48 3e
       0.06659394 0.4765267 0.50544274 0.1961097
000140 e8 ce 9f 3c 67 2b 93 bc 40 fb 51 be 89 92 86 3e
       0.01950784 -0.017965032 -0.20506 0.26283672
000150 ca b3 9e bd 7a 42 11 3b 9d bb 77 3e 8b fa 00 3f
       -0.07749136 0.0022164867 0.24192663 0.503823
000160 0e 9b 94 bd 19 04 88 3e f5 55 f6 3d 69 f0 a5 3e
       -0.07256137 0.26565626 0.12028114 0.3240998
000170 2f ee 1f be 00 e2 f9 3d 07 fb a9 3e f8 f5 8d 3d
       -0.15618204 0.12201309 0.3319933 0.069316804
000180 db 25 1e 3e b3 d1 8b 3e e9 25 8b 3e 67 18 67 be
       0.15444128 0.27308425 0.2717736 -0.22567903
000190 0c 41 0b 3e 77 72 32 3d 4d 19 e0 bd 83 33 22 3c
       0.13599032 0.043566193 -0.10942326 0.009899977
0001a0 dd b9 23 3d 57 f7 8b 3d d2 96 f8 bd 91 a5 3c 3d
       0.039972175 0.06834286 -0.12138142 0.046056334
0001b0 c1 ca 2e 3e d7 af b7 bd e8 e0 23 3b 56 7f 14 bc
       0.17069532 -0.08969086 0.002500588 -0.009063562
0001c0 d9 53 26 3d dc 6a 00 3b 16 6c a7 3d 26 21 8d 3e
       0.040607307 0.0019594943 0.08174913 0.27564353
0001d0 b6 1b 25 3e 04 1b 76 be ed 9a 18 3e 12 0b bb 3d
       0.16123852 -0.24033743 0.1490285 0.09132971
0001e0 41 59 1c 3e 06 cb c5 bd 5a 82 22 bc 8f c9 b9 bb
       0.15268423 -0.09657864 -0.009918774 -0.0056697796
0001f0 1c 95 3d be 2a 78 5b be 1c 4f 00 3e d9 01 91 bb
       -0.18513912 -0.21432558 0.12530178 -0.004425269
000200 76 8c 8a bd d6 6e 02 be 04 d0 4e 3d 85 54 a4 bd
       -0.06765072 -0.12737593 0.050491348 -0.08023933
000210 e8 4a 65 3e 7c e4 cf 3c ce 95 1e be aa 40 27 be
       0.22391856 0.025377505 -0.15486833 -0.16333261
000220 53 a5 98 3e 8b c9 b5 3e ca d0 a3 3c 58 11 9e bd
       0.29813632 0.35505328 0.01999702 -0.07718152
000230 bf 06 42 3f a7 22 6b 3e ea 4d 66 bc b6 b3 58 bc
       0.75791544 0.22962438 -0.014056662 -0.01322644
000240 a4 00 92 3e 4b 6a 96 3e 27 80 8d 3d 3a e4 ad be
       0.28516114 0.2937797 0.06909209 -0.33963186
000250 99 8b 29 3e e9 2d 12 3d 27 26 61 3c b6 29 41 be
       0.16557159 0.035688315 0.013742006 -0.18863568
000260 df 72 43 3e d0 fc 96 3e 8f f4 6f be 7e 1c 05 be
       0.19086789 0.29489756 -0.23433135 -0.1299915
000270 84 99 0d 3d 88 cb 8c be df c0 a8 3d 57 50 d5 bd
       0.034570232 -0.27499032 0.08239912 -0.10415714
000280 00 b8 65 3e dc e9 37 3d d1 a1 fb 3e 31 ba c9 3e
       0.22433472 0.04490076 0.49146894 0.39399865
000290 db f7 60 be 70 d7 93 3c 17 e0 1a 3e 5d 8e d7 bd
       -0.2196955 0.018047065 0.15124546 -0.105252005
0002a0 d6 f9 d2 be 17 5c 8f be 41 59 00 3e c5 6b 8d 3e
       -0.41206235 -0.27999946 0.12534048 0.27621284
0002b0 3b 89 3e bd b3 73 3b 3d 52 54 2e 3c ad c5 8b 3e
       -0.046517592 0.045764636 0.010640221 0.27299252
0002c0 22 6c 6e 3e 5d a8 d6 3e 9f 0f c1 3d 49 9f 91 3e
       0.23283437 0.41925326 0.094268076 0.28441837
0002d0 fc a1 d2 3e 15 5a 25 3d 79 a1 d6 bd 6e 8b 97 be
       0.4113921 0.040369112 -0.10480017 -0.29598564
0002e0 7b 84 7c 3d 8c e8 b1 bb 9f 5b 24 3e 83 d3 92 be
       0.06164978 -0.005429333 0.16050576 -0.28676996
0002f0 5a 04 e5 3d 83 4a 06 be 76 83 a8 3d 49 c6 a9 3e
       0.111824706 -0.13114361 0.08228199 0.33159092
000300 65 42 82 3c 65 69 f1 bd 2e 41 45 be 19 84 51 bd
       0.0159008 -0.117876805 -0.19263145 -0.05115137
000310 32 fe 55 3e 74 6b 5e 3e a8 0c 16 3d f4 6a 67 3e
       0.20897749 0.21720678 0.036633164 0.22599393
000320 48 33 23 3f 63 97 bd 3e 7c 87 1c 3f 21 1b be 3e
       0.63750124 0.3702956 0.6114423 0.37130073
000330 88 63 84 3d 2a f3 3b 3d 49 59 de 3d 36 b2 8a 3d
       0.064642966 0.045886196 0.108568735 0.06772272
000340 0c fd 01 3e a7 c2 81 be 22 5b 9c bd a0 13 c1 3d
       0.12694186 -0.2534382 -0.0763457 0.09427571
000350 76 8c 00 3e 9b cb 8e bd fa cf a4 be 75 b2 4b bb
       0.12553582 -0.069724284 -0.32189924 -0.003108171
000360 4e f6 2e 3e 02 eb c4 3e 07 35 60 3e 17 0d e0 3e
       0.17086145 0.38460547 0.21895228 0.43759987
000370 73 25 f5 3e 31 86 d3 3e ca 28 33 be bc 0f 26 3d
       0.47880134 0.41313317 -0.17496029 0.04054235
000380 29 b9 70 be db 19 15 be 69 31 d9 3d 23 64 a8 3e
       -0.23508133 -0.14560644 0.10605127 0.32888898
000390 fd f3 ac 3e 31 ff 89 be d9 c7 ca bd 0b 0b 9b 3e
       0.33779898 -0.26952508 -0.09901399 0.30281863
0003a0 ee 2a 03 3d 76 42 d5 3c 79 a8 c1 bd ef 60 3b 3e
       0.032023363 0.026032668 -0.09455962 0.18298696
0003b0 50 a5 06 bd 16 76 1c be 07 ca 01 3d e9 17 97 bd
       -0.032872498 -0.15279421 0.03168681 -0.073776074
0003c0 27 00 c8 bd 8f e0 df 3b d3 96 8a 3d fa 12 d4 3e
       -0.09765654 0.0068321894 0.06767049 0.41420728
0003d0 9f c4 84 be 8a 5b 37 3d 49 2a 9d 3c 28 2c 6e 3e
       -0.2593126 0.044765033 0.019185202 0.23259032
0003e0 af 09 d9 be a7 9e 66 be cb 4d 89 3e b7 3a 6f 3e
       -0.423902 -0.22521459 0.26817164 0.23362242
0003f0 fc c2 b0 be c7 7a ea bb a8 3d a1 3e d5 f2 99 3d
       -0.3452376 -0.0071557495 0.31492352 0.0751702

linear1.bias f4 [100]
000000 11 a9 14 bd aa dd 84 3d 1d 3d b7 bd fa ab 1a 3d
       -0.036294047 0.064875916 -0.08947203 0.037761666
000010 06 ff 1a 3d 73 ad 0c 3c e7 41 56 bd 89 72 1b bd
       0.037840866 0.008586275 -0.052308943 -0.037951026
000020 bf 8a d7 bc 49 06 be 3d 78 21 e3 3c d3 da 8e 3c
       -0.026311276 0.092785425 0.02772592 0.017438328
000030 28 ce be ba 62 99 bd bd 54 84 85 3d 83 72 75 3c
       -0.0014557289 -0.09257771 0.0651938 0.014980915
000040 78 72 a0 3d 93 3f d4 3c e9 06 ae bd c1 6d 38 3c
       0.07834333 0.02590922 -0.08497412 0.011256636
000050 c7 9b b2 bc 6b 9b 5a bd f8 38 95 bd 24 05 df 3d
       -0.021802796 -0.053370874 -0.072862566 0.10889652
000060 13 bf a5 3c 9c 16 e8 3d 5a 7f c7 3c b2 c2 43 3d
       0.020232713 0.113324374 0.024352718 0.047793098
000070 5b 2c 17 be 80 b1 4e 3d a4 10 46 3e ba 3d e3 bc
       -0.14763014 0.050462246 0.19342285 -0.027739394
000080 ca ac 62 3d a9 da e3 3c aa c0 c7 3c b9 76 48 3d
       0.055340566 0.027814226 0.024383862 0.048941348
000090 5f 69 85 bc 8b 1b ce 3c 73 8b 5b bc 4e ca 9f 3d
       -0.016285596 0.025159618 -0.0133999465 0.078022584
0000a0 b2 ad 50 bd 8d c4 ab 3a 0d 2f 0c 3c 4e 3a da bc
       -0.0509469 0.0013104841 0.00855614 -0.02663913
0000b0 32 ef 94 3c 1a 50 5e 3d df b9 6d 3d 65 d9 c6 3d
       0.018180463 0.05427561 0.05803859 0.097094335
0000c0 19 d9 8f bd 09 ea 5e 3c f7 c3 50 be 8b aa b5 3c
       -0.0702383 0.013605603 -0.20387255 0.022176048
0000d0 1a be 52 3d 1b 36 c1 bd b3 7a 30 bb bd 2c db 3d
       0.051450826 -0.09434148 -0.0026928603 0.107018925
0000e0 8d e9 22 bc b8 47 3c bd 2e f6 8a 3c dd 64 78 3d
       -0.009943378 -0.045966834 0.01696309 0.060643066
0000f0 a4 36 28 3d 26 02 13 be 35 fc af 3c 8b a6 ed 3d
       0.041067734 -0.14356288 0.021482566 0.11604031
000100 62 0d 07 3e dc e3 26 3d 51 ad 58 bd fd 84 32 bd
       0.13188699 0.040744647 -0.052899662 -0.04358386
000110 5c 82 13 bd fb c3 2d be e4 01 9f 3d 51 7b 40 3d
       -0.036012992 -0.16969292 0.077640325 0.046992604
000120 38 af d3 bd 38 83 ee bd c4 c7 4d bb dd c2 98 3d
       -0.10336155 -0.11646122 -0.0031399587 0.07459042
000130 ba 68 2a 39 38 06 48 bd d7 a0 2e bd f4 bd 89 bd
       0.00016251477 -0.048834056 -0.042633858 -0.06725684
000140 c7 66 cc bd 7e ef c5 ba 9b a6 41 bd ac 62 95 3d
       -0.09980541 -0.0015101281 -0.047278028 0.07294211
000150 4d 0b cb bc 19 e8 74 3b 01 d1 9c 3d 59 7c 0e 3e
       -0.024785662 0.0037369786 0.07657052 0.13914622
000160 bd 14 c0 bd c9 f1 a1 bc 82 2a 24 3d 6c a5 2b bd
       -0.093789555 -0.019768612 0.0400796 -0.041905805
000170 77 38 a4 3d 8b a1 2b bd 55 d4 19 3e 8a a5 8c bd
       0.08018582 -0.041902106 0.15022404 -0.068675116
000180 23 f4 69 3c c8 85 57 3d 70 33 72 3d 61 21 24 3d
       0.014279398 0.052617818 0.059131086 0.040070895

batchnorm3.weight f4 [100]
000000 20 69 36 3f ef 78 8d 3f a2 4c 30 3f 8d 95 80 3f
       0.7125416 1.1052531 0.6886693 1.0045639
000010 16 26 1d 3f 68 15 2b 3f 37 5e 91 3f f1 aa 47 3f
       0.6138624 0.6682954 1.1356877 0.7799521
000020 8e fc 08 3f 54 dd 2c 3f 57 9c 31 3f 15 cc 85 3f
       0.5351037 0.6752522 0.6937918 1.0452906
000030 37 c3 56 3f d3 24 1b 3f f7 b8 30 3f 06 95 6b 3f
       0.83891624 0.60603064 0.69032234 0.92024267
000040 64 61 35 3f dc 25 b0 3e 58 af af 3f b2 67 76 3f
       0.7085173 0.34403884 1.3725386 0.96251976
000050 8c ce 31 3f e7 13 c6 3f 82 7f 75 3f f9 fb 83 3f
       0.6945579 1.5474824 0.95897686 1.0311271
000060 47 f8 ae 3f 68 9a 42 3f f1 61 a0 3f a5 8f 04 3f
       1.3669518 0.76016855 1.2529889 0.51781684
000070 3a f6 89 3f 2b 2a 91 3f 8a d9 8b 3f 14 f8 9a 3f
       1.0778267 1.1340994 1.0925763 1.2106957
000080 49 b9 8d 3f a1 bd 9f 3f c0 f7 28 3f 83 86 56 3f
       1.107217 1.2479745 0.66003036 0.83799
000090 15 f5 39 3f 39 69 10 3f a1 e3 7d 3f c1 8a 38 3f
       0.7263959 0.5641056 0.9917546 0.7208672
0000a0 6a c7 47 3f 6d ce 4b 3f d5 94 2a 3f c0 8c 20 3f
       0.78038657 0.79611856 0.6663335 0.6271477
0000b0 86 2d 32 3f c9 44 29 3f ab 7c 26 3f d6 d3 48 3f
       0.69600713 0.6612058 0.6503398 0.78448236
0000c0 e5 44 31 3f 6b 97 3f 3f 82 7e 95 3f 0b fe e1 3e
       0.6924575 0.7484042 1.1679232 0.44139132
0000d0 c2 81 10 3f 0e 30 74 3f 31 86 36 3f 0e 7f 9d 3f
       0.56447995 0.95385826 0.7129851 1.2304399
0000e0 0d 76 db 3e 81 fe a9 3f c2 5c ad 3f 4c 5d 1e 3f
       0.42863503 1.3280793 1.3543932 0.6186111
0000f0 ee a8 47 3f 06 92 bd 3f a1 eb 94 3f 40 18 49 3f
       0.7799214 1.4810188 1.1634408 0.7855263
000100 86 a4 99 3f 16 1c a4 3f 86 06 27 3f a2 6f 81 3f
       1.2003334 1.2821071 0.6524433 1.0112193
000110 da 7b 6c 3f 1f c4 87 3f 86 38 6f 3f 79 7a 96 3f
       0.9237648 1.0606726 0.9344562 1.1756126
000120 d3 0c 01 3f ac 10 27 3f e8 32 39 3f 0b d1 4a 3f
       0.50410193 0.65259814 0.723433 0.79225224
000130 d0 ee 8d 3f ea 24 84 3f 97 1f e4 3e 28 5d 52 3f
       1.1088505 1.0323765 0.4455535 0.82173395
000140 54 a1 1b 3f bf 8a 66 3f 2e 61 8d 3f 93 e3 0f 3f
       0.6079304 0.9005546 1.1045282 0.56206626
000150 8c 4b c6 3c 49 b0 d2 3e b4 a6 a0 3f a2 84 86 3f
       0.024205945 0.4115012 1.2550874 1.0509226
000160 27 51 a5 3f d3 38 6a 3f d5 8b 55 3f e6 23 6f 3f
       1.2915391 0.91492957 0.8341649 0.9341415
000170 66 7d be 3e 0f 61 9a 3f 4e e0 96 3f 77 23 87 3f
       0.37205046 1.206087 1.1787202 1.0557698
000180 2a 7e 60 3f de d5 03 3f 91 a3 94 3f ce 68 36 3f
       0.8769251 0.5149821 1.1612417 0.7125367

batchnorm3.bias f4 [100]
000000 7c d1 44 3e 13 26 69 3e 96 34 31 3e 73 85 bc bd
       0.19220537 0.2276843 0.17305216 -0.09205141
000010 2a f3 44 3e 69 6e 67 3d ea 8b d1 3d e0 15 a4 3d
       0.19233385 0.05650178 0.102317646 0.08011985
000020 a0 f8 8b 3d 6a 68 64 3d b2 de 82 3e 15 f7 58 3b
       0.06834531 0.05576364 0.25560528 0.0033106257
000030 e2 a7 ce 3b 25 bf 9f 3d e7 fa 6d 3e c7 07 58 3c
       0.0063066343 0.0780013 0.23240243 0.013185448
000040 70 da 2c 3e 49 1d c5 3d 38 27 a0 3e c5 02 79 3e
       0.16880202 0.09624726 0.31279922 0.24317463
000050 34 24 d6 3d 56 98 ab 3e 34 1c 67 3e c6 f8 41 3e
       0.10456124 0.3351466 0.22569352 0.18942556
000060 59 3d ab 3e 1f c9 51 bd f8 6a f6 3d 9d c0 ca 3d
       0.33445242 -0.051217195 0.120321214 0.09900019
000070 8b 49 9c 3e 95 00 a5 3e 5e c9 57 3e 73 d4 61 3e
       0.3052486 0.32227007 0.21072909 0.22053699
000080 7c b7 de 3c 3f ed e7 3d 6a 67 82 3e c4 bc 37 3e
       0.027187102 0.11324548 0.25469524 0.17943102
000090 17 12 92 3e 0b 30 19 3e b2 db dd 3d fb e4 71 3e
       0.28529426 0.14959733 0.10832919 0.23622505
0000a0 51 25 ca 3d 01 cc eb 3d 77 81 1b bc 21 cc 37 3e
       0.09870399 0.1151352 -0.009491316 0.17948963
0000b0 60 ad a6 3e f2 fe fa 3d 3f c9 95 3d 00 20 34 3e
       0.3255415 0.12255658 0.07313775 0.17590332
0000c0 62 06 92 3e 93 1a 9a 3e 38 7f 75 3e ce 2d 1c 3d
       0.28520495 0.300984 0.23974311 0.03812962
0000d0 47 fd 58 3e 07 a5 ef 3d 47 da 13 3e 6c ef 8d 3d
       0.21190368 0.11701398 0.14438735 0.06930432
0000e0 2a 11 a5 3e d2 d6 42 3e 23 fa ab 3e 16 2a 26 3e
       0.32239658 0.1902726 0.33589277 0.16226992
0000f0 15 12 be ba ed 7e 40 3e 9f 0d 2b 3e ea 75 e2 3d
       -0.0014501238 0.18798418 0.16704415 0.110576466
000100 c6 aa 02 3e f8 fe d3 3e 3f b2 a5 3d 40 6f 86 3d
       0.12760457 0.41405463 0.08090638 0.06564188
000110 3f 0c 21 3e 59 1e f7 3d 48 36 52 3e 76 0b 17 3e
       0.15727328 0.12066335 0.20528519 0.14750466
000120 18 f6 fa 3d 77 81 60 3e f0 89 84 3e 2f e0 23 bd
       0.1225397 0.21924387 0.25886488 -0.04000872
000130 65 b4 a0 3e a5 98 8c 3e 41 52 d5 3c 27 8b 17 3e
       0.3138763 0.2746021 0.026040198 0.14799176
000140 bb 43 b1 3e 0b a5 d1 3d 69 6d 41 3e 76 2d b0 3d
       0.34621987 0.102365576 0.18889393 0.08602421
000150 c4 80 e5 bd 0c 9b 7a 3e ed 1d 0a 3e 0a b6 8f 3d
       -0.11206201 0.24473208 0.13487978 0.07017143
000160 b9 75 41 3e 38 01 05 3e 0d 6f 17 3e 87 45 0f 3e
       0.18892564 0.12988746 0.14788456 0.13991366
000170 24 c6 20 bb 41 78 1c 3e 0d 08 b0 3d 5b 21 91 3e
       -0.0024532164 0.15280248 0.085952856 0.2834576
000180 61 42 db 3d 8a 2a 05 3e 7e be df 3d 17 e2 88 3e
       0.1070602 0.13004509 0.109250054 0.26734993

batchnorm3.running_mean f4 [100]
000000 03 fc c2 3f 94 9b 6a 3f ae d8 56 be 1f 84 f7 3f
       1.5233158 0.91643643 -0.20981094 1.9337195
000010 3d 91 0b bf d7 41 dc bd c6 ba 18 3e ed 46 c6 3d
       -0.5451849 -0.107547455 0.14914998 0.09681497
000020 54 cc b3 3f ba 21 00 40 2c b4 ac bf 36 2c aa 3f
       1.4046731 2.0020585 -1.3492484 1.3294742
000030 9c 05 22 3f c2 7d 99 bf 38 9f 12 bf c9 13 e0 3e
       0.6328981 -1.1991503 -0.572742 0.43765095
000040 41 ac e3 3d ed 54 61 3f 08 ba ec bb e7 bc 86 3f
       0.11116839 0.8802021 -0.007224325 1.0526398
000050 ca e8 82 3f 3e 27 18 40 60 1e b4 be 58 d4 db 3e
       1.0227292 2.3773952 -0.35179424 0.42935443
000060 87 7e 05 40 c5 56 b6 3e 29 44 5f 3f 5c 68 55 3f
       2.0858476 0.35613075 0.8721338 0.83362365
000070 70 f0 4f bf cc c0 a2 be e6 e1 11 3f e7 ab 82 3c
       -0.81226254 -0.31787717 0.5698532 0.01595111
000080 b3 6f 5a 3f 5c 73 95 3f b8 46 f2 be ad eb 32 be
       0.8532669 1.167583 -0.4731958 -0.17472716
000090 15 f8 09 be a6 08 2e 3f 12 c0 b9 3f f0 43 da 3f
       -0.13473542 0.67981946 1.451174 1.7051983
0000a0 eb 6c 7e 3f 3c f0 76 3f 75 fd 53 3f 50 eb 19 3f
       0.99384946 0.9646032 0.8280862 0.60124683
0000b0 3e 63 db 3e 2b d1 01 bf 2b 21 30 bf eb a4 8b 3f
       0.42849153 -0.5070979 -0.6880061 1.0909704
0000c0 eb f7 84 bf a4 c1 ed 3e 86 f6 84 bf 91 0c 6c 3f
       -1.0388159 0.464368 -1.0387733 0.92206675
0000d0 ac 8d b6 3f 44 5d 81 3f ea 04 a9 3d 8a 35 0c 40
       1.4261985 1.0106587 0.082528904 2.1907678
0000e0 09 69 66 3e 61 9d 0d 3f 51 59 2e be 13 5c 92 3f
       0.22501005 0.55318266 -0.17026259 1.1434349
0000f0 30 da 59 bd 13 69 f6 3e cd 31 95 3f c6 4c f3 3e
       -0.053186595 0.4812704 1.1655823 0.4751951
000100 d7 92 21 3e a3 58 6f bf 37 02 aa 3f 70 ba 34 3f
       0.15778671 -0.93494624 1.3281926 0.7059698
000110 0c 99 24 3f 8b e2 19 40 06 63 21 3f 73 de 16 40
       0.6429603 2.404452 0.6304172 2.3573272
000120 44 3f af 3d df bf cf 3d b5 5e 35 bf 45 21 22 3f
       0.08556989 0.101440184 -0.70847636 0.63332015
000130 ba 27 8c bf 6a e6 e1 3c d6 c4 8b be 47 95 9a bf
       -1.0949624 0.02757569 -0.2729861 -1.2076806
000140 f1 e7 78 3f f1 dd a7 bf 04 85 c7 be dd 97 bb 3f
       0.97228914 -1.3114606 -0.3896867 1.465572
000150 ce 93 3a 3f b3 d6 73 be 2a 66 51 bf 59 8c 00 40
       0.7288178 -0.2381237 -0.81796515 2.0085661
000160 06 6b 9e be c9 0f 84 3f 3f fc 2e be 35 0a 08 bf
       -0.30941027 1.0317317 -0.17088412 -0.53140575
000170 40 cf fd 3e 57 e0 e0 be e8 0b fd 3f df db 20 3f
       0.49572182 -0.43921158 1.9769258 0.62835497
000180 2a 81 d1 3f 58 b5 5d bf 72 5a 0d 40 c0 97 8f 3f
       1.6367543 -0.86604834 2.2086453 1.1218185

batchnorm3.running_var f4 [100]
000000 53 4d 6b 40 a0 2a 0a 40 45 76 4d 40 58 b0 4d 40
       3.6765945 2.1588516 3.2103436 3.2138882
000010 f4 30 35 40 95 b2 fb 3f 79 0d 90 40 01 ca 11 40
       2.8311129 1.9663874 4.5016446 2.2779543
000020 ad 4e 33 40 fa 4b 39 40 01 b9 49 40 57 d6 ed 3f
       2.801677 2.8952622 3.1519167 1.8581036
000030 be cc 54 40 1e ca d6 3f e8 fd 67 40 49 66 1a 40
       3.3249965 1.6780431 3.6248722 2.412493
000040 55 6d 37 40 7b 52 db 3f 9f 3f 80 40 c5 65 7d 40
       2.866048 1.7134546 4.0077662 3.9593365
000050 e1 22 69 40 a8 40 0b 40 67 20 2d 40 80 b1 13 40
       3.6427538 2.1758213 2.7051027 2.3077087
000060 ab 53 33 40 9b 13 46 40 11 46 39 40 26 21 2c 40
       2.8019817 3.0949466 2.8949015 2.6895232
000070 8a f9 fc 3f 88 d0 68 40 aa 81 b4 3f 65 66 56 40
       1.9763653 3.6377277 1.410207 3.3499997
000080 01 27 08 40 97 f4 55 40 47 44 23 40 2a 97 c0 3f
       2.1273806 3.3430536 2.5510423 1.5046132
000090 b3 73 81 40 78 5e 4d 40 64 e3 6d 40 5f 8b 49 40
       4.0453734 3.208891 3.7170038 3.1491315
0000a0 53 9f 2d 40 a6 10 1c 40 50 7e 1f 40 c1 d1 30 40
       2.7128494 2.4385161 2.4920845 2.7628024
0000b0 a2 33 15 40 04 d6 f2 3f d3 e2 3e 40 14 67 f6 3f
       2.3312764 1.8971562 2.9825943 1.9250207
0000c0 a8 89 07 40 2a 45 3b 40 aa 7c 27 40 3e bd 24 40
       2.1177769 2.9260964 2.616984 2.5740504
0000d0 f8 09 31 40 f7 41 6c 40 ef a6 38 40 dd e7 39 40
       2.7662334 3.6915262 2.8851888 2.9047768
0000e0 91 8f 2d 40 b2 e6 6f 40 35 87 40 40 db 61 1b 40
       2.7118876 3.7484555 3.0082524 2.4278476
0000f0 dc 4f fb 3f ce 5b 46 40 c5 73 87 40 cb 79 3c 40
       1.9633746 3.0993533 4.232882 2.9449337
000100 9f 05 7d 40 3b 97 3f 40 8f a9 62 40 09 07 3f 40
       3.953468 2.9936054 3.541599 2.9848044
000110 c4 87 43 40 ea e4 4a 40 61 de 1b 40 ab a8 8d 40
       3.0551615 3.1702218 2.435448 4.4268394
000120 bf a1 e5 3f 4e 54 29 40 99 d3 42 40 a6 51 28 40
       1.7939986 2.6457705 3.044165 2.6299834
000130 d2 76 48 40 b2 ce de 3f 4e 45 1c 40 60 6c 8e 40
       3.1322522 1.7406828 2.44173 4.4507294
000140 00 0b fb 3f b5 c6 ec 3f a0 5c 8b 40 4a 01 5f 40
       1.9612732 1.849814 4.355057 3.4844537
000150 1a 21 b0 3e 9c f2 39 40 91 9d 0c 40 2c 35 1d 40
       0.34400254 2.9054327 2.197117 2.4563704
000160 cd 2c de 3f ca c8 79 40 2a 31 0d 40 26 58 83 40
       1.7357422 3.9028802 2.2061257 4.1045103
000170 23 f8 5b 40 0f 14 c2 3f ee 65 b3 3f b9 ba 15 40
       3.43702 1.5162371 1.4015481 2.3395216
000180 82 db 28 40 fc 7f 72 40 90 76 22 40 dd 5c 62 40
       2.6383977 3.7890615 2.5384865 3.536918

linear2.weight f4 [10, 100]
000000 c7 6e 01 3e 5c 7b e4 3d b4 a5 d8 bd bb 9d 2d bf
       0.12639914 0.111563414 -0.1057848 -0.678188
000010 33 e3 eb be 63 bb 87 bf 82 10 3f bf 67 43 1b bf
       -0.46071777 -1.0604061 -0.74634564 -0.6064972
000020 9f 1f 35 bf 8d 41 3b bf c7 1c 55 bf 61 99 87 be
       -0.70751375 -0.731469 -0.83247036 -0.26484206
000030 8f 8b 24 bd f0 f2 07 bf 46 f6 03 3e 32 49 0e bf
       -0.040172156 -0.5310507 0.12886915 -0.5558044
000040 37 99 44 bf 4a cf d0 be af 69 2d bf d6 13 ce 3e
       -0.7679629 -0.4078315 -0.67739385 0.4024951
000050 de 83 95 bf c7 12 60 3d da c4 2d 3e ff dc a5 bf
       -1.1680868 0.054705407 0.16969624 -1.2958068
000060 6b 82 90 3e e3 d8 8a 3e 34 72 dd 3e 1c 52 cc bd
       0.282245 0.27118596 0.43251193 -0.099765986
000070 78 37 e2 3e 5b dd 91 bc 37 80 91 3d 50 f0 ac 3e
       0.44182944 -0.017805746 0.07104533 0.33777094
000080 9b 2c 48 bf 82 15 7c bf 4a d5 a0 3d e7 d1 4a bf
       -0.7819306 -0.9847032 0.07853182 -0.79226536
000090 38 b6 15 bf 22 69 f1 be 5b 95 0e 3e 07 7f 56 bb
       -0.5848117 -0.47150522 0.13924162 -0.0032729523
0000a0 23 3b bc 3e a6 c5 ac 3e a2 5e 03 bf 8f f1 65 bf
       0.36763868 0.33744544 -0.51316273 -0.89821714
0000b0 46 29 ac 3e 32 58 b2 be b9 7d dd be 29 87 0e 3f
       0.3362524 -0.34832913 -0.4325998 0.5567499
0000c0 10 d8 01 bf 66 ba 1e bf f5 ea 82 bf 9f d0 16 bf
       -0.5072031 -0.6200317 -1.0227953 -0.5891208
0000d0 c5 04 48 bf 90 d7 fe 3d 7f 92 91 bf 37 b2 50 bf
       -0.7813228 0.12443459 -1.1372832 -0.81521934
0000e0 c7 59 9d 3d d9 b1 29 be c6 27 ac be b3 b1 26 bf
       0.07683139 -0.1657175 -0.33624095 -0.651149
0000f0 f3 37 37 bf 72 e0 a6 3e 91 f2 0d 3e 61 79 29 bf
       -0.71569747 0.32593113 0.13862063 -0.66200835
000100 8d 51 f2 be db 4a cd 3e 35 d3 a9 3e 88 67 ed be
       -0.47327843 0.40096173 0.3316895 -0.4636805
000110 48 8c 6f be 11 87 d2 be 9c 13 2c bf 4e ed ee bd
       -0.23393357 -0.41118672 -0.6721742 -0.11666356
000120 2e 89 1c be 11 fc fb 3e 35 cb a9 bf a1 4a cc 3c
       -0.15286705 0.4921575 -1.3265139 0.02493793
000130 bf 61 c2 be 6c 75 12 bf 4e 73 d0 bd 96 f6 89 be
       -0.379652 -0.5721042 -0.101782426 -0.26945943
000140 41 80 fa be e2 0f c6 bd 2a 5f 08 3e 9e 48 f9 3e
       -0.48925975 -0.09670998 0.13317552 0.48688215
000150 5d 87 18 bd 29 98 85 bf a4 13 e2 be c0 c2 ca 3d
       -0.037238467 -1.043706 -0.4415561 0.09900427
000160 bb 89 c6 be 28 72 67 bd b8 ee 2b bf de e6 84 bf
       -0.38776955 -0.056505352 -0.6716113 -1.0382955
000170 f9 f5 a6 be 9f c4 8a be 41 a6 27 be ab 7a a3 be
       -0.32609537 -0.27103135 -0.16372015 -0.31929526
000180 d6 83 bf be 29 b4 02 bf d2 3f 96 3e 15 c2 60 be
       -0.3740527 -0.5105615 0.29345566 -0.21949036
000190 2f d9 96 be d0 db 87 be 8f 9a 93 bf f6 c9 8c 3e
       -0.29462573 -0.2653489 -1.1531543 0.27497834
0001a0 d4 a8 e0 3e df 7d 1d be 00 7f 30 bf 35 57 c9 bd
       0.43878806 -0.15380047 -0.68943787 -0.098310865
0001b0 26 76 e4 be 6e 1c bb 3d 7c 43 07 bf 8b 58 79 bf
       -0.4462139 0.09136282 -0.5283735 -0.9740073
0001c0 97 9a 10 3e a7 12 ac be e4 9c 87 be f7 85 9a bf
       0.14121471 -0.3360798 -0.26486886 -1.2072133
0001d0 16 7d 1b bf 2a d7 19 3d cc 5a 3c 3e be 0d 61 be
       -0.6073774 0.037558712 0.18394011 -0.21977898
0001e0 9a bf 39 bf 84 56 38 bf b1 0c 20 bf 15 2e a2 3e
       -0.72557986 -0.7200701 -0.62519366 0.31675783
0001f0 fc 69 8f bf 9b 9d be be fd 84 64 be 1c 25 2c be
       -1.1204219 -0.37229618 -0.22316356 -0.16811031
000200 04 bd 19 bf 0f 7a a3 bc c5 a7 76 3e ac ca 58 bf
       -0.6005404 -0.019955663 0.24087436 -0.8468425
000210 e4 d8 32 bf 3c be f0 be 28 94 0e be 90 69 6f be
       -0.698622 -0.47020137 -0.13923705 -0.23380113
000220 8c aa d0 3e 30 ba c9 3e cc 65 67 3d ac e6 73 bf
       0.40755117 0.39399862 0.056493565 -0.9527385
000230 d2 56 91 be 01 14 5d be 19 e3 14 bf 14 49 c8 be
       -0.2838655 -0.21589662 -0.58159024 -0.39118254
000240 84 7d 3b bf 82 6c 8f bf 72 61 15 bf 69 cd 3f bf
       -0.73238397 -1.1204989 -0.58351815 -0.74922806
000250 cc b0 9f 3e bb a2 7c bf 64 ba 23 bf 98 fd c1 be
       0.31189573 -0.98685807 -0.63956285 -0.3788879
000260 52 ec 95 3e a6 03 2c 3b c8 08 af be 58 d0 0e bf
       0.2928186 0.0026247292 -0.34186387 -0.5578666
000270 2e d4 ef bd d6 57 6e bf 8d e3 8e 3e e9 cf d7 3e
       -0.11710392 -0.93102777 0.27907982 0.4215081
000280 b4 eb 54 bf e4 9c 8f be a3 1d 2e bf 8d b7 55 bf
       -0.83172154 -0.28049386 -0.6801397 -0.834832
000290 ad ca c8 3e e8 45 c6 3d 9b 5e f7 be 8c ae 23 bf
       0.3921713 0.09681302 -0.48314366 -0.6393821
0002a0 7d 3e 7b bf f4 69 5e 3e 5a 73 58 bf 0c 21 96 3e
       -0.98142225 0.21720105 -0.8455101 0.29322088
0002b0 5d 26 54 3e e8 c1 4e be dd 4e 2e bf ff c8 99 be
       0.2071776 -0.20191157 -0.68089086 -0.3003616
0002c0 21 11 9d 3e 60 d9 b0 3e 4d 8f 0b bf 2c 6e 08 bf
       0.3067713 0.34540844 -0.54515535 -0.5329311
0002d0 ef 44 18 3e 72 25 4d 3e 62 06 7b bf 6e 0d 7c bf
       0.14870046 0.20033816 -0.98056614 -0.9845799
0002e0 93 ef 92 bd 17 76 9d 3d 74 9c 2d 3e fa 60 fb 3e
       -0.071746014 0.076885395 0.16954213 0.49097425
0002f0 5b db 15 bd 34 f8 94 3e b4 cc c7 bc 53 f7 6f 3e
       -0.036586147 0.29095614 -0.024389602 0.2343419
000300 27 24 65 bf 6c 38 be 3e 6c bf 51 bf 96 89 82 bf
       -0.8950829 0.3715242 -0.8193271 -1.0198238
000310 3a f4 ac be cc 04 a6 bd 3c ff ba 3d e0 8e 9e bf
       -0.3378008 -0.08106384 0.09130713 -1.2387352
000320 a9 62 06 3e 41 5e 01 bf 96 b2 80 bd 1b 34 8b bf
       0.13123573 -0.50534445 -0.062840626 -1.0875276
000330 a6 c5 20 be 82 d3 a6 be 12 42 a3 3e 64 97 14 bf
       -0.15700397 -0.32583243 0.31886345 -0.58043504
000340 04 6f 83 3d e2 68 5a bf ac 47 3f bf 1c ff 58 3e
       0.06417659 -0.8531629 -0.7471874 0.21191067
000350 ff 82 f4 be a5 16 10 3e 1f 1e 7c 3e b3 f9 60 3d
       -0.47756192 0.14071138 0.24620865 0.05492563
000360 b2 0b 5b be aa 37 93 bb a5 4a 30 bf 96 f4 1f bf
       -0.2139118 -0.0044927197 -0.688639 -0.62482584
000370 41 95 86 3d ec 48 73 be 64 25 8a be 3c 19 f2 be
       0.06571437 -0.23758286 -0.26981652 -0.47284877
000380 4c 81 38 bf fd 4a c1 be b9 dc 62 bd 03 4d 04 bf
       -0.7207229 -0.37752524 -0.05538628 -0.5168001
000390 1e d0 f5 be 75 5f fe bd 91 9a ad 3e 15 c3 d4 be
       -0.48010343 -0.12420551 0.33906987 -0.41555086
0003a0 b6 e9 10 3e 37 4a f6 be 42 dd 48 3d f5 a2 03 bc
       0.14151654 -0.48103496 0.049039133 -0.008034457
0003b0 3b 18 77 3e 0a 72 fc 3d a1 be ad be 52 59 bb 3e
       0.24130337 0.12326439 -0.339345 0.36591583
0003c0 ab 2b 47 3e ba 40 da be 90 5e 4d bf 94 2c a8 3e
       0.19450252 -0.42627507 -0.80222416 0.3284651
0003d0 3a 06 ec be 96 8b b8 be 7b 2c 23 bf 02 84 16 bf
       -0.460985 -0.36043996 -0.63739747 -0.5879518
0003e0 5c a4 e6 3d 75 82 94 be 19 a4 0c bf dd 73 b1 3d
       0.11261818 -0.2900578 -0.54937893 0.08664677
0003f0 60 1f d9 bd a0 e1 18 bf 0b 52 01 bf d6 1c 49 3e
       -0.106016874 -0.59719276 -0.5051581 0.19639906

linear2.bias f4 [10]
000000 5a bf 70 be 27 4b 25 3e db a3 08 be ae d0 2b 3d
       -0.23510495 0.1614195 -0.13343756 0.04194706
000010 b8 22 8d bd 79 a6 23 3d ce eb 1f be 9b 5f a8 bd
       -0.06891388 0.039953683 -0.15617296 -0.0822136
000020 a8 59 c6 3d f6 b8 4f 3e
       0.09685069 0.20285401
