research/differential_privacy/multiple_teachers/checkpoint/mnist_10_teachers_2.pth (torch_old, 139301 bytes, 20 tensors)

conv1.weight f4 [16, 1, 5, 5]
0	0xbd8ecd4b	-0.0697275
1	0x3d9d886e	0.076920375
2	0xbe10935a	-0.1411871
3	0x3d241080	0.040054798
4	0xbdfd69bf	-0.12373685
5	0xbdc6d4f5	-0.09708587
6	0x3db43b35	0.08800355
7	0x3d901ba2	0.070365205
8	0x3d12abf8	0.035808533
9	0xbe5ad68d	-0.21370907
10	0x3de1f508	0.11033064
11	0x3e1456ab	0.14486186
12	0xbe3c0314	-0.18360549
13	0xbe759387	-0.23982058
14	0xbdde7149	-0.10861451
15	0x3d273548	0.040822297
16	0x3e8a7ecc	0.27049863
17	0x3d51a254	0.0511802
18	0x3e2c1ba6	0.16807422
19	0x3c1c7461	0.009549231
20	0xbd8403b0	-0.06446016
21	0x3e99f29b	0.30067906
22	0x3e108811	0.14114405
23	0xbbdd2847	-0.006749186
24	0x3ea77dc0	0.32713127
25	0xbdcf39ff	-0.10118484
26	0xbe11013a	-0.14160624
27	0xbddd8027	-0.10815459
28	0xbca5ddfd	-0.020247454
29	0x3eb237fa	0.34808332
30	0x3dabe33d	0.08392952
31	0x3d3ecd9e	0.04658281
32	0x3c9dd1b8	0.01926504
33	0xbe27efd6	-0.16400084
34	0xbea0556e	-0.31315178
35	0x3e616e36	0.22014698
36	0x3e0245b4	0.12721902
37	0xbd951ee9	-0.07281286
38	0xbea58b1e	-0.323327
39	0xbe03b937	-0.12863623
40	0xbe6cb3ad	-0.23115416
41	0xbe9b5290	-0.30336428
42	0xbb1d4fca	-0.0024003857
43	0xbd4fb15d	-0.050706256
44	0x3c98448e	0.018587377
45	0xbddbfcbc	-0.10741565
46	0x3e438907	0.1909524
47	0x3e7c3fff	0.24633788
48	0x3e614102	0.21997455
49	0x3cf21e12	0.029555354
50	0xbe987a36	-0.2978074
51	0xbe4b2410	-0.19837976
52	0xbdbcb803	-0.09214785
53	0xbe38c76e	-0.18044826
54	0x3ab14796	0.0013525363
55	0x3cd18ad9	0.025578903
56	0xbdee8aca	-0.11647566
57	0xbe319b65	-0.17344435
58	0xbd0e1fdf	-0.034698363
59	0x3e1a511b	0.15070002
60	0x3d8ba372	0.06818284
61	0x3d98d361	0.07462192
62	0x3e7a17b0	0.24423099
63	0xbd805818	-0.062668025
64	0x3d0c3663	0.034231555
65	0xbe2d5ac7	-0.1692916
66	0xbdd1f103	-0.102510475
67	0xbe107e0d	-0.14110585
68	0x3e2096f5	0.15682586
69	0xbe1b78df	-0.15182827
70	0xbe2c8212	-0.16846493
71	0xbebe022b	-0.3711103
72	0xbe8deddc	-0.27720535
73	0xbe1e9386	-0.15485963
74	0xbe34251d	-0.17592283
75	0x3db8c167	0.090212636
76	0x3e11c6c9	0.14235987
77	0x3d948cc1	0.07253409
78	0xbdaf6702	-0.08564569
79	0xbea73dc5	-0.32664314
80	0xbdb8c8dd	-0.09022687
81	0xbe1d90c5	-0.15387256
82	0xbe2fcf7a	-0.1716899
83	0xbeb8b6c9	-0.36076954
84	0xbe8d862f	-0.27641436
85	0xbe377b3f	-0.17918108
86	0xbe58ffa4	-0.21191269
87	0xbe93e204	-0.28883374
88	0xbe918b02	-0.28426367
89	0xbd07a761	-0.03311861
90	0x3d5deb5d	0.054179538
91	0xbe87a079	-0.26489618
92	0xbdba632d	-0.091009475
93	0xbeb3ee6d	-0.35142842
94	0xbdafc501	-0.085824974
95	0x3e088ede	0.1333575
96	0xbdc1b0f4	-0.09457579
97	0xbd5b6b65	-0.053569216
98	0xbe8c6276	-0.2741887
99	0x3e2e7b2a	0.17039171
100	0xbe0a0d1e	-0.13481566
101	0xbe9aaa81	-0.3020821
102	0xbc910b7d	-0.017705673
103	0xbe833914	-0.25629485
104	0xbe8e8ab7	-0.27840206
105	0xbecadbf0	-0.39620924
106	0xbe79660d	-0.24355336
107	0xbea3a36c	-0.31960618
108	0xbe78e190	-0.24304795
109	0xbe44c556	-0.19215903
110	0xbc3d3f19	-0.011550688
111	0xbccb1f8b	-0.024795314
112	0xbd18a3cb	-0.03726558
113	0x3d8f49ec	0.06996521
114	0xbc9cc1b4	-0.019135334
115	0x3d820bda	0.06349917
116	0x3e71d707	0.23617183
117	0xbd45af34	-0.04826279
118	0xbdb89b86	-0.09014039
119	0x3e7dae15	0.24773438
120	0x3e2db72e	0.16964409
121	0xbd4af952	-0.049554177
122	0x3e26e44e	0.16298029
123	0x3e11adae	0.1422641
124	0x3e1d85ed	0.1538312
125	0x3d133ffb	0.03594969
126	0x3da6b445	0.081398524
127	0x3e0d1a29	0.1377951
128	0x3c6acbd3	0.014330822
129	0xbcaabfc4	-0.020843394
130	0x3d0a7a5f	0.03380811
131	0xbdaf0c87	-0.08547311
132	0x3e7b9ca2	0.2457147
133	0xbd6578dd	-0.056023467
134	0x3dc2efde	0.09518407
135	0xbeb473d8	-0.35244632
136	0x3d8f90e2	0.07010056
137	0x3e56e55f	0.20985936
138	0x3e971fb6	0.2951638
139	0xbe103162	-0.14081338
140	0xbe0f6e16	-0.14006838
141	0xbe4bbcb6	-0.19896206
142	0x3e0ed0bb	0.13946812
143	0x3e68763d	0.22701354
144	0x3dc6ad38	0.097010076
145	0xbe20eadf	-0.15714596
146	0xbe267e46	-0.16259107
147	0x3c3f1bf7	0.011664382
148	0x3eb2b6a9	0.34904984
149	0x3e27f972	0.1640375
150	0x3d98e220	0.07465005
151	0x3db92f18	0.090421855
152	0xbd0ae5dd	-0.03391062
153	0xbdb65d49	-0.089045115
154	0xbdc3df2a	-0.095640495
155	0x3d201032	0.039077945
156	0x3dbbfefe	0.09179495
157	0x3e2b1f25	0.167111
158	0x3e6adb12	0.22935131
159	0x3e22b7af	0.15890382
160	0xbe13ea86	-0.14444932
161	0xbc3143a2	-0.010819348
162	0x3de1210b	0.109926306
163	0x3c23df6b	0.010001997
164	0x3e14760a	0.14498153
165	0xbe1e72b5	-0.15473445
166	0xbcad5a59	-0.021161245
167	0x3d6091a1	0.054826383
168	0xbdf28b0c	-0.11842927
169	0xbd43cc00	-0.04780197
170	0xbde37894	-0.11106983
171	0xbe1f2ef8	-0.15545261
172	0xbebd6546	-0.36991328
173	0xbe1691da	-0.14704075
174	0xbe9c1ecc	-0.30492246
175	0xbc62a109	-0.013832339
176	0xbca74244	-0.02041734
177	0x3e358478	0.17726314
178	0x3d06fdf5	0.032957036
179	0x3e0174ba	0.12642184
180	0xbe5e6da7	-0.21721517
181	0x3da7e2b4	0.08197537
182	0xbea1401f	-0.31494233
183	0x3d7c749e	0.061634652
184	0xbeb501e1	-0.35352996
185	0x3de3ea81	0.111287124
186	0xbdf1dcd3	-0.11809697
187	0xbcb8c77f	-0.022556065
188	0xbe7ce207	-0.24695598
189	0xbdd70768	-0.104994595
190	0xbedf0dd9	-0.43565252
191	0xbe2e492b	-0.17020099
192	0xbe87305b	-0.2640408
193	0xbc2deb33	-0.010615158
194	0x3de903d2	0.11377682
195	0xbe22bad9	-0.15891589
196	0xbdf8e4b4	-0.12152997
197	0xbdd585ff	-0.10425948
198	0x3ce3e883	0.027820831
199	0x3bbdd46b	0.0057931445
200	0xbed41e6c	-0.4142946
201	0x3d4004a1	0.046879414
202	0x3e267e49	0.16259111
203	0xbd23da7f	-0.040003296
204	0x3d27665e	0.04086911
205	0xbc958e92	-0.01825646
206	0x3ead0d94	0.33799422
207	0x3dcd8526	0.10035162
208	0xbe6e2f62	-0.23260263
209	0xbe031bdd	-0.12803598
210	0x3d832988	0.06404406
211	0x3d1a6f38	0.037703723
212	0x3d15ff35	0.036620338
213	0xbe9da85f	-0.3079252
214	0xbe7c9f97	-0.24670254
215	0x3de234d5	0.11045233
216	0xbe91ac9e	-0.2845201
217	0xbddac249	-0.10681588
218	0xbdfbcf0f	-0.12295353
219	0x3d76896f	0.06018966
220	0xbe4fde9b	-0.20299761
221	0xbd5c25d0	-0.053747
222	0x3c869e67	0.016432954
223	0x3dac46e0	0.08411956
224	0x3de4d5b6	0.111735746
225	0x3dfca7da	0.12336703
226	0x3e4570da	0.1928133
227	0x3e2900a6	0.16504154
228	0x3e67744c	0.22602957
229	0x3ea994cc	0.33121336
230	0xbda6b461	-0.08139873
231	0xbcd5b397	-0.026086612
232	0x3d33690e	0.04380136
233	0xbcde4a70	-0.027135104
234	0x3e5718d7	0.2100557
235	0xbe13f3c2	-0.14448455
236	0x3c97eeaa	0.018546421
237	0x3d15340a	0.03642658
238	0xbe02190e	-0.1270487
239	0x3cc4f5fa	0.024043072
240	0xbed247b7	-0.4107034
241	0xbe537a52	-0.2065213
242	0xbcc0bd3a	-0.02352773
243	0xbd5be6ba	-0.053686835
244	0x3d555f46	0.052092813
245	0xbe388b86	-0.18021974
246	0xbd7e793d	-0.06212734
247	0xbe53ba1c	-0.20676464
248	0xbe8faff2	-0.28063923
249	0xbe181b53	-0.14854173
250	0x3d13c939	0.036080573
251	0xbd986cfa	-0.07442661
252	0xbe1d2d84	-0.15349394
253	0x3da2a1a5	0.079409875
254	0xbe9742d8	-0.29543185
255	0xbded1a40	-0.115772724

conv1.bias f4 [16]
0	0x3e376770	0.17910552
1	0xbdd50136	-0.104006216
2	0x3dd94933	0.10609665
3	0xbd982cfc	-0.07430455
4	0xbd8717db	-0.06596347
5	0x3d9dab5a	0.07698698
6	0x3d02f758	0.031974167
7	0xbe1880f0	-0.14892936
8	0xbcd9f13a	-0.026604284
9	0xbd7167af	-0.05893677
10	0x3e495f64	0.19665295
11	0x3d861f4a	0.06548937
12	0x3dad5c08	0.08464819
13	0xbd88cd4c	-0.06679782
14	0x39f7df14	0.00047277717
15	0x3e134fbc	0.14385885

batchnorm1.weight f4 [16]
0	0x3ea897ed	0.3292841
1	0x3e6f713f	0.23383044
2	0x3e30fde2	0.17284349
3	0x3f4098d6	0.7523321
4	0x3f006b13	0.5016338
5	0x3ea2b24f	0.31776664
6	0x3f690ed5	0.91038257
7	0x3d696c49	0.056988034
8	0x3f7ca4e2	0.9868909
9	0x3f7fe7d1	0.999631
10	0x3d8d3ea0	0.068967104
11	0x3f1b6f45	0.6071666
12	0x3ec56600	0.38554382
13	0x3f0e9bea	0.55706656
14	0x3f80d9d4	1.0066476
15	0x3f54ed8c	0.8317497

batchnorm1.bias f4 [16]
0	0xbe8a8846	-0.27057093
1	0xbde31773	-0.11088457
2	0xbe49ceb0	-0.19707751
3	0xba95f71b	-0.0011441441
4	0x3d1de2e1	0.038546447
5	0xbe5b38ef	-0.21408437
6	0x3c8a579e	0.016887482
7	0xbe58f199	-0.21185912
8	0xbec6e0ad	-0.3884329
9	0x3dd6f2b5	0.104955114
10	0xbde8e11c	-0.11371061
11	0xbea8c6df	-0.32964227
12	0xbe0dd973	-0.13852482
13	0xbea658c4	-0.32489598
14	0xbde3395e	-0.11094926
15	0xbe811414	-0.2521063

batchnorm1.running_mean f4 [16]
0	0x41f8453e	31.03381
1	0xc1c82b31	-25.02109
2	0xc2c104bc	-96.50925
3	0xc30c5980	-140.34961
4	0xc27e5b78	-63.589325
5	0x4220a28e	40.158745
6	0xc1ff93ae	-31.94711
7	0xc2b34593	-89.63589
8	0xc1af835f	-21.939146
9	0xc200bef2	-32.18647
10	0xc2b97b0f	-92.74035
11	0xc1982b20	-19.021057
12	0xbff65bd7	-1.9246777
13	0xc17eadd0	-15.917435
14	0xc2be510f	-95.15832
15	0xc0d19226	-6.5490904

batchnorm1.running_var f4 [16]
0	0x45bf0077	6112.058
1	0x458a2a15	4421.2603
2	0x4684aae0	16981.438
3	0x473a0133	47617.2
4	0x46af980a	22476.02
5	0x4623189e	10438.154
6	0x45e21420	7234.5156
7	0x46936230	18865.094
8	0x458e017a	4544.1846
9	0x4652ea13	13498.519
10	0x46818cef	16582.467
11	0x4578c56e	3980.3394
12	0x45adda54	5563.291
13	0x4525822a	2648.1353
14	0x46d5873b	27331.615
15	0x458ed94d	4571.1626

conv2.weight f4 [16, 16, 5, 5]
0	0xbdf8bee5	-0.12145785
1	0xbd1ebe5c	-0.03875576
2	0xbd756970	-0.059915006
3	0xbd46f839	-0.048576567
4	0x3dbc2deb	0.09188446
5	0x3d45b748	0.048270494
6	0x3d138897	0.036018934
7	0x3c1f0bb9	0.009707385
8	0x3c98472c	0.018588625
9	0x3df2f0d1	0.11862338
10	0x3d3c9b55	0.046046574
11	0xbd9b09a9	-0.07570202
12	0xbdcaba72	-0.09898843
13	0xbdfc86b5	-0.12330381
14	0xbe04a29d	-0.12952657
15	0xbccc0221	-0.024903359
16	0xbd2d8f2d	-0.04237287
17	0x3e15962a	0.14608064
18	0x3b6ffb57	0.0036618316
19	0xbdd56373	-0.10419359
20	0xbd603d9a	-0.054746248
21	0x3db58093	0.08862414
22	0x3e678e94	0.22612983
23	0x3e68dcd3	0.22740488
24	0x3c50cb40	0.012743771
25	0x3ded1fab	0.11578306
26	0x3e87fd7a	0.26560575
27	0x3e2e7a8f	0.1703894
28	0x3de285e0	0.11060691
29	0x3dcd5c1c	0.10027334
30	0x3d7974df	0.060902473
31	0x3dc51e75	0.0962495
32	0x3dd0fdda	0.10204668
33	0xbce834b3	-0.028345441
34	0xbddf9a5a	-0.10918112
35	0xbddc04ad	-0.10743079
36	0xbd15ecc2	-0.036602743
37	0xbdebb72c	-0.11509547
38	0xbd4a647b	-0.049412232
39	0x3c25ec2a	0.010127107
40	0xbc00c931	-0.007860468
41	0x3d8a4918	0.06752223
42	0x3e495646	0.19661817
43	0x3da3807b	0.0798349
44	0x3dd38f9e	0.10330127
45	0xbd38db60	-0.045131087
46	0xbd85f0c2	-0.065400615
47	0xbbb22139	-0.0054360894
48	0x3d0d7704	0.03453733
49	0x3e21df0b	0.1580774
50	0xbd80aebb	-0.06283327
51	0xbdf99f28	-0.1218856
52	0xbc50a4c2	-0.012734594
53	0x3c88412b	0.016632637
54	0x3c4b7825	0.012418781
55	0xbe8e85f9	-0.27836588
56	0xbde19f5c	-0.110167235
57	0xbbb21889	-0.0054350537
58	0x3cf60937	0.03003369
59	0xbd8b1d7c	-0.06792733
60	0xbe3c6e50	-0.18401456
61	0xbe3006c8	-0.17190087
62	0xbe4d8617	-0.20070682
63	0xbe1e6c5e	-0.15471026
64	0xbd0a1a00	-0.0337162
65	0xbe603059	-0.21893443
66	0xbe91b758	-0.28460193
67	0xbdf9f731	-0.12205351
68	0x3aeaee4b	0.00179238
69	0x3dff60d1	0.12469638
70	0xbc3aed5c	-0.01140913
71	0xbcbdd5ce	-0.02317324
72	0x3d2c8233	0.042116355
73	0x3e1664d7	0.14686905
74	0x3e6bfe33	0.23046188
75	0x3dd18c0f	0.10231792
76	0x3d65a0ab	0.056061428
77	0x3e5cdd07	0.2156869
78	0x3e329a5a	0.17441693
79	0x3dc8f3e7	0.09812146
80	0xbc9e79c7	-0.019345177
81	0x3d12d294	0.035845354
82	0x3d21ee2d	0.039533783
83	0xbe051b17	-0.12998615
84	0xbdf488f0	-0.11940181
85	0xbd674a4a	-0.056467332
86	0xbe4994ac	-0.1968562
87	0xbd16e5b7	-0.036840167
88	0x3b8d8884	0.0043192524
89	0xbd95d02b	-0.073150955
90	0xbd060d68	-0.03272763
91	0xbe3fd7ac	-0.18734616
92	0xbd8796d7	-0.06620567
93	0xbdd3b460	-0.10337138
94	0xbdeb0df1	-0.114772685
95	0xbab19430	-0.0013548192
96	0xbe1722a0	-0.14759302
97	0xbda76a4c	-0.081745714
98	0xbdbd775c	-0.092512816
99	0x3ce23a90	0.027615815
100	0x3d965396	0.073401615
101	0xbc37e2ce	-0.011223508
102	0x3dc5bf34	0.0965561
103	0x3e6f6401	0.23377992
104	0x3e6ec26f	0.23316358
105	0x3cbc0802	0.022953037
106	0x3d4bfe99	0.04980335
107	0x3d36fc35	0.044674117
108	0x3d636a48	0.05552128
109	0xbc908c1a	-0.01764493
110	0xbda62022	-0.081115976
111	0xbda9b7e5	-0.08287028
112	0xbe1f1f84	-0.15539366
113	0xbeb35e79	-0.35033014
114	0xbea6ed34	-0.32602847
115	0xbe14bcfa	-0.14525214
116	0xbe4e1fa1	-0.20129253
117	0xbe002cda	-0.1251711
118	0xbdac27f1	-0.08406056
119	0xbdaeb1b6	-0.085299894
120	0xbdfacfd8	-0.12246674
121	0xbe63353e	-0.22188279
122	0xbda3e3cc	-0.08002433
123	0x3dfbe54a	0.12299593
124	0x3dc897fb	0.09794613
125	0xbe8813c5	-0.26577583
126	0xbe2e2963	-0.17007975
127	0xbdcf9a69	-0.10136873
128	0xbe67dd14	-0.22642928
129	0xbd5d406e	-0.054016523
130	0xbe6c3e0e	-0.23070547
131	0xbe4d9973	-0.20078067
132	0xbdf3d1ce	-0.119052514
133	0xbe16682f	-0.1468818
134	0xbc07a232	-0.0082784165
135	0x3d81b57f	0.06333446
136	0x3d36f1d1	0.044664208
137	0xb9f733c8	-0.0004715009
138	0xbce438bc	-0.027859084
139	0x3d9501f4	0.07275763
140	0x3e1487e3	0.14504962
141	0x3e907add	0.28218737
142	0x3a553bea	0.0008134233
143	0xbe102c0f	-0.14079307
144	0xbdc3aef9	-0.09554858
145	0x3e1e2f0b	0.15447633
146	0x3e7ba39f	0.24574135
147	0x3d6d9c75	0.058010537
148	0xbe095252	-0.13410309
149	0xbe1f79c5	-0.15573795
150	0xbd937b93	-0.07201304
151	0xbca78a8d	-0.020451808
152	0xbd5a09cb	-0.053231996
153	0xbdbbd589	-0.09171588
154	0xbe29dcf7	-0.16588198
155	0xbe21b4b8	-0.15791595
156	0x3c60c186	0.013718015
157	0xbd922339	-0.071356244
158	0xbd4b544c	-0.04964094
159	0x3d302e27	0.043012764
160	0xbe2f83e2	-0.17140153
161	0xbead658c	-0.33866537
162	0xbdf940e4	-0.1217058
163	0xbd0ead32	-0.03483314
164	0x3dec759b	0.11545869
165	0xbdc921a9	-0.09820873
166	0xbe3696ed	-0.17831011
167	0xbe088816	-0.13333163
168	0xbd2b5017	-0.041824427
169	0x3e43c237	0.19117056
170	0x3d57b913	0.052666735
171	0x3d4369eb	0.047708433
172	0x3cd3d1ea	0.02585693
173	0xbd838794	-0.06422344
174	0xbc2f87d8	-0.01071354
175	0x3d6eea9e	0.058329217
176	0xbd8be632	-0.06831016
177	0xbe041c23	-0.12901358
178	0xbd7a525c	-0.0611137
179	0xbd2a948e	-0.04164558
180	0xbc7e5e9b	-0.015525485
181	0xbe3f4480	-0.18678474
182	0xbe4e3b16	-0.20139727
183	0xbbb57695	-0.0055378177
184	0xbc50d36b	-0.0127457185
185	0xbdfb21a2	-0.12262274
186	0xbe280248	-0.1640712
187	0xbe00b907	-0.12570582
188	0xbd83be79	-0.06432814
189	0xbd9b79c0	-0.07591581
190	0xbe2d7e9c	-0.16942829
191	0xbe0fc8df	-0.1404147
192	0xbd70a6d0	-0.058752835
193	0x3d1e058e	0.038579516
194	0xbda52dda	-0.08065386
195	0xbe192746	-0.14956388
196	0xbe15e0fd	-0.14636607
197	0xbda4320a	-0.08017357
198	0x3d0aa8ea	0.033852495
199	0x3e3d1941	0.18466665
200	0x3d6bbf89	0.05755571
201	0x3e3f85a4	0.18703324
202	0x3e6c8072	0.23095873
203	0xbdfd7570	-0.12375915
204	0xbd9d9d7f	-0.076960556
205	0x3e4d8a37	0.20072256
206	0x3e94f19c	0.29090583
207	0x3e08b252	0.13349274
208	0xbdb09823	-0.08622768
209	0x3ceca85b	0.028888872
210	0x3e81274b	0.2522529
211	0x3ec7a985	0.3899652
212	0x3d8bdc55	0.068291344
213	0x3cefb6a9	0.029261904
214	0x3da1edd1	0.07906688
215	0x3e357b87	0.17722903
216	0x3e4e5f47	0.20153533
217	0x3dd5d52b	0.10441049
218	0x3e02c9fd	0.12772365
219	0x3d446334	0.04794617
220	0x3cad1c4b	0.021131655
221	0xbe3460f7	-0.17615114
222	0x3dc0c372	0.09412278
223	0x3d93c643	0.0721555
224	0x3e5237ac	0.2052905
225	0xbe0df891	-0.13864352
226	0xbe66337f	-0.22480582
227	0xbe4dfcb6	-0.20115933
228	0xbe4edfd5	-0.20202573
229	0xbe1675e7	-0.14693414
230	0xbe9c5e13	-0.30540523
231	0xbecbbdfb	-0.3979338
232	0xbe9e15f8	-0.30876136
233	0xbd91657f	-0.07099437
234	0x3c9d5b98	0.019208714
235	0xbe3920bc	-0.18078893
236	0xbeb45f76	-0.3522908
237	0xbe6d56d6	-0.23177657
238	0xbd95466d	-0.07288823
239	0x3b810cb1	0.0039382805
240	0x3daa47c8	0.083144724
241	0xbe2a11d1	-0.16608359
242	0xbe2c0f49	-0.16802706
243	0xbb72fcc1	-0.0037076923
244	0x3d36d2fa	0.044634797
245	0x3e29b699	0.16573562
246	0xbd8a81cb	-0.06763037
247	0xbe1b8140	-0.15186024
248	0xbd0db5c5	-0.034597177
249	0xbc4756a0	-0.012166649
250	0x3b909eb5	0.0044134506
251	0xbc52aa14	-0.012857933
252	0x3d400e71	0.046888772
253	0xbe1b69d3	-0.15177087
254	0xbe0bccd1	-0.1365235
255	0xbda2ff87	-0.07958894

conv2.bias f4 [16]
0	0x3e620fa1	0.22076274
1	0xbce28b68	-0.027654365
2	0xbe54bb2f	-0.2077453
3	0x3dbef380	0.09323788
4	0xbd717cbe	-0.058956854
5	0x3c658863	0.014009568
6	0xbd51c259	-0.051210735
7	0xbd82c25a	-0.06384726
8	0x3d7cc828	0.06171432
9	0xbe11f6ef	-0.14254354
10	0x3bed6bbe	0.00724551
11	0x3d60a84c	0.054848
12	0x3e22bbe8	0.15891993
13	0xbd5e8449	-0.054325376
14	0x3d8f7421	0.07004572
15	0x3e078c3b	0.13237087

batchnorm2.weight f4 [16]
0	0x3eb6c287	0.35695288
1	0x3ec59c35	0.3859574
2	0x3eefc86c	0.46832597
3	0x3ebc4da0	0.36777973
4	0x3f07f41b	0.5310685
5	0x3ed1c0c5	0.40967384
6	0x3f41a6c4	0.7564509
7	0x3f1e5bff	0.61859125
8	0x3f4ad14e	0.79225624
9	0x3f41de7f	0.7573013
10	0x3ea53dbd	0.32273665
11	0x3f0011b4	0.5002701
12	0x3e97ca23	0.29646406
13	0x3edbb993	0.4291502
14	0x3e7e0c9a	0.24809495
15	0x3e567032	0.20941237

batchnorm2.bias f4 [16]
0	0xbdcdafd0	-0.10043299
1	0x3dff35d1	0.124614365
2	0xbd707e40	-0.05871415
3	0xbe00cf17	-0.12578999
4	0x3bbf7187	0.005842391
5	0xbdd9ab8b	-0.10628422
6	0xbe3da7b5	-0.18521006
7	0xbe9e5729	-0.30925873
8	0xbe71ad5b	-0.23601286
9	0xbd82cc99	-0.0638668
10	0xbdaf28b7	-0.085526876
11	0xbe1f2dac	-0.15544766
12	0xbe1027c5	-0.14077671
13	0xbe2b249f	-0.16713189
14	0xbd9b9416	-0.075966045
15	0xbc555c04	-0.0130224265

batchnorm2.running_mean f4 [16]
0	0xbf556e52	-0.8337146
1	0xbf8eff7f	-1.1171721
2	0xbf05596b	-0.52089566
3	0xbe9b363f	-0.30314824
4	0xbf86607e	-1.0498197
5	0xbd2b749c	-0.041859254
6	0xbe65f980	-0.22458458
7	0xbf957c0c	-1.1678481
8	0xc003e95b	-2.061118
9	0xbff99b65	-1.9500548
10	0x3e9e0d97	0.30869743
11	0xbf9c8032	-1.2226622
12	0xc017e165	-2.373132
13	0xbf598c6e	-0.84979904
14	0x3f6e17c8	0.9300504
15	0x400e5d7e	2.2244563

batchnorm2.running_var f4 [16]
0	0x402a174d	2.6576722
1	0x3fe2c7ff	1.7717284
2	0x408c40ce	4.3829107
3	0x3ff76843	1.9328693
4	0x4056f5b7	3.3587472
5	0x3fe23a6c	1.7674079
6	0x40148ae5	2.3209774
7	0x407dfaa7	3.9684236
8	0x403dd4b6	2.9661078
9	0x4071a567	3.7757204
10	0x402f7dd3	2.7420547
11	0x4082db0c	4.089239
12	0x4035e926	2.8423553
13	0x405e9cb3	3.4783142
14	0x4029a274	2.6505404
15	0x403f337f	2.987518

linear1.weight f4 [100, 256]
0	0x3db1803c	0.08667037
1	0x3cf5f78d	0.030025268
2	0xbe126600	-0.14296722
3	0x3d0c0a17	0.03418931
4	0x3e0c17fa	0.13681021
5	0x3deca037	0.11553996
6	0xbe1cf245	-0.15326793
7	0xbd92a8cb	-0.07161101
8	0x3e4403a6	0.19142017
9	0x3dcac686	0.099011466
10	0x3e2ac586	0.16676912
11	0x3db3fcb4	0.08788434
12	0x3e859f9d	0.26098338
13	0x3e5a6ad9	0.21329822
14	0x3e7eeebb	0.24895756
15	0xbdb0417e	-0.08606242
16	0xbd683690	-0.05669266
17	0xbe84cfda	-0.25939828
18	0xbddff018	-0.10934466
19	0xbe234c52	-0.15947083
20	0xbe0488ae	-0.12942764
21	0xbe0426a4	-0.12905365
22	0xbd9ee82f	-0.07759129
23	0xbeaadba9	-0.33370712
24	0xbd3cf70e	-0.046134047
25	0x3ef48fff	0.4776611
26	0xbd3c5e8c	-0.045988604
27	0xbe1367ed	-0.14395113
28	0xbe1b61fe	-0.151741
29	0x3e38c85e	0.18045184
30	0xbe838e27	-0.2569439
31	0xbc5a8e73	-0.013339627
32	0x3bccc580	0.00624913
33	0xbe00f41d	-0.12593122
34	0x3c908e62	0.017646018
35	0x3e8520eb	0.26001677
36	0x3d958706	0.07301144
37	0x3dcb62b5	0.09930936
38	0x3e529ac1	0.20566846
39	0x3e080e1f	0.13286637
40	0xbd9f906a	-0.07791217
41	0xbd98bdbe	-0.074580655
42	0x3ded60fe	0.115907654
43	0xbdecd40d	-0.11563883
44	0xbc33d47a	-0.010975951
45	0xbda5a580	-0.08088207
46	0x3df34d59	0.11879987
47	0xbde7489a	-0.112931445
48	0x3d0a1e6f	0.03372043
49	0x3d380f6a	0.044936575
50	0xbd81c101	-0.06335641
51	0x3e1c274b	0.15249364
52	0x3ce3436c	0.02774211
53	0x3e2a8dfd	0.16655727
54	0x3db45b16	0.08806436
55	0xbcc3ca96	-0.023900311
56	0xbd9b90b8	-0.07595962
57	0xbd6df5c9	-0.058095727
58	0x3d282ae9	0.041056547
59	0x3c533b2f	0.012892528
60	0xbe061e9f	-0.13097619
61	0x3d8408b5	0.06446973
62	0xbbe5d92f	-0.0070144157
63	0x3e36f8c6	0.17868337
64	0xbd4ef14c	-0.050523087
65	0x3e1a6458	0.1507734
66	0x3ca0992d	0.01960429
67	0xbc5cbfff	-0.01347351
68	0xbe016742	-0.12637046
69	0xbdf032e2	-0.11728455
70	0x3e08b2b5	0.13349421
71	0x3d9e1cd2	0.07720341
72	0xbea5fb63	-0.32418355
73	0xbd992512	-0.07477774
74	0x3d8285bf	0.06373166
75	0x3da928ff	0.082597725
76	0x3db5fa18	0.08885592
77	0x3e5583b1	0.20851018
78	0x3e9aad5b	0.30210385
79	0x3e862e96	0.26207417
80	0xbe0dd6c4	-0.13851458
81	0xbd8b1da6	-0.06792764
82	0x3baac593	0.005211541
83	0x3dbac27f	0.091191284
84	0x3d0d329b	0.03447209
85	0xbc4a00c8	-0.012329288
86	0x3ea059de	0.31318563
87	0x3ed14ba6	0.40878028
88	0xbd65a83a	-0.056068636
89	0x3e0d5abf	0.13804148
90	0x3e8281d9	0.2548969
91	0x3e13601d	0.14392133
92	0xbd8a767f	-0.067608826
93	0x3de7b819	0.11314411
94	0x3e8771b7	0.26453945
95	0x3de41c17	0.1113817
96	0x3d8be85b	0.06831428
97	0x3d8233aa	0.063575104
98	0x3e84e4d5	0.25955835
99	0x3cc037d4	0.02346412
100	0x3dbf0fb0	0.09329164
101	0x3d862574	0.06550112
102	0xbe1eae73	-0.15496235
103	0xbd16c7b0	-0.03681153
104	0x3e1456d5	0.14486249
105	0x3d882f0a	0.06649597
106	0xbe5f7388	-0.21821415
107	0xbd9fb445	-0.077980556
108	0x3e875e47	0.26439115
109	0xbd06ff3a	-0.032958247
110	0x3dab1fc2	0.08355667
111	0x3baddc37	0.0053057927
112	0x3d820269	0.06348116
113	0xbd1bc9bd	-0.03803419
114	0xbcfc5742	-0.030803327
115	0x3e6e1d4b	0.23253362
116	0x3e615b9b	0.22007601
117	0xbe1bc107	-0.15210353
118	0x3d884887	0.066544585
119	0x3de8f779	0.11375327
120	0x3dd89d70	0.10576904
121	0xbd63454c	-0.05548601
122	0xbd8ff533	-0.0702919
123	0xbe905840	-0.2819233
124	0xbe3deecc	-0.18548125
125	0xbdd8e91e	-0.105913386
126	0xbcfbd1b5	-0.030739645
127	0xbb951341	-0.0045494144
128	0x3d92ff7c	0.07177636
129	0xbe05e285	-0.13074692
130	0xbd582ba3	-0.05277599
131	0xbdf21112	-0.11819662
132	0x3dc8c700	0.09803581
133	0xbd121353	-0.03566296
134	0xbdcf57b1	-0.10124148
135	0xbd7fce3f	-0.06245255
136	0x3e19a0d1	0.15002753
137	0x3e262acd	0.16227265
138	0xbe04f587	-0.12984286
139	0xbcb1adb6	-0.021689277
140	0x3e8f3cd1	0.27976087
141	0x3df2564e	0.118328676
142	0x3d261749	0.04054955
143	0x3d7076e8	0.058707148
144	0x3e32d1d9	0.17462863
145	0x3e172597	0.14760433
146	0x3de2ac3b	0.110680066
147	0xbe12cd4f	-0.14336132
148	0x3bec5852	0.007212677
149	0x3d5b6705	0.053565044
150	0xba658cf6	-0.00087566616
151	0xbe21e595	-0.15810235
152	0x3de813df	0.11331915
153	0x3e274b19	0.16337241
154	0xbe75b7c5	-0.23995884
155	0xbdf6c2cd	-0.12048874
156	0x3dbee6d9	0.093213744
157	0xbe5315ed	-0.20613833
158	0xbc891591	-0.016733916
159	0xbd3b54d4	-0.045735195
160	0x3e377600	0.17916107
161	0x3e07a016	0.13244662
162	0x3eaaa430	0.3332839
163	0x3e7f7d45	0.2495013
164	0xbe31a835	-0.17349322
165	0xbe0a07a9	-0.13479485
166	0x3e2436b8	0.16036499
167	0xba91e237	-0.0011130039
168	0xbd83b138	-0.06430286
169	0xbe39f17b	-0.18158524
170	0xbcaf04e6	-0.02136464
171	0x3d74c82d	0.059761215
172	0xbdbd814e	-0.092531785
173	0xbe5b1ed6	-0.21398482
174	0xbe33871e	-0.17532012
175	0x3d428622	0.0474912
176	0xbc9b44e8	-0.018953755
177	0x3e3d1ebb	0.18468754
178	0x3d5c15a9	0.053731594
179	0x3e6b16af	0.22957872
180	0x3e157984	0.14597136
181	0x3d1bda59	0.03805003
182	0xbd949df5	-0.072566904
183	0xbc06b8eb	-0.008222799
184	0x3dd12860	0.10212779
185	0xbc6312d0	-0.013859466
186	0x3d6a724c	0.05723791
187	0xbc8b7808	-0.017025009
188	0x3bede610	0.0072600916
189	0xbde4987e	-0.11161898
190	0xbd1020b3	-0.035187434
191	0x3e3eb367	0.18623124
192	0x3c528fb6	0.012851646
193	0xbd41d7b4	-0.04732485
194	0xbe5b5bad	-0.2142169
195	0xbdf5be19	-0.11999149
196	0x3e0e5c0d	0.13902302
197	0x3e4cd12a	0.20001665
198	0x3d864f64	0.06558111
199	0x3e4fa39c	0.20277256
200	0x3e41d9fe	0.18930814
201	0x3ca672e8	0.020318463
202	0x3ebb76f3	0.3661419
203	0x3e9e598a	0.30927688
204	0x3e22435e	0.15846011
205	0x3d820814	0.06349197
206	0x3c7cc2b2	0.015427278
207	0x3e2e1c5f	0.1700301
208	0x3e5e3127	0.21698438
209	0xbd8f97ab	-0.0701135
210	0xbdb6377c	-0.088973016
211	0x3c4f7a65	0.0126634585
212	0x3d379f17	0.044829454
213	0xbe05dac7	-0.13071738
214	0xbe27d9d0	-0.16391683
215	0xbd82a363	-0.0637882
216	0x3d8b893d	0.068132855
217	0x3e62b5ef	0.22139715
218	0x3d5491bb	0.051896792
219	0x3e75de6b	0.24010627
220	0x3e16ef5a	0.14739743
221	0x3ea31856	0.31854504
222	0x3d68ffb8	0.056884497
223	0x3b321dca	0.00271784
224	0xbd8f24f2	-0.06989469
225	0xbd5e2460	-0.05423391
226	0xbd6984a5	-0.057011265
227	0x3e3f8994	0.18704826
228	0x3e0d6f8e	0.13812086
229	0xbe13fee4	-0.14452702
230	0x3c5cba09	0.013472089
231	0x3d6a13f0	0.05714792
232	0x3d4ce2bd	0.050020922
233	0xbd4f4d06	-0.050610565
234	0xbde44b1b	-0.11147138
235	0x3dc19a85	0.094533004
236	0x3cd89f72	0.026443217
237	0xbdc4fd4b	-0.09618624
238	0x3dec9f9a	0.11553879
239	0x3cbb91d6	0.022896688
240	0x3c972ec5	0.018454919
241	0xbd0dc66d	-0.03461306
242	0xbc117e32	-0.008880185
243	0x3e5640e2	0.20923188
244	0xbe82ee08	-0.25572228
245	0x3de7b525	0.113138475
246	0x3c8c48aa	0.017124493
247	0x3e28ad08	0.16472256
248	0xbe94b762	-0.2904616
249	0xbe8afd54	-0.271464
250	0xbcfc2aa1	-0.030782046
251	0x3e1848b2	0.14871481
252	0xbe1ecd43	-0.15507989
253	0xbd86cb46	-0.0658174
254	0x3e2b67c5	0.16738804
255	0xbdb1f4c2	-0.08689262

linear1.bias f4 [100]
0	0xbd452edd	-0.048140395
1	0x3d5d55e6	0.054036997
2	0xbbc19057	-0.005907099
3	0x3d92a3dc	0.0716016
4	0x3d57ec52	0.052715607
5	0x3c8a9500	0.016916752
6	0xbde700ff	-0.11279487
7	0xbb3c3417	-0.0028717571
8	0xbc0d0bee	-0.008608801
9	0x3a172239	0.00057652924
10	0xbbad8a2a	-0.0052960115
11	0x3c5294f0	0.012852892
12	0xbca36000	-0.019943237
13	0xbd9aae0e	-0.075527295
14	0x3d2cb8ef	0.042168554
15	0xbd316ef9	-0.043318722
16	0x3d9bf96d	0.076159336
17	0x3c48eb43	0.012263122
18	0xbaa387d9	-0.0012476399
19	0xbce2185a	-0.027599502
20	0x3b8d2a46	0.004308018
21	0xbdc20420	-0.09473443
22	0xbcd0047c	-0.025392763
23	0x3d40a01e	0.0470277
24	0x3da00f12	0.078153744
25	0x3d9cedc5	0.076625384
26	0xbc89b2b1	-0.01680884
27	0x3d941637	0.072308
28	0xbe131a12	-0.14365414
29	0xbcf5b0c3	-0.029991513
30	0x3e264cd2	0.16240242
31	0xbdf20085	-0.11816505
32	0x3d29c9ab	0.04145209
33	0xbcaaebb4	-0.020864345
34	0x3d482519	0.048863504
35	0x3d6ddb7e	0.058070652
36	0xba648cca	-0.0008718489
37	0x3d7e79a0	0.06212771
38	0x3cd310f1	0.025764914
39	0x3d02869e	0.031866662
40	0xbcd24956	-0.025669735
41	0x3bf9f699	0.0076282737
42	0x3d021843	0.03176142
43	0xbc829b62	-0.015943233
44	0x3bb7a125	0.0056039267
45	0x3c21a278	0.009865396
46	0xbcb2d3d9	-0.021829532
47	0x3d6e6ecb	0.05821113
48	0xbcd5dbd8	-0.026105806
49	0x3d9ee1c1	0.07757903
50	0xbda5a9b5	-0.0808901
51	0x3ced4297	0.028962417
52	0x3ccbc3a8	0.02487357
53	0xbdc1e4e9	-0.09467489
54	0xbbae15e8	-0.00531267
55	0x3d763f9a	0.06011925
56	0xbc3f0289	-0.011658319
57	0xbdb6bac6	-0.08922343
58	0x3c845aa0	0.016156495
59	0x3d066532	0.03281135
60	0x3da9ab49	0.08284623
61	0xbe1699d8	-0.14707124
62	0x3aa309e5	0.0012438862
63	0x3dd1dcd4	0.10247198
64	0x3d9b7b80	0.07591915
65	0xbdcf0756	-0.10108821
66	0xbca150a2	-0.019691769
67	0xbc5b7028	-0.013393439
68	0xba935c9e	-0.0011242812
69	0xbdda2802	-0.10652162
70	0x3d806cfb	0.062707864
71	0x3c262608	0.010140903
72	0xbd47d177	-0.048783746
73	0xbd981c5e	-0.074272856
74	0xbc620487	-0.013795025
75	0x3d6fec97	0.05857524
76	0xbdf05213	-0.117344044
77	0xbcc76956	-0.02434222
78	0xbcced798	-0.025249287
79	0xbd1f3be3	-0.03887547
80	0xbd6d9f48	-0.05801323
81	0x3b311737	0.0027021894
82	0xbd3c0df2	-0.045911737
83	0x3d084a66	0.033274077
84	0xbccb0b3b	-0.024785629
85	0xbc70e047	-0.014701909
86	0x3c913b06	0.01772834
87	0x3d9a0be5	0.075218
88	0xbde9010a	-0.11377151
89	0xbd21f1bb	-0.039537173
90	0x3d476a7d	0.04868554
91	0x3cd4ea20	0.025990546
92	0x3d9ec746	0.07752852
93	0xbc816b88	-0.015798345
94	0x3e13534e	0.14387247
95	0x3b14c050	0.0022697635
96	0x3d416333	0.047213744
97	0x3cd68703	0.026187425
98	0x3d0391e9	0.032121573
99	0x3d8432b7	0.064549856

batchnorm3.weight f4 [100]
0	0x3f323b43	0.69621676
1	0x3f8eee4d	1.1166474
2	0x3f377598	0.7166381
3	0x3f831775	1.0241534
4	0x3ed21bde	0.41036886
5	0x3f0949ac	0.5362804
6	0x3f8da50d	1.1065995
7	0x3f5db19b	0.8659913
8	0x3f0e2f53	0.5554096
9	0x3f163da7	0.58687824
10	0x3f2656b5	0.64976054
11	0x3f826664	1.0187497
12	0x3f2bb385	0.670708
13	0x3f080725	0.531359
14	0x3f1844ac	0.59479785
15	0x3f700ace	0.93766487
16	0x3f39b7b5	0.7254594
17	0x3ead954f	0.33902976
18	0x3faeded8	1.3661757
19	0x3f6fa469	0.93610245
20	0x3f133d5c	0.575155
21	0x3fa9639c	1.3233523
22	0x3f4437a6	0.7664741
23	0x3f821d85	1.0165259
24	0x3f9cd839	1.2253486
25	0x3f42dcf3	0.7611839
26	0x3f91bc45	1.138558
27	0x3f226e4b	0.63449544
28	0x3f7db48d	0.99103624
29	0x3f9929c1	1.1965867
30	0x3f6f1e15	0.93405277
31	0x3f886e38	1.0658636
32	0x3f96b016	1.1772487
33	0x3fafc9d2	1.3733466
34	0x3f017f7c	0.5058515
35	0x3f5caa6f	0.8619756
36	0x3f13fe27	0.5780968
37	0x3f0b7030	0.5446806
38	0x3f6a1c13	0.9144909
39	0x3f22be93	0.63572043
40	0x3f3fc01d	0.74902517
41	0x3f25510b	0.64576787
42	0x3f5179ca	0.8182646
43	0x3f0e9111	0.55690104
44	0x3f4d3d15	0.8017133
45	0x3f08c7a6	0.5342964
46	0x3f0ceea9	0.55051666
47	0x3f2dcf0c	0.67894053
48	0x3f30145b	0.6878106
49	0x3f3e6ede	0.7438792
50	0x3f9a508f	1.2055835
51	0x3f0f1991	0.55898386
52	0x3f0d5df0	0.5522146
53	0x3f98baaa	1.1931965
54	0x3f36f139	0.71461827
55	0x3fa479b9	1.2849647
56	0x3f03a8f8	0.514297
57	0x3fa7afc1	1.3100511
58	0x3f9d2cc9	1.2279292
59	0x3ef114e1	0.47086242
60	0x3f5e3669	0.86801773
61	0x3fb737fc	1.431396
62	0x3f90b43f	1.1305007
63	0x3f3e1efa	0.74266016
64	0x3fa520d5	1.2900645
65	0x3fa7d385	1.3111426
66	0x3f27703d	0.6540564
67	0x3f892f7a	1.0717614
68	0x3f6039e4	0.87588334
69	0x3f6eb5af	0.9324598
70	0x3f87fb9b	1.0623659
71	0x3f8a5318	1.0806608
72	0x3ef721c5	0.48267952
73	0x3eed95ec	0.46403444
74	0x3f2025a8	0.6255746
75	0x3f6c72fe	0.92362964
76	0x3f90bf1d	1.1308323
77	0x3f7a9253	0.97879523
78	0x3eddd3b1	0.4332557
79	0x3f480ad4	0.7814152
80	0x3ef064b5	0.46951833
81	0x3f2b5915	0.66932803
82	0x3f6e27dc	0.9302957
83	0x3eec4e9d	0.46153727
84	0xbc9f48d8	-0.019443914
85	0x3ee9031c	0.45510185
86	0x3fa13383	1.2593845
87	0x3f651ff1	0.89501864
88	0x3fa71b98	1.3055296
89	0x3f527f75	0.82225734
90	0x3f6cf7f4	0.92565846
91	0x3f8a46eb	1.0802892
92	0x3ed108ae	0.40826935
93	0x3f9a123f	1.2036818
94	0x3f91fe59	1.1405746
95	0x3f65bfd2	0.8974582
96	0x3f4b9aa5	0.79532844
97	0x3efcdcfa	0.49387342
98	0x3f8d38b8	1.1032934
99	0x3f11f8c6	0.57020223

batchnorm3.bias f4 [100]
0	0x3e5fbf61	0.21850349
1	0x3e9ade6a	0.30247813
2	0x3e6fda7e	0.23423192
3	0x3dfb2422	0.12262751
4	0x3e8b6493	0.2722517
5	0x3e4ec15f	0.20190953
6	0x3e74f840	0.23922825
7	0x3df967c0	0.12177992
8	0x3e96dbe9	0.29464653
9	0x3e61f707	0.2206689
10	0x3e5f7537	0.21822058
11	0x3e43b231	0.19110943
12	0x3e0525c3	0.13002686
13	0x3dfdeea9	0.123990364
14	0x3e55ab84	0.2086621
15	0x3e6e50dd	0.23273034
16	0x3eac8bd3	0.33700427
17	0x3e4182d9	0.1889757
18	0x3e9a1c70	0.3009982
19	0x3e86ce66	0.26329345
20	0x3e2a9095	0.16656716
21	0x3ee1a7cb	0.44073328
22	0x3e85ea6d	0.26155415
23	0x3e72e318	0.23719442
24	0x3ea2a6af	0.31767794
25	0x3e0aca31	0.13553692
26	0x3e6c4f22	0.23077062
27	0x3e7999ce	0.24375078
28	0x3e95d1f4	0.29261744
29	0x3e8637ce	0.2621445
30	0x3e8b2a56	0.27180737
31	0x3e86f173	0.26356086
32	0x3e586d4f	0.21135448
33	0x3e5c6d47	0.21526061
34	0x3e774c39	0.2415017
35	0x3e8c917c	0.27454746
36	0x3e8f159e	0.2794618
37	0x3e5d2cea	0.21599165
38	0x3e472256	0.19446692
39	0x3e68e938	0.22745216
40	0x3e389de7	0.18028985
41	0x3e703f2a	0.23461595
42	0x3e4affb7	0.1982411
43	0x3e5ed83f	0.21762179
44	0x3ebc6527	0.36795923
45	0x3e77ee01	0.24211885
46	0x3e25b208	0.16181195
47	0x3e174103	0.14770894
48	0x3e6379bd	0.22214408
49	0x3e64413f	0.22290514
50	0x3e4aed7a	0.19817153
51	0x3e8567b2	0.26055676
52	0x3e925028	0.2857678
53	0x3e933ee1	0.2875891
54	0x3e737ec9	0.23778833
55	0x3e4850ca	0.19562069
56	0x3e94f540	0.2909336
57	0x3e958ed8	0.29210544
58	0x3e9ded5f	0.30845162
59	0x3e3057f3	0.1722105
60	0x3e0e1aae	0.13877365
61	0x3ea5e730	0.32402945
62	0x3e3dc0c3	0.18530564
63	0x3e673782	0.22579768
64	0x3e8d2d68	0.27573705
65	0x3e99c681	0.3003426
66	0x3e3ccf75	0.18438514
67	0x3e624203	0.22095494
68	0x3e85a155	0.2609965
69	0x3d752328	0.05984798
70	0x3e9d2d03	0.30698404
71	0x3e7f85dd	0.24953409
72	0x3e425f9e	0.18981788
73	0x3e7310f4	0.23736936
74	0x3e897c85	0.26852813
75	0x3e177845	0.14791973
76	0x3e57a50f	0.21059059
77	0x3e882413	0.26590022
78	0x3e19fd4f	0.15038036
79	0x3e31ec3a	0.1737527
80	0x3e89b7d1	0.26898053
81	0x3e4e69de	0.20157573
82	0x3ea024b4	0.31278002
83	0x3e0db2df	0.13837765
84	0xbd821c36	-0.06353037
85	0x3e79596b	0.24350516
86	0x3e668f9e	0.22515723
87	0x3dd0512a	0.10171731
88	0x3e876444	0.26443684
89	0x3e2c2411	0.16810633
90	0x3e70cb66	0.2351509
91	0x3e8b7273	0.27235755
92	0x3e64fb9e	0.2236161
93	0x3e1b1771	0.15145661
94	0x3e9e694b	0.30939707
95	0x3e8fa071	0.28052095
96	0x3e454ca3	0.19267516
97	0x3e364f0a	0.17803589
98	0x3e4e96f3	0.2017477
99	0x3e97cf8e	0.2965054

batchnorm3.running_mean f4 [100]
0	0x3ea82773	0.32842597
1	0x3efcdcf4	0.49387324
2	0xbeb05fa3	-0.34447965
3	0xbdf269a3	-0.11836555
4	0xbda48554	-0.08033243
5	0x3e111704	0.14168936
6	0xbec72f81	-0.3890343
7	0x3e071605	0.13191994
8	0x3e9abf8b	0.3022426
9	0xbd7c24a6	-0.06155839
10	0xbedc8959	-0.43073538
11	0x3e4bc9fb	0.19901268
12	0xbe016c0b	-0.12638871
13	0xbf667d22	-0.9003469
14	0xbe8f6e12	-0.28013664
15	0xbe7c901e	-0.24664351
16	0xbf6fd2b9	-0.9368091
17	0xbde8341c	-0.11338064
18	0x3df73a94	0.1207172
19	0x3d077fce	0.03308087
20	0xbe511388	-0.20417607
21	0x3f59e89c	0.8512056
22	0xbf250be0	-0.64471245
23	0xbed6a89a	-0.41925508
24	0x3ec94424	0.393098
25	0xbe7b48b0	-0.24539447
26	0x3e2bcfe1	0.16778518
27	0x3d371771	0.04470009
28	0xbeb56a44	-0.35432637
29	0x3e42ffdc	0.19042915
30	0x3de69ded	0.11260591
31	0xbf05e5c1	-0.523037
32	0x3d90e92a	0.070757225
33	0x3c9ae407	0.01890756
34	0xbe06215e	-0.13098666
35	0xbe551a46	-0.20810804
36	0x3e4ca4b0	0.19984698
37	0x3e784365	0.24244459
38	0x3dd7ba94	0.10533634
39	0x3f31a0bb	0.6938588
40	0xbd867b9e	-0.06566547
41	0xbc790888	-0.015199788
42	0xbe195fed	-0.14977999
43	0xbef20396	-0.4726836
44	0xbe43f566	-0.19136581
45	0xbf3049bf	-0.6886253
46	0xbf109a1f	-0.5648517
47	0xbe64ac3f	-0.22331332
48	0xbe680109	-0.22656645
49	0xbeab17e8	-0.33416677
50	0xbf23e0e8	-0.64015055
51	0xbe521e18	-0.20519292
52	0xbea7ee44	-0.3279897
53	0x3e83be28	0.25731015
54	0xbe1361e8	-0.14392817
55	0xbe1b2421	-0.15150501
56	0x3edd2255	0.43190256
57	0xbf0e4e82	-0.55588543
58	0x3e2933e2	0.16523698
59	0x3ee016b1	0.43767312
60	0xbdd05ba8	-0.10173732
61	0xbeb78739	-0.35845354
62	0x3eb760b7	0.35815975
63	0xbdb1c442	-0.08680011
64	0xbe724359	-0.23658504
65	0xbecf2dc4	-0.40464604
66	0xbd4caa2f	-0.049966987
67	0xbe6ca631	-0.23110272
68	0xbee29690	-0.44255495
69	0x3f2bae72	0.6706306
70	0x3db9714d	0.090548135
71	0x3f7282f8	0.9473109
72	0x3e5c27c1	0.2149954
73	0xbee505c4	-0.4473096
74	0xbf372eca	-0.7155577
75	0x3e0d27c6	0.13784704
76	0xbec1e827	-0.3787243
77	0xbe18616b	-0.14880912
78	0xbf03c7fe	-0.5147704
79	0xbf0f99d3	-0.5609409
80	0x3ee5facc	0.44917905
81	0xbf9b5f00	-1.2138367
82	0xbd412171	-0.047151033
83	0x3e170e96	0.14751658
84	0x3f530aaa	0.8243815
85	0x3f0d5892	0.5521327
86	0xbf0df3be	-0.55450046
87	0x3fb8900c	1.441896
88	0xbe44ed7c	-0.19231218
89	0x3dfadca3	0.12249114
90	0x3e83f1aa	0.25770313
91	0xbe75b8cc	-0.23996276
92	0xbe48b323	-0.19599585
93	0xbe2e9f99	-0.17053069
94	0x3e39ab4f	0.18131755
95	0x3ec9b58c	0.39396322
96	0xbe879d87	-0.2648737
97	0xbe1da527	-0.15395032
98	0x3f6b64b4	0.91950536
99	0x3efb40f5	0.49072996

batchnorm3.running_var f4 [100]
0	0x3f98edfd	1.1947628
1	0x3f61e95b	0.882467
2	0x3f11da93	0.5697414
3	0x3f9af28c	1.210527
4	0x3f972c38	1.181037
5	0x3f265336	0.6497072
6	0x3fad2404	1.3526616
7	0x3f0aa3be	0.541561
8	0x3f802d74	1.0013871
9	0x3fb1064a	1.3830044
10	0x3f5bdee4	0.8588698
11	0x3f842e07	1.0326546
12	0x3f5d4611	0.8643504
13	0x3f29e2a1	0.66361433
14	0x3fdaa08f	1.7080249
15	0x3f73f51b	0.95295876
16	0x3f3ba63f	0.73300546
17	0x3f2b69d6	0.6695837
18	0x3fa22bd9	1.2669631
19	0x3f6ba8d1	0.9205447
20	0x3f89c3fd	1.0762936
21	0x3f2856a7	0.6575722
22	0x3f865840	1.0495682
23	0x3f6116bf	0.8792533
24	0x3fa8ad59	1.3177902
25	0x3f477925	0.77919227
26	0x3f62ed64	0.8864348
27	0x3f41feca	0.757794
28	0x3f1d699e	0.61489284
29	0x3f911e8c	1.1337447
30	0x3efdc984	0.49567807
31	0x3f73c8a0	0.95228004
32	0x3f4619f4	0.7738335
33	0x3f067372	0.52519906
34	0x3f6d263f	0.92636484
35	0x3f4c2e89	0.79758507
36	0x3fcb8cec	1.5902381
37	0x3f6f685d	0.9351862
38	0x3f9e22b9	1.2354347
39	0x3f827892	1.0193045
40	0x3f7d71b1	0.99001604
41	0x3f6a83dd	0.9160746
42	0x3f5f8c42	0.8732339
43	0x3f560708	0.8360448
44	0x3f471578	0.77767134
45	0x3f50f630	0.8162565
46	0x3f63ac9c	0.88935256
47	0x3f234c29	0.63788086
48	0x3f5746b1	0.8409224
49	0x3f69b3f3	0.91290206
50	0x3f386397	0.7202696
51	0x3f77e399	0.9683166
52	0x3f6714d2	0.90266144
53	0x3fa5570b	1.2917188
54	0x3f8d494b	1.1037992
55	0x3f810a55	1.0081278
56	0x3f8813d1	1.0631047
57	0x3f95fdb0	1.1718044
58	0x3f9e4283	1.2364048
59	0x3f8f68ee	1.1203897
60	0x3f5ed08d	0.87036973
61	0x3f90174e	1.1257112
62	0x3fb865f6	1.4406116
63	0x3f99c693	1.2013725
64	0x3f823111	1.0171224
65	0x3f46a16e	0.7759007
66	0x3f930b96	1.1487911
67	0x3f83ce6d	1.0297371
68	0x3f943bc9	1.1580745
69	0x3f69beb4	0.91306615
70	0x3f4e138d	0.8049858
71	0x3fbe321f	1.4859046
72	0x3f42ec3d	0.7614172
73	0x3f73f479	0.9529491
74	0x3f6da1af	0.92824835
75	0x3f1cc9bb	0.61245316
76	0x3f5d9709	0.86558586
77	0x3f5109fc	0.8165586
78	0x3f43abd5	0.7643407
79	0x3f7d16b6	0.9886278
80	0x3f3275d7	0.6971106
81	0x3f48025d	0.78128606
82	0x3f83ed00	1.0306702
83	0x3fa01444	1.2506185
84	0x3e28e16c	0.16492242
85	0x3f61d9e1	0.8822308
86	0x3f842ea0	1.0326729
87	0x3fd26de9	1.6439792
88	0x3ef4ef79	0.47838953
89	0x3f9b3e25	1.212834
90	0x3f5819a2	0.8441411
91	0x3f5eec6f	0.8707952
92	0x3f731f0b	0.9496924
93	0x3f0c8e0e	0.5490426
94	0x3f801a6f	1.0008067
95	0x3f309df8	0.6899104
96	0x3f3d552f	0.73958105
97	0x3f9a263e	1.204292
98	0x3f7dab1d	0.99089223
99	0x3f325633	0.6966278

linear2.weight f4 [10, 100]
0	0x3e32330d	0.17402287
1	0x3ea33cfd	0.31882468
2	0xbd3dabf3	-0.04630656
3	0xbeb181ae	-0.3466925
4	0xbebb951b	-0.36637196
5	0xbe9afe6a	-0.30272228
6	0xbef77839	-0.4833391
7	0xbeb03a47	-0.34419462
8	0xbeb21a62	-0.34785753
9	0xbe0f5d62	-0.14000466
10	0xbeed6573	-0.46366462
11	0xbe64671d	-0.2230496
12	0x3cc5d1e3	0.024147933
13	0xbe73ce3b	-0.2380914
14	0x3dfb9300	0.122838974
15	0xbede538e	-0.43423122
16	0xbebc8a29	-0.36824158
17	0xbe9f2927	-0.31086084
18	0xbea5e285	-0.32399383
19	0x3ed25a8e	0.41084713
20	0xbf25c950	-0.64760303
21	0x3e67789c	0.22604603
22	0x3e840cfa	0.2579115
23	0xbed56099	-0.4167526
24	0x3e9aa0b9	0.30200747
25	0x3eb63baf	0.3559241
26	0x3e8d27d1	0.2756944
27	0xbdb5b756	-0.08872859
28	0x3ecaecb7	0.39633724
29	0x3e74025b	0.23829024
30	0x3cef3c79	0.02920364
31	0x3eb9c475	0.36282697
32	0xbf0bcdc0	-0.54610825
33	0xbed25609	-0.41081265
34	0x3e4da937	0.20084082
35	0xbea76044	-0.32690632
36	0xbeab1639	-0.33415392
37	0xbe9af551	-0.30265287
38	0x3e812d12	0.25229698
39	0x3de9dc09	0.114189215
40	0x3e88c12d	0.2670988
41	0x3eb25155	0.34827676
42	0x3d81bf0d	0.06335268
43	0xbf1d3f09	-0.6142431
44	0x3e92d1ff	0.2867584
45	0xbe80438c	-0.25051534
46	0xbe84d1ed	-0.2594141
47	0x3ee3a2e0	0.444602
48	0xbed01fac	-0.40649164
49	0xbeceea49	-0.4041312
50	0xbe9e8503	-0.30960855
51	0xbe690a9d	-0.22757955
52	0xbf05bb6a	-0.52239096
53	0x3e4b09d6	0.19827971
54	0xbf293970	-0.6610327
55	0xbee33600	-0.44377136
56	0x3e14778f	0.14498733
57	0xbcc37957	-0.02386157
58	0xbe38ba81	-0.18039896
59	0xbe9a4a38	-0.3013475
60	0xbed4a663	-0.41533193
61	0x3e9d6b89	0.30746105
62	0x3e2bc2e6	0.16773567
63	0xbedbd969	-0.42939308
64	0xbec1f9ba	-0.3788584
65	0x3e81c868	0.2534821
66	0x3ea80456	0.32815808
67	0xbe95d375	-0.2926289
68	0xbdab10e0	-0.08352828
69	0xbe3c3f3c	-0.18383497
70	0xbe6bf2a1	-0.23041774
71	0x3c97b83b	0.018520465
72	0xbe44a9da	-0.19205418
73	0x3ebd01fd	0.3691558
74	0xbf20809d	-0.6269625
75	0xbd83a481	-0.06427861
76	0xbe8220c1	-0.25415614
77	0xbe998d5d	-0.29990664
78	0xbdfad0a2	-0.12246825
79	0xbd7d5b6a	-0.061854757
80	0xbe5a23a7	-0.21302663
81	0xbeb727cb	-0.35772547
82	0x3e3aed40	0.18254566
83	0x3ede4127	0.43409082
84	0xbd0e6a3e	-0.03476929
85	0xbef21f76	-0.47289628
86	0xbe6dc684	-0.23220259
87	0xbd0feb4f	-0.035136517
88	0xbe68793c	-0.22702497
89	0xbd064b71	-0.03278679
90	0xbeaa304e	-0.3323998
91	0xbf0e433c	-0.5557134
92	0xbe34c7cc	-0.17654341
93	0xbe169587	-0.14705478
94	0xbd5fd908	-0.054650337
95	0xbe3be32e	-0.18348381
96	0xbe935616	-0.28776616
97	0xbe0f69a2	-0.1400514
98	0x3eac6d86	0.3367731
99	0xbe3f4b71	-0.18681122
100	0xbe13d4be	-0.14436623
101	0xbdcd8ba9	-0.10036404
102	0xbf11bc2a	-0.5692774
103	0x3e3b8186	0.18311128
104	0x3ea3df4f	0.32006308
105	0xbe2490c3	-0.16070847
106	0xbed731ef	-0.42030284
107	0x3dc4b108	0.096040785
108	0xbef33e1b	-0.4750832
109	0x3e8a838f	0.27053496
110	0xbf20ee34	-0.6286347
111	0xbeca026a	-0.39454967
112	0x3d2ce237	0.042207923
113	0xbe660654	-0.22463351
114	0xbe3feb29	-0.1874205
115	0xbf2778d6	-0.65418756
116	0xbef19557	-0.4718425
117	0x3dc4b472	0.0960473
118	0x3e7796c0	0.241786
119	0xbe7ff841	-0.24997045
120	0xbee0a5ae	-0.43876404
121	0xbed4c3bf	-0.41555592
122	0xbe76efdf	-0.24114941
123	0x3e59623a	0.21228877
124	0xbedf4ab1	-0.43611673
125	0xbe7bbfdf	-0.24584912
126	0xbe951141	-0.29114726
127	0xbe52bf2f	-0.20580743
128	0xbe607ed3	-0.2192338
129	0xbd78161a	-0.060567953
130	0x3e5053cb	0.20344464
131	0xbec5e40c	-0.38650548
132	0xbeb9e0cb	-0.36304316
133	0xbe7ac2f7	-0.24488436
134	0xbd079b3e	-0.033107035
135	0xbebed827	-0.37274286
136	0x3ea8dc2b	0.32980475
137	0x3eb63a94	0.35591567
138	0xbd9fc0e2	-0.07800461
139	0xbecbec5e	-0.3982877
140	0xbe3742ed	-0.17896624
141	0xbe8ec7fc	-0.2788695
142	0xbee91ef8	-0.4553144
143	0xbe763906	-0.2404519
144	0xbe99cad8	-0.3003757
145	0xbf13c499	-0.5772186
146	0xbe958aec	-0.2920755
147	0xbeae9874	-0.34100688
148	0x3e54a6ee	0.20766804
149	0xbebd7570	-0.3700366
150	0xbebfe168	-0.3747666
151	0xbedead3b	-0.4349154
152	0x3e868a47	0.26277372
153	0x3c7be630	0.015374705
154	0xbe014b3f	-0.1262636
155	0xbefe4f84	-0.4967004
156	0xbbdeb22a	-0.006796141
157	0xbf2be8a8	-0.6715188
158	0x3e822235	0.25416723
159	0x3eb153c2	0.34634215
160	0xbeb99877	-0.36249134
161	0xbe7db3fe	-0.24775693
162	0xbeae547a	-0.34048826
163	0xbecac48e	-0.39603084
164	0x3e709be1	0.23496963
165	0x3e04acfc	0.12956613
166	0xbea60968	-0.3242905
167	0xbef78585	-0.48344055
168	0xbf1feda4	-0.62471986
169	0x3e09d023	0.13458304
170	0xbf2e67d5	-0.68127185
171	0x3e995c0e	0.29953045
172	0x3d5fb3b4	0.054614738
173	0xbe529ad0	-0.20566869
174	0xbee99740	-0.45623207
175	0xbe69016d	-0.2275445
176	0x3ea32d83	0.3187066
177	0x3e4d9ffb	0.20080559
178	0xbebab218	-0.36464
179	0xbebd89c0	-0.37019157
180	0x3e321f53	0.17394762
181	0x3e3fa0cb	0.18713681
182	0xbef7529b	-0.4830521
183	0xbe8a9f87	-0.27074835
184	0xbd05ec19	-0.032695863
185	0xbce09146	-0.027413022
186	0x3e2d55b1	0.1692722
187	0x3ebadc36	0.36496133
188	0x3e66a370	0.22523284
189	0x3e75d3b5	0.24006541
190	0x3e86c056	0.26318616
191	0x3ea1a7fe	0.3157348
192	0xbf00e8d7	-0.50355285
193	0x3e8be335	0.27321783
194	0xbef15c2f	-0.47140643
195	0xbf2b9720	-0.67027473
196	0x3d1b2f46	0.03788688
197	0xbdba0594	-0.09083095
198	0x3ded48e4	0.115861684
199	0xbf32a863	-0.6978819
200	0x3df94c22	0.12172724
201	0xbea21da8	-0.3166325
202	0xbdda0f25	-0.1064742
203	0xbe68b199	-0.22723998
204	0xbd7586c6	-0.059942983
205	0x3bec89c0	0.0072185695
206	0x3eabf728	0.33587003
207	0xbe90596f	-0.28193232
208	0x3e3904d7	0.18068253
209	0xbf021e68	-0.50827646
210	0xbedc27bf	-0.42999074
211	0x3e33d951	0.17563368
212	0xbea7fce9	-0.32810143
213	0x3e9a5614	0.30143797
214	0x3ea089a3	0.31355008
215	0x3e47018b	0.19434182
216	0xbe6b0550	-0.22951245
217	0xbda91e34	-0.08257714
218	0xbeb10cd7	-0.3458011
219	0xbf0f3c90	-0.55951786
220	0x3c6beefd	0.014400241
221	0xbe7f8f49	-0.24957003
222	0xbe873ff9	-0.26415995
223	0xbe8e748e	-0.278233
224	0xbeba4714	-0.36382353
225	0xbe858582	-0.2607842
226	0xbd5802ba	-0.052736975
227	0xbed77e2f	-0.42088458
228	0xbea88e9f	-0.3292131
229	0x3d8d54d6	0.06900947
230	0x3e5a174a	0.21297947
231	0xbe6c3596	-0.23067316
232	0x3e8c9727	0.2745907
233	0xbe7215af	-0.23641084
234	0x3ddddf0d	0.10833559
235	0x3e11e295	0.1424659
236	0x3e8b7c72	0.27243382
237	0x3aaffdbd	0.001342706
238	0xbdded4fd	-0.10880468
239	0x3e8fb581	0.28068164
240	0x3e8301a3	0.25587186
241	0xbeb0d8f5	-0.34540525
242	0xbec2d602	-0.380539
243	0x3ea1f446	0.31631678
244	0xbeb190c1	-0.3468075
245	0xbe80ef5c	-0.25182617
246	0xbe95c645	-0.2925283
247	0xbe66e91e	-0.22549865
248	0x3e3c75d1	0.18404318
249	0xbbbdad1e	-0.0057884594
250	0xbe88393b	-0.26606163
251	0x3e61097d	0.21976276
252	0xbe0a90bc	-0.13531774
253	0xbe9aae30	-0.3021102
254	0xbec71ef7	-0.38890812
255	0x3e6d39b9	0.2316655

linear2.bias f4 [10]
0	0xbe5f3b4e	-0.21799967
1	0x3dd42731	0.10359038
2	0xbd4f8a6a	-0.05066911
3	0x3d57e5dd	0.05270945
4	0x3bbc7d97	0.005752276
5	0x3dc78f4f	0.09744131
6	0xbdf32952	-0.118731156
7	0xbdf93289	-0.12167842
8	0x3d8b6963	0.0680721
9	0x3e47219a	0.19446412
