research/differential_privacy/multiple_teachers/checkpoint/mnist_10_teachers_0.pth (torch_old, 139301 bytes, 20 tensors)

conv1.weight f4 [16, 1, 5, 5]
000000 e7 8f 08 be dc 4a 6c 3d 57 2e ec bd 08 b9 45 3d
       -0.13336144 0.05768858 -0.11532276 0.048272163
000010 ef 1c f6 bd 72 2e 12 be ed 2a 9d 3d e6 79 cc 3d
       -0.120172374 -0.1427553 0.07674203 0.09984188
000020 74 3e 77 3d af 7d 35 be 31 e3 ff 3c 93 74 01 3e
       0.060362294 -0.17723726 0.031236263 0.12642126
000030 fe 08 19 be b9 be 51 be d7 13 6d bd 04 82 29 bd
       -0.14944836 -0.20482911 -0.05788025 -0.04138376
000040 a4 94 56 3e fc be 82 3c 35 9b f4 3d f0 ae 0b bc
       0.2095514 0.01596021 0.11943666 -0.008525595
000050 9c 3d 1c b9 ca 25 72 3e 24 ee be 3c 26 3c e8 bd
       -0.0001490027 0.23647228 0.023306914 -0.113395974
000060 89 ba 90 3e 5c 76 69 bd d0 2b c9 bd be c7 e8 bd
       0.28267315 -0.056997642 -0.0982281 -0.11366223
000070 25 55 c6 bd 07 06 9d 3e 24 84 c1 3d 05 df 0e 3d
       -0.09684209 0.3066866 0.09449032 0.034880657
000080 e2 1e 7e 3a 8b c1 2f be 18 ab 68 be c2 12 30 3e
       0.0009693933 -0.17163675 -0.22721517 0.17194656
000090 87 18 b7 3d 36 61 8f bd 3a f2 8d be a4 d6 6c bd
       0.08940225 -0.070009634 -0.27723867 -0.057821885
0000a0 a4 da 5c be 52 e8 99 be c4 e6 5c 3c 4f 9e 37 bb
       -0.2156778 -0.3006006 0.013482753 -0.0028017943
0000b0 31 3c af 3c 35 af e9 bd 26 22 3a 3e 11 83 72 3e
       0.021391006 -0.11410371 0.18177089 0.2368281
0000c0 88 a8 4e 3e 2d 1a 46 bc 26 15 5a be b5 19 82 bd
       0.20181477 -0.012091202 -0.2129713 -0.063525595
0000d0 38 40 57 3d de 93 39 bd 32 d8 0e 3e ae 9d be 3d
       0.05255148 -0.045307033 0.1394966 0.09307419
0000e0 8f 68 40 bb f8 e2 94 bd f2 ff 21 3d 7e 9c 3d 3e
       -0.0029359197 -0.07269853 0.03955073 0.18516728
0000f0 78 40 00 3e 51 74 13 3e 81 47 89 3e 09 a2 78 bd
       0.12524593 0.1439984 0.26812366 -0.060701404
000100 c0 1c 26 3d 4e cb d7 bc 47 7a 49 3d 62 94 3d bd
       0.040554762 -0.02634206 0.04918888 -0.046284087
000110 94 db 24 3e 33 7e 2b be 08 0e f3 3b a0 25 33 be
       0.16099387 -0.1674736 0.007417444 -0.17494822
000120 f2 36 f0 bd 70 e1 07 be de f1 55 be 31 1c ca 3c
       -0.1172923 -0.13269591 -0.20893046 0.024671646
000130 74 22 ca 3d d9 99 10 3d 29 04 e1 bd 86 79 71 be
       0.09869853 0.03530297 -0.109871216 -0.23581514
000140 91 83 ab bd 93 70 23 be e9 97 6d be db 4b 4b be
       -0.08374704 -0.15960912 -0.2320248 -0.19853155
000150 93 c9 00 be 99 e0 08 be d3 5b 2b be 25 e1 21 be
       -0.12576894 -0.13366927 -0.16734247 -0.15808542
000160 6c 47 82 be ef 53 92 bd 42 91 a0 3d 6d 6f 81 be
       -0.25445116 -0.07144915 0.07840206 -0.25280324
000170 15 77 23 bd ba b5 be be 5b 9a b4 bd 15 d7 ee 3d
       -0.039908487 -0.3724802 -0.088185035 0.116621174
000180 9b 8f b6 bd db d9 5d bd 8e ff 87 be 35 ca 4c 3e
       -0.08914109 -0.05416284 -0.2656216 0.19999011
000190 c3 c7 07 3c 06 db 6b be 77 4f 5b bb 84 6c 80 be
       0.008287373 -0.2303277 -0.0033464113 -0.2508279
0001a0 00 b4 5b be 7b a4 7d be 7e c9 c1 bd 51 4a 62 be
       -0.21455383 -0.24769776 -0.0946226 -0.22098662
0001b0 92 f5 15 be 82 e0 43 bd c0 fb 0e b9 a4 59 3f bd
       -0.14644459 -0.04782153 -0.0001363596 -0.046716347
0001c0 12 c1 d6 bd e2 f9 70 3d 31 1f 08 3d 33 b3 0b 3d
       -0.10486044 0.058832057 0.03323287 0.034106445
0001d0 24 6f 3d 3e 2a 92 04 be c8 9b 15 be eb 58 74 3e
       0.18499428 -0.12946382 -0.14610207 0.23862045
0001e0 55 b7 39 3e 84 85 2e bd 39 d5 3c 3e c4 88 2b 3e
       0.18136342 -0.0426078 0.18440713 0.1675139
0001f0 4d 4f 27 3e 24 1c 0b 3e a1 d6 81 ba 5b 2d b5 3d
       0.16338845 0.13584954 -0.0009905883 0.088465415
000200 ec 0f 65 bb 20 d3 1a bc 07 06 e4 3d a8 e9 ee bd
       -0.0034952117 -0.00944975 0.11133962 -0.1166566
000210 15 e8 69 3e 23 3d b4 bd 11 89 b8 3d 08 ca 6c be
       0.22842439 -0.088007234 0.09010518 -0.23123944
000220 e9 2f db 3d 23 a4 70 3e 9d be 46 3e af 7a 38 be
       0.107024975 0.23500113 0.1940865 -0.1801555
000230 0c 48 98 bc bb b8 17 be a1 60 27 3e 9f 28 d8 3d
       -0.018589042 -0.14816563 0.16345455 0.10554623
000240 94 1f da 3c 71 5c 93 bd 82 32 03 be 61 0f ce 3c
       0.026626386 -0.07195366 -0.12812236 0.025153818
000250 a7 fd 55 3e 82 91 06 3e 7a e5 97 3d 7a dd 92 3d
       0.20897542 0.13141444 0.07416816 0.071711496
000260 1e a5 18 bd 90 df ab bd fa 5b aa bd 7f 64 91 bb
       -0.037266843 -0.083922505 -0.083183244 -0.004437029
000270 35 ba ec 3c 46 2a fa 3d ce 15 41 3e 30 1c 03 3e
       0.028897384 0.12215094 0.18855974 0.12803721
000280 97 9a 33 be 0e 7c 21 bd 07 b3 be 3d b4 e4 f8 bc
       -0.1753944 -0.03942495 0.093114905 -0.030382492
000290 ce 34 f5 3d 60 17 e6 bd 11 ed 57 3d 0e 7f c3 3d
       0.11972962 -0.11234927 0.05271632 0.09545718
0002a0 8d df 1b be 16 44 02 bd 96 36 0a bc 55 a2 51 bd
       -0.15221997 -0.031803213 -0.008435866 -0.051180203
0002b0 67 be a6 be 9c 30 19 be 1c 63 6c be a9 3d 1d 3d
       -0.3256714 -0.1495995 -0.23084682 0.03838888
0002c0 78 21 8d 3c 69 50 40 3e 79 f5 47 3d 0e 88 1d 3e
       0.017227873 0.18780674 0.048818085 0.15383932
0002d0 37 9a 25 be df 19 c0 3d a8 e4 7f be 57 ca e6 3d
       -0.1617211 0.093799345 -0.24989569 0.11269062
0002e0 26 62 92 be b6 77 fe 3d af 83 d9 bd d7 e2 3b 3d
       -0.28590506 0.12425177 -0.1062082 0.04587063
0002f0 d5 b3 39 be 84 fd 49 bc 64 a5 9b be 22 fd 85 bd
       -0.18135007 -0.012328509 -0.3039962 -0.06542422
000300 84 4e 58 be 50 c9 66 3c 3e 7a db 3d a4 19 c0 bd
       -0.21123701 0.014086083 0.10716675 -0.093798906
000310 dc 41 67 bd 9c 26 13 be 8c 4c 36 bd 64 ce d4 bc
       -0.056459293 -0.14370197 -0.044506595 -0.025977321
000320 d2 f3 9c be 72 59 90 3c 22 24 0e 3e 70 ce 2c bd
       -0.3065477 0.017620776 0.13880971 -0.04218906
000330 44 9c cb 3d 38 09 7e 3c ab 5f 89 3e f6 0e db 3d
       0.09941915 0.015505128 0.268308 0.10696213
000340 66 7b 08 be b3 69 e4 3c a7 38 98 3c c6 cb 0b bd
       -0.13328323 0.027882433 0.018581701 -0.03412988
000350 3d bf b6 3d 6b 16 66 be 00 0d 2a be 8a c6 c5 3d
       0.089231946 -0.2246949 -0.16606522 0.09657009
000360 f0 e2 68 be 63 ca 9c bc ac 7e dd bd 7a e7 42 3c
       -0.2274282 -0.019139474 -0.10815176 0.011896009
000370 63 9c 0d be 1f 88 82 3d dc 70 f4 3d 5c 42 fb 3d
       -0.13829188 0.06373619 0.11935589 0.122685164
000380 d2 e4 d9 3d 4e ba d2 3d a9 9d 21 3e 95 f6 f0 3d
       0.10639347 0.10289441 0.15782799 0.11765782
000390 de 80 38 3e 2b 11 8e 3e 20 37 ad bd f6 90 60 bd
       0.18017909 0.27747473 -0.0845778 -0.054825746
0003a0 03 59 46 bc 14 f4 9c bd 40 0b 26 3e 60 7c f1 bd
       -0.012106183 -0.07663742 0.16215229 -0.11791301
0003b0 ec 25 11 3c 3b 0b fd 3b c0 be 08 be 1b 28 0d 3d
       0.008859139 0.007722286 -0.13354015 0.034462076
0003c0 f3 bd c0 be 51 70 55 be 79 42 11 3c e2 01 2f bb
       -0.3764492 -0.20843627 0.008865946 -0.0026704003
0003d0 15 d5 01 3e 43 13 66 be 0e 54 b1 bd d3 ac 49 be
       0.1267894 -0.22468285 -0.0865861 -0.19694833
0003e0 7f 0d 69 be 42 99 5d bd d8 a9 83 bd 5d 50 d2 bd
       -0.22759055 -0.054101236 -0.064288795 -0.10269234
0003f0 89 10 fa bd 30 3a f9 3d d0 d9 63 be 72 1f 15 be
       -0.12210185 0.121693015 -0.22251058 -0.14562777

conv1.bias f4 [16]
000000 2c 32 0c 3e 04 20 17 bd bb f4 f6 3d 7d d7 ad bd
       0.13691014 -0.036895767 0.120583974 -0.08488367
000010 36 31 8d bd 2e 8e 9d 3d 99 c4 3a bd 70 69 1d be
       -0.06894152 0.07693134 -0.045597646 -0.15372252
000020 89 f2 43 bd cd 39 96 bd 0c 65 47 3e d9 7e 9d 3c
       -0.04783872 -0.073352434 0.1947214 0.019225525
000030 ef 07 a4 3d 53 30 bc 3a ea 52 a9 bb 38 0a ad 3d
       0.08009326 0.0014357663 -0.005167355 0.08449215

batchnorm1.weight f4 [16]
000000 8e 28 c2 3e 5b a4 99 3e 67 ed 8d 3e df bd 4f 3f
       0.37921566 0.30008206 0.27720186 0.81149095
000010 4e 26 ea 3e 32 44 9c 3e 42 c4 60 3f ec 75 1e 3e
       0.4573235 0.3052078 0.87799466 0.15474671
000020 a7 fa 62 3f 0c 46 77 3f 08 cc 22 3e 0f 43 39 3f
       0.88663715 0.9659126 0.15898144 0.7236795
000030 04 68 9e 3e 11 ce 16 3f 3d 13 83 3f 1a c1 4e 3f
       0.30938733 0.5890818 1.0240246 0.807634

batchnorm1.bias f4 [16]
000000 50 6e 06 be 90 99 c7 bd d5 d4 41 bd 9c e9 51 3d
       -0.13128018 -0.097460866 -0.047322113 0.051248178
000010 fb 00 84 3c 85 5b 31 be 9a c3 e6 bc d3 8f e2 bd
       0.016113749 -0.17320068 -0.028169442 -0.110625885
000020 6a 37 a7 be be 0f 6a 3d d2 e0 b6 bc 6f 36 5b be
       -0.32659465 0.05714392 -0.022324 -0.21407484
000030 46 35 ee bd 0b 18 40 be 9f 88 74 bd 04 11 0b be
       -0.11631255 -0.18759172 -0.059700605 -0.1358071

batchnorm1.running_mean f4 [16]
000000 f1 da 1b 41 a0 0d 84 c1 85 5e c1 bd c3 b3 d0 c2
       9.7409525 -16.506653 -0.09441856 -104.3511
000010 36 d7 b1 c1 49 f2 04 42 95 dd d2 c1 79 c2 34 c2
       -22.230083 33.236607 -26.358194 -45.189915
000020 80 46 e3 c0 44 89 ca c1 45 73 ab c2 b9 23 ad c1
       -7.102356 -25.317024 -85.725136 -21.642443
000030 71 75 30 c0 40 cf ff c1 f7 01 97 c2 97 21 5e c1
       -2.757168 -31.976196 -75.50384 -13.883201

batchnorm1.running_var f4 [16]
000000 80 cb 10 45 20 c5 41 45 2e 1d 38 45 07 dd cf 46
       2316.7188 3100.3203 2945.8237 26606.514
000010 ad 8a 0c 46 18 b7 6c 45 4d 48 6a 45 b4 96 be 45
       8994.669 3787.4434 3748.5188 6098.838
000020 b1 f4 bc 44 d4 b2 0c 46 1c 9a 32 46 38 f2 34 45
       1511.6466 9004.707 11430.527 2895.1387
000030 be 08 ec 44 da e7 3e 45 f0 e2 87 46 36 25 2d 45
       1888.2732 3054.4907 17393.469 2770.3257

conv2.weight f4 [16, 16, 5, 5]
000000 0e 34 4f bd 9f 88 03 bc 1a 1a 88 bd ad ca fd bc
       -0.050586753 -0.0080281785 -0.066456035 -0.030980432
000010 ba 20 b5 3d 73 83 c9 3d 4b e5 bb 3d 8c 81 65 3c
       0.08844133 0.09839525 0.091745935 0.014007937
000020 a5 15 df 3c 7f b1 12 3e 85 dc 59 3e 86 5f c9 3c
       0.027232 0.14325522 0.21275528 0.024581682
000030 6d 8c 29 bd 60 0a f8 3a 3d d0 1e bd ec d9 d4 3d
       -0.041393686 0.001892399 -0.03877281 0.10393128
000040 f0 4a 12 bd 76 2d ca 3c a0 6e 82 3d f7 2b 0e 3c
       -0.035715997 0.02467988 0.06368756 0.008677474
000050 f4 50 1e bc c7 b3 1b 3d d8 b7 b0 3c 2d d0 83 3d
       -0.009662855 0.038013246 0.021572039 0.06436191
000060 5b 13 42 bc b7 e3 3a 3e 12 76 35 3e 99 81 02 3d
       -0.011845435 0.18250929 0.17720821 0.031861875
000070 62 61 e8 3b d8 5b a6 3b 7a 86 01 3d 6b 16 2a 3d
       0.007091687 0.0050768666 0.031622387 0.041525286
000080 99 1c 20 3d a2 10 d5 bd 6d 77 14 be 6c 84 82 bd
       0.039089773 -0.10403563 -0.14498682 -0.06372914
000090 ba b5 db bd a0 6f a1 bd 8e 26 59 bd c5 b1 cb bc
       -0.10728021 -0.07882619 -0.053015284 -0.02486504
0000a0 59 c9 ef 3c 4d 4b 2e 3d 3b ab ba 3d 87 1b 55 3d
       0.029270815 0.04255228 0.09114691 0.052028205
0000b0 4e bd f7 3d 5d f5 21 3c 6f df c3 3c a3 76 ef bc
       0.12096654 0.009885159 0.023910252 -0.029231375
0000c0 f8 c4 22 bd 99 66 f9 3c 89 4e ed bc 70 73 2d bd
       -0.039738625 0.03044443 -0.028968113 -0.042346418
0000d0 be 6b b0 3b 5c 5e 32 bd 62 0e 98 bd 9c 02 31 be
       0.0053839376 -0.04354702 -0.07424618 -0.17286152
0000e0 8c b6 7e bd 5a f0 17 bd 58 a1 08 bd b3 52 04 be
       -0.06218581 -0.03709445 -0.033356994 -0.12922172
0000f0 dc cc 58 be 6d 20 39 be 5a 4b 60 be c4 5b 8e be
       -0.21171898 -0.18078776 -0.21903744 -0.27804387
000100 fd 6f 43 be fc 05 a4 bd 73 01 2a be b1 86 10 be
       -0.19085689 -0.08008954 -0.16602115 -0.1411388
000110 8e 5a a9 bd d4 cf c0 bb 0f 6c 89 bd 2b 7e 57 bd
       -0.08269225 -0.00588415 -0.06710064 -0.052610558
000120 f9 84 66 bc f9 5b 98 3d 3a 82 48 3e c1 b8 8d 3d
       -0.014069789 0.074394174 0.19580927 0.06920005
000130 20 be 34 3c 20 b5 03 3e f4 46 68 3d 74 94 7a 3d
       0.011031657 0.12862062 0.05670829 0.061176732
000140 4f 62 4f bd ef 27 3c 3d 6c db 2b bc 6c 74 1c be
       -0.050630864 0.04593652 -0.010489326 -0.15278786
000150 b8 3b 02 be 98 44 00 be 10 44 2d be c4 cb 99 bd
       -0.12718093 -0.12526166 -0.16920495 -0.07509568
000160 c3 61 b4 bc cc 49 13 bd 1c e0 a1 bd 30 1b c7 bd
       -0.022019273 -0.03595905 -0.079040736 -0.097219825
000170 a8 1d 8e bd 2e c5 11 be a5 fb 31 be 5a f3 85 3c
       -0.0693925 -0.14235374 -0.17381151 0.01635139
000180 b0 51 57 bd 01 3f 22 bd 87 71 d3 bd d8 07 1e bd
       -0.052568138 -0.039610866 -0.10324388 -0.0385817
000190 20 3a e3 3d 47 d9 f9 bc 94 47 47 3b 5f db bb 3d
       0.11095071 -0.030499114 0.0030407654 0.09172701
0001a0 d9 0f 1b 3e d3 34 91 3c 4f a0 8d 3c 3f 5c 22 bd
       0.15142764 0.017725384 0.017288355 -0.039638754
0001b0 58 6d cd bc 0f 81 8e bd 69 56 b0 bd 3d 68 9f bd
       -0.025076553 -0.0695821 -0.086102314 -0.07783554
0001c0 4c 57 22 be e2 a4 89 be 06 9c 8e be fc 26 0c be
       -0.15853614 -0.26883608 -0.2785341 -0.13686746
0001d0 ee 53 53 be 9a fb 5f be ff 78 18 be 45 e1 ae bd
       -0.20637485 -0.21873322 -0.14889906 -0.085390605
0001e0 05 75 2a be 03 dc 07 be 5e b9 bf bd 89 fe 2e bc
       -0.16646202 -0.13267522 -0.09361528 -0.010680803
0001f0 d1 34 b7 bc d6 d7 51 be 68 cd 21 be c1 91 83 bd
       -0.022364052 -0.20492491 -0.15801013 -0.06424285
000200 c3 3c 05 be 38 71 35 bd 44 3a 26 be bd a2 33 be
       -0.1301146 -0.044297427 -0.16233164 -0.17542548
000210 ab 7f bd bd 87 b2 09 be 7b 61 30 bc 76 09 85 3d
       -0.09252866 -0.13447009 -0.010765429 0.06495945
000220 76 9e ae bc c3 60 2b 3d 08 c2 d3 3b d0 39 6b 3d
       -0.021315794 0.041840326 0.0064623393 0.05742818
000230 80 7c ed 3d 28 0f b5 3d 6f fd 7c 3d b2 b8 f1 3c
       0.11596012 0.088407815 0.06176513 0.029507015
000240 a2 ac 51 3b 62 a9 0a 3e 6c e2 6b bc ca 70 0d bd
       0.0031993766 0.13541177 -0.014397245 -0.034531392
000250 7e 61 98 bb 57 26 b7 bc 7c 2f 0f bd e0 af 17 3d
       -0.004650294 -0.022357149 -0.034957394 0.03703296
000260 3d aa 62 3c f7 5c 07 3b 5b 02 91 bd 0d 9a d6 bd
       0.013834533 0.0020654777 -0.070805274 -0.104786016
000270 ef 1e 6b 3d 7c e0 30 3d cb 32 2e bc aa 42 5e 3d
       0.057402547 0.043182835 -0.010632227 0.054262795
000280 12 54 87 bd 36 5f 36 be 4f b6 62 bd 8a f8 a7 bd
       -0.06607832 -0.17809758 -0.055349644 -0.08201702
000290 ad 2f a0 bc 72 7f d9 bc 0b f5 24 bd 43 94 72 bc
       -0.019553984 -0.026550028 -0.040272754 -0.014805856
0002a0 18 30 e4 3a cd 22 90 3d 29 d4 b8 3d d9 94 93 3d
       0.0017409353 0.07037888 0.09024841 0.07206125
0002b0 d3 7c 97 3d 65 b5 d1 3c 28 4b 15 3d a6 5f a7 bd
       0.07396855 0.025599191 0.036448628 -0.0817254
0002c0 53 6c cf bd 59 f4 fd bd 42 d0 1d bd ba f5 1f 3c
       -0.10128083 -0.12400121 -0.03852869 0.009763176
0002d0 ef 6a 9a bd b1 27 17 bd fc fd 71 bd 2c 3e 92 3d
       -0.07539927 -0.036903087 -0.05908011 0.071407646
0002e0 68 71 49 3b a8 37 9e bd 08 f8 a7 bd 1c 50 e2 3a
       0.0030737761 -0.07725459 -0.08201605 0.0017266306
0002f0 90 10 ac 3d 5d dd 27 bd 7e 18 5e bd a8 4d 49 bd
       0.084015965 -0.040982593 -0.054222576 -0.049146324
000300 86 64 01 3c ad 80 89 3c 66 37 98 bd 3b b5 e5 bc
       0.007897502 0.01678499 -0.074324414 -0.028040519
000310 ef 1a f8 bc 7d 47 d6 3c 56 ac bd 3d d2 37 1e 3e
       -0.03028628 0.026157135 0.09261386 0.15450981
000320 e5 fd ac 3d 94 b7 6c 3d 7a 4c 9b 3d 57 d4 fb bd
       0.08446864 0.05779226 0.07582946 -0.1229636
000330 4b b7 f8 bd 52 ca 04 3e 93 46 02 3e 03 84 10 3d
       -0.12144335 0.12967804 0.12722234 0.035282146
000340 8b bb 98 bd 70 5b 3d bc 35 5c 5d 3e a2 38 5a 3e
       -0.07457646 -0.011557445 0.21617205 0.21310666
000350 f5 bd e3 3c 54 de a1 bc aa e5 c4 bc c9 f8 f0 3d
       0.02780054 -0.019759335 -0.024035294 0.11766202
000360 2e 59 c3 3d b5 0b 44 3d f1 fe 3a 3d 52 da b1 bc
       0.09538494 0.047862727 0.045653287 -0.021710549
000370 56 dc 81 3d ab de b3 bd bf e2 4e 3d d8 94 37 bc
       0.06340854 -0.08782705 0.05050921 -0.011204921
000380 20 11 b2 3d 64 42 0d be 1d 0d 0a be 28 f3 b1 bd
       0.086946726 -0.13794857 -0.13481565 -0.086889565
000390 08 36 01 be 1d 1c cb bd d5 b1 8e be e3 f0 46 be
       -0.12618268 -0.099174716 -0.2787005 -0.19427828
0003a0 6f 3d 32 be 01 ff fa bc 40 2a 53 3d 20 b5 34 be
       -0.17406248 -0.030639173 0.051553965 -0.17647219
0003b0 70 a6 5d be 2f 6b 3a be 6f d0 93 bd 2a b0 14 bd
       -0.21645522 -0.1820495 -0.0721749 -0.036300816
0003c0 7d b2 45 3a 8a e9 df bd 3c 1d 16 be ff bd 8b bc
       0.00075415504 -0.10933216 -0.1465959 -0.01705837
0003d0 03 3f ec ba 66 06 f0 3d 11 de 0d bd cb 6a 0c bd
       -0.001802415 0.117199704 -0.034635607 -0.034281533
0003e0 75 01 8d 3d e2 9f e5 bb b8 c1 06 bc ff ee 07 bd
       0.068850435 -0.007007585 -0.008224897 -0.03318691
0003f0 a4 9b a3 ba b0 49 1d be 05 ce d1 bd c4 9f bb bd
       -0.0012482298 -0.15360141 -0.10244373 -0.09161332

conv2.bias f4 [16]
000000 2e 4c 30 3d 8f b3 44 be f0 d3 ec bd b4 f3 f6 3c
       0.0430414 -0.19209121 -0.11563861 0.030145504
000010 04 ed a6 bd 29 f0 d7 3d ce 99 0e 3d 5b dc fe bb
       -0.08150676 0.10543854 0.03481465 -0.0077777333
000020 e6 33 3a bc a6 be 14 be 24 48 e0 3c 62 f7 c4 3d
       -0.011364913 -0.14525852 0.02737815 0.09617497
000030 fe 40 ba 3d af 72 57 3c a9 cd 71 bd f8 22 10 3e
       0.090944275 0.013149901 -0.059034023 0.1407584

batchnorm2.weight f4 [16]
000000 15 6e c3 3e f4 fc 8d 3e cc 8c ba 3e c7 65 01 3f
       0.38169923 0.2773205 0.36435544 0.50545925
000010 14 d9 0b 3f ec b5 b1 3e 42 78 6b 3f 8f 70 1d 3f
       0.5462811 0.34709108 0.91980374 0.61499876
000020 c3 4f 4a 3f b7 71 2e 3f 11 c1 b5 3e 45 3f 11 3f
       0.79027957 0.68142265 0.3549886 0.56737167
000030 98 67 8d 3e b7 be be 3e 81 d9 50 3e e7 dd 2e 3e
       0.27618098 0.3725488 0.20395471 0.17076837

batchnorm2.bias f4 [16]
000000 3f b7 09 bb ca 66 12 3d 5f 3d 26 bd 88 10 63 3d
       -0.0021013764 0.03574256 -0.04058587 0.055435687
000010 90 e7 70 bc 0d 7a 51 bd 4b cb 0e bd e6 ae 1d be
       -0.014703646 -0.051141787 -0.034861844 -0.1539875
000020 32 06 39 be a6 13 9a bd e4 5b 68 bc 42 f1 d9 bd
       -0.1806877 -0.07523279 -0.014182065 -0.106417194
000030 17 81 c7 bc f5 70 ff bd 17 cc 9b bc 9f 45 df 3c
       -0.024353547 -0.12472717 -0.019018216 0.027254878

batchnorm2.running_mean f4 [16]
000000 42 f8 c6 bf 7b 9c a4 bf 59 67 8f bd 53 ae aa bd
       -1.5544512 -1.2860254 -0.07002134 -0.08334031
000010 b3 d0 b8 bd b9 20 ce be c4 95 91 3e 9f ff a9 be
       -0.09024181 -0.4025934 0.28434575 -0.33202836
000020 be c4 85 bf 38 10 e4 bf 03 2a 83 be 50 b5 31 bf
       -1.0450666 -1.781745 -0.2561799 -0.69417286
000030 67 d1 a0 bf 3c 1d f8 be 54 96 18 3b 16 e5 d8 3f
       -1.2563905 -0.48459804 0.0023282962 1.6944911

batchnorm2.running_var f4 [16]
000000 7c 62 44 3f 21 e6 27 3f dc 37 c5 3f 95 c3 2c 3f
       0.76712775 0.65585524 1.5407672 0.67485934
000010 f3 ca 6d 3f 4c c6 85 3f 4e fb 93 3f c2 04 8e 3f
       0.928878 1.045114 1.1561067 1.1095202
000020 45 6f 44 3f 7e 33 80 3f bc f4 c6 3f a3 73 96 3f
       0.76732284 1.0015714 1.5543437 1.175404
000030 9b 24 8b 3f 44 1b 9c 3f 61 0a 95 3f 9e f9 7e 3f
       1.0870546 1.2195821 1.1643792 0.99599636

linear1.weight f4 [100, 256]
000000 e5 2a 18 3b 4e 88 ce 3b a7 2b c0 bd c9 b2 a7 3d
       0.0023218927 0.00630287 -0.09383326 0.081883974
000010 8e ef 32 3d c0 1d 24 38 49 71 61 bd 3b 13 83 3d
       0.04368549 3.9128354e-05 -0.055039678 0.06400152
000020 6e ed c0 3d ad ca f4 ba 98 dd dc 3d a8 0c ba 3d
       0.09420286 -0.0018676125 0.10784453 0.09084445
000030 d3 23 21 3e 00 d0 d2 3d 57 b9 47 3e 02 5e cc bd
       0.15736322 0.10293579 0.19504295 -0.09978868
000040 d6 f6 46 bb 6c 9f f0 bd 12 ea 7e bd 7b 67 66 3d
       -0.0030359528 -0.11749157 -0.062234946 0.05625103
000050 49 b3 a2 bd 55 47 cc bb f7 23 6c bd d4 9a f8 bd
       -0.07944352 -0.0062340894 -0.057651486 -0.12138906
000060 82 18 06 bc e2 66 4a 3e aa 50 74 bd ac f2 8b bd
       -0.008184554 0.19765809 -0.05964724 -0.06833395
000070 6a ae b8 bd 45 af 3e 3e ef 10 0d be b6 f6 7c 3b
       -0.09017642 0.18621548 -0.13775991 0.00385992
000080 ed a1 ea bd 96 65 d5 bd 9b a7 46 3d c7 df 4a 3e
       -0.11456666 -0.104197666 0.048499685 0.19811927
000090 1e 19 c9 3d 2d 43 7d 3d 23 99 fe 3d 32 a3 18 3d
       0.09819244 0.061831642 0.12431552 0.03726501
0000a0 6e 5e 05 bd a0 0e 5a 3b ee 20 9d 3d 08 eb 11 be
       -0.03256076 0.0033272877 0.076722965 -0.14249814
0000b0 df ee 64 bd 4e 61 1e be d5 ba ba 3c 6d 34 19 be
       -0.055891868 -0.15466806 0.022794167 -0.14961405
0000c0 b5 41 00 3d cc 30 86 bd 2d 85 69 bd 19 f4 ff 3d
       0.031312663 -0.06552276 -0.057011772 0.1249773
0000d0 37 74 49 bc 04 ff b6 3d 95 a6 89 bc 6d 64 9b bc
       -0.012295774 0.08935359 -0.016803065 -0.018968785
0000e0 7e 94 71 bc db 43 1d 3d 76 16 c7 bd cb 46 42 3d
       -0.014744876 0.03839479 -0.09721081 0.047430795
0000f0 44 9f 25 bd e3 f4 31 3d 9d 34 ff bc b1 ca 26 3d
       -0.04043509 0.043446433 -0.031153018 0.040720645
000100 61 3f c0 bd 0d ee 7f 3d 7c 99 3b bd b5 9e e1 bd
       -0.093870886 0.062482882 -0.04580067 -0.11016599
000110 f7 83 12 be 6b a7 18 be df 17 87 3d 30 a1 28 3d
       -0.14308153 -0.14907615 0.0659635 0.041169345
000120 e1 56 52 be 45 5b c3 bd 91 8a ef 3d ef 55 08 3e
       -0.20540954 -0.09538893 0.11696351 0.13314031
000130 a0 bc f8 3d c8 39 0e 3e 8f d4 2f 3e 3a 89 3e 3e
       0.12145352 0.1388923 0.17170928 0.18607035
000140 7a 4a 33 be 10 70 24 3c d1 a5 da 3c 3d c6 f1 bd
       -0.1750888 0.010036483 0.026690396 -0.11805389
000150 f3 56 0a bd e3 3d e9 bd 57 9d 02 3e 3c 17 71 3e
       -0.033774327 -0.11388757 0.12755333 0.2354402
000160 3e c2 70 3c e2 10 92 3d b7 6b 1a 3e 9a c8 96 3d
       0.014694748 0.071321264 0.15080152 0.073624805
000170 59 0e 60 bd d1 17 27 3d 90 89 60 3e a4 9e 28 3b
       -0.054701183 0.040794197 0.21927476 0.0025729323
000180 d5 55 06 bd 78 2b e2 bd 9d 88 da 3d ed 0c bf 3c
       -0.0327967 -0.11043447 0.10670588 0.023321593
000190 a6 e9 6c 3d ee e0 cd 3d 16 00 94 bd 59 fb 71 3c
       0.057840012 0.100526676 -0.07226579 0.014769399
0001a0 00 25 70 3c 29 79 8d 3c 8f 27 06 be 56 fd 87 bd
       0.014657259 0.017269688 -0.13101028 -0.06640117
0001b0 f5 f3 ac 3d 1e 5e 5c bb 70 60 b3 3c e4 cc 1d bd
       0.084449686 -0.0033625434 0.02189657 -0.038525477
0001c0 2c 18 87 3d 5b a7 8f 3c 14 38 d0 39 40 63 7a 3d
       0.06596407 0.017535856 0.00039714633 0.06112981
0001d0 ac 4b db 3d 59 94 1e be 9f 2c 99 3c 86 21 cc 3d
       0.10707793 -0.15486278 0.018698035 0.099673316
0001e0 12 7f 33 3e 52 2d 50 bd 03 d8 16 be a3 2e 0d be
       0.17528942 -0.05082447 -0.1473084 -0.13787322
0001f0 b4 17 ec bd a3 7d 83 bc 34 85 76 bc 48 62 4a 3d
       -0.115279585 -0.01605112 -0.015046407 0.049410135
000200 89 a2 dc 3c a8 ab 24 bd d6 8d 10 3c f7 cd ae bd
       0.026932972 -0.040202767 0.008822879 -0.085353784
000210 5e c7 e5 3d 3c 01 bd bc 55 c2 75 bd 1a f6 b4 bc
       0.11219667 -0.023071878 -0.059999783 -0.022090007
000220 14 e0 e7 3d 86 68 15 3e ef 34 2f bb de 35 d1 bc
       0.113220364 0.14590654 -0.0026734432 -0.025538381
000230 10 1d 92 3d 18 f4 07 3e 82 78 1e 3d b9 2e 77 bc
       0.071344495 0.13276708 0.038689144 -0.015086823
000240 25 70 86 3d 1e 4c 57 3d ce e6 95 3d 77 41 6a bc
       0.065643586 0.052562825 0.07319413 -0.014297835
000250 8b 2f 35 3c e0 65 19 3c f5 d6 c7 3d 8f 02 9c bd
       0.011058698 0.009362668 0.09757797 -0.076176755
000260 6c 73 ad 3c f2 31 fe 3d 3a 9f ea bd 68 91 06 be
       0.021173202 0.1241187 -0.11456151 -0.13141406
000270 6c 57 0b 3d a7 1c 1f bd ab 30 2b bd fa 3a 87 bd
       0.03401892 -0.038845684 -0.04179446 -0.06603046
000280 ac c3 73 3d b4 ea 14 3e d2 83 89 3e 76 43 db 3d
       0.05951278 0.14542657 0.26858383 0.107062265
000290 c0 03 bf bd 68 63 c2 bd f1 8f 24 3d 96 7c 14 bd
       -0.09326887 -0.094916165 0.040176336 -0.036251627
0002a0 0f 78 c9 bd fd ee 54 be ea 56 71 bc 28 5e c5 3c
       -0.098373525 -0.20794292 -0.014730195 0.024092749
0002b0 ca c8 ed 3c 56 de 1a be ec 17 9e bd 6c 56 d6 3d
       0.029026408 -0.15123877 -0.077194065 0.104657024
0002c0 37 1b cd bd bc 4d df 3d 16 c4 42 3d 0f 03 12 3e
       -0.100149564 0.109034985 0.047550283 0.1425898
0002d0 22 da 12 3d ed f0 9c 3d 2d b6 44 bd 01 d6 0e 3d
       0.03585256 0.076631404 -0.0480253 0.03487206
0002e0 12 51 88 3d b9 14 87 bd d7 aa 93 bd 90 e4 02 bd
       0.06656088 -0.065957494 -0.072103195 -0.031956255
0002f0 46 25 cd bd 4d f9 07 bc c4 f4 73 3d cd ac 49 3e
       -0.10016875 -0.008299184 0.0595596 0.19694825
000300 52 af 88 bd 89 05 32 3c 61 55 f1 bd c7 87 a2 bc
       -0.06674065 0.0108655775 -0.11783863 -0.019840134
000310 8a 6e c3 3d 8d 64 63 3d 46 7c 34 3b 55 ea 13 3e
       0.09542568 0.055515815 0.0027539893 0.1444486
000320 7e 1b 54 3d cd 9e 0c bc 32 1f 4b 3e 6c e8 c8 3d
       0.05178403 -0.008582783 0.19836119 0.09809956
000330 9b 82 83 bd a7 40 4e bd b9 1a 2f bc 1d 06 28 3e
       -0.064213954 -0.050354626 -0.0106875235 0.16408582
000340 34 7e 2d 3e df 57 aa bc d1 c4 17 3b b0 dd 89 bc
       0.16942674 -0.020793853 0.0023158083 -0.016829342
000350 08 db bf 3d db c2 9e bd a7 55 2a bd 81 6a ce bd
       0.09367949 -0.077520095 -0.04158559 -0.10078908
000360 fe 9d b8 3c 4f a8 f1 3d e6 11 fc 3c 73 62 cb 3d
       0.022536274 0.117996804 0.030770253 0.09930887
000370 80 78 97 3d 0a bb 99 3e 2e 97 23 3d dc 36 12 bd
       0.073960304 0.30025512 0.039939098 -0.03569685
000380 4f e4 d1 bd 09 7a a9 bd c1 54 35 bc e3 e8 08 3e
       -0.102486245 -0.082752295 -0.01106757 0.13370089
000390 43 f7 e1 3d 9c ca b4 bd 87 52 d2 3a 6c f3 b8 3d
       0.110334896 -0.08827707 0.0016046324 0.09030804
0003a0 5d ef 53 3d 56 c2 97 bb 6c d6 0a be a0 7c bb 3d
       0.051741946 -0.004631321 -0.13558358 0.0915463
0003b0 ab 6b 7e 3d 91 82 53 bd 16 4a f5 3c da 8b a5 bd
       0.0621144 -0.05163819 0.029942553 -0.08083315
0003c0 17 a4 93 bd 54 45 e7 bd f5 7b 28 be 79 93 05 3e
       -0.07209032 -0.1129252 -0.16453536 0.13044538
0003d0 c1 2b 8f be 16 38 5c 3d 4c 09 aa bc 26 70 ac bb
       -0.2796307 0.053764425 -0.020756386 -0.0052623926
0003e0 06 d2 1b be 65 11 d8 bd d2 48 dd 3c 2a 3b 45 3e
       -0.15216836 -0.10550193 0.027012262 0.1926085
0003f0 75 b2 11 be 9c 9e 1d be f3 2c 15 3e d0 09 62 bb
       -0.14228232 -0.15392536 0.14567928 -0.0034490712

linear1.bias f4 [100]
000000 6e 6c 8b bc 43 3b 43 3d d3 50 d0 bc a8 c6 8f 3d
       -0.017019477 0.04766394 -0.025429165 0.070203125
000010 df 02 65 3d 2a 52 4e 3b 25 37 9c bd e3 e5 a6 3b
       0.05591094 0.003148208 -0.076277055 0.0050933226
000020 fc 70 8b 3c c0 92 12 3d 9b d0 a7 bc 2c 57 a7 3c
       0.017021649 0.035784483 -0.020485213 0.020427309
000030 e9 1b ba bc f9 d3 92 bd 34 86 b9 3c b2 7a af bb
       -0.022718387 -0.07169337 0.022647 -0.0053552026
000040 d0 f1 fd 3c 59 fb 08 3d fe 05 07 bc 21 d9 dc bc
       0.030999094 0.03344283 -0.008241175 -0.026959004
000050 45 41 77 bb 80 c9 a8 bd 4d f0 3b bd e2 77 ea 3c
       -0.0037728113 -0.08241558 -0.045883466 0.028621618
000060 59 8a 6b 3c 48 30 7b 3d d3 31 28 bc bd a0 8b 3d
       0.014376246 0.06132534 -0.010265785 0.06817768
000070 81 77 a3 bd 02 98 5d bd ee c4 9f 3d 42 7e 89 bd
       -0.07981778 -0.054100044 0.07801233 -0.06713535
000080 d3 07 5a 3d 0d d1 8e bc bd 7c 5b bc 67 a2 83 bb
       0.053230118 -0.017433668 -0.013396439 -0.0040171626
000090 8e 42 39 3c e2 b3 9f 3d bb df c9 3b 77 9b b0 ba
       0.011307372 0.07797982 0.006160704 -0.0013474067
0000a0 88 bd 44 3b 77 53 db 3c e5 e7 83 bb 47 95 12 bd
       0.0030020196 0.026773198 -0.0040254467 -0.035786893
0000b0 ab b8 16 3d d4 da 1f ba 79 13 05 bd 32 43 68 bc
       0.036797207 -0.00060979766 -0.032489274 -0.014176177
0000c0 85 8e b4 ba 1f 62 06 3c d7 54 69 bd 67 59 03 3c
       -0.0013775384 0.008202105 -0.056965675 0.008016921
0000d0 4a b3 fb 3c 93 ee fc bc ee 03 d5 3c e0 0f bf 3d
       0.03072514 -0.03087548 0.02600285 0.093292
0000e0 d2 2f 68 3a 03 ab 8d bd 0c 2e 19 3c f5 64 11 3d
       0.00088572234 -0.069173835 0.009349357 0.03549667
0000f0 69 df 3e 3b ef 0d 4d bd 6c 3c 22 3c 24 52 61 3d
       0.0029124862 -0.050062116 0.009902101 0.055009976
000100 e2 8e 89 3b 37 8f 29 bd 78 b9 9f bc d0 ab 12 3d
       0.004197941 -0.041396346 -0.019497618 0.035808384
000110 bf fe ca 3b 69 4c d1 bd 7c cc 56 3c 3f ac 9d 3a
       0.006194919 -0.10219652 0.013110276 0.0012029483
000120 a2 44 68 bd ec 40 0e bd 62 3d 53 bd c6 49 76 3d
       -0.05670608 -0.034729883 -0.05157221 0.06012895
000130 f0 86 87 3a 66 66 3e bd f6 0b 57 bd d1 e4 17 bd
       0.0010339897 -0.046484374 -0.05250164 -0.03708345
000140 a2 50 24 bd 2f be ff 3c 60 48 48 bd 9b e1 c5 3c
       -0.04011596 0.031218616 -0.048897147 0.024155429
000150 3b 0b cb bc d0 59 94 bc 4a 70 35 bc b4 d2 57 3d
       -0.024785629 -0.018109232 -0.011074135 0.052691177
000160 86 a8 09 be da 34 82 bb 18 cb 33 3c d5 bb c2 3c
       -0.13443193 -0.0039735856 0.010973714 0.023771206
000170 0b e2 e1 3c 7e b0 c0 bc e7 8c b9 3d cd b7 08 3d
       0.027573606 -0.023521658 0.09060078 0.03337841
000180 27 ad 6c 3d f3 06 02 3d 74 e1 ca 3b 0c 24 91 3d
       0.05778232 0.03174491 0.006191427 0.070869535

batchnorm3.weight f4 [100]
000000 0d 60 27 3f 94 a9 7b 3f 24 35 13 3f 1a fc 82 3f
       0.65380937 0.9830563 0.5750296 1.0233185
000010 49 cd e9 3e d8 1e 0c 3f 5c a7 84 3f 2f 31 3d 3f
       0.45664433 0.54734564 1.0363574 0.73903173
000020 97 a9 d2 3e 6b 08 f8 3e 04 d5 1d 3f 4d 63 80 3f
       0.41145012 0.48443922 0.6165316 1.0030304
000030 f7 b1 0b 3f 6b 43 ca 3e 9e 6e 16 3f df 40 44 3f
       0.5456843 0.3950456 0.5876254 0.76661485
000040 18 15 38 3f ac a7 b6 3e 92 b2 9f 3f ec ab 3e 3f
       0.71907187 0.35674798 1.247637 0.7448108
000050 c8 c9 e0 3e b8 4a 9c 3f 3e 4d 47 3f c3 7c 77 3f
       0.43903947 1.2210302 0.7785224 0.96674746
000060 b3 87 98 3f 12 b7 2c 3f ee 5b 8a 3f 54 e2 df 3e
       1.1916412 0.67466843 1.0809305 0.43727362
000070 59 0e 51 3f 40 a1 97 3f 6e 13 4a 3f 95 6d 80 3f
       0.8166252 1.1846085 0.789359 1.0033442
000080 34 73 6f 3f 1e d1 a2 3f 7d 17 03 3f ed 53 44 3f
       0.9353516 1.2720068 0.51207715 0.7669056
000090 7e 1e f5 3e cd 1f 0b 3f 43 a4 76 3f a2 1c 1e 3f
       0.47874826 0.543454 0.96344393 0.6176244
0000a0 41 e2 4a 3f be 7c e2 3e 27 89 3f 3f d9 e3 e2 3e
       0.79251486 0.44235796 0.7481865 0.4431446
0000b0 3f 72 2d 3f 04 74 ee 3e 3b f6 ff 3e cc a1 27 3f
       0.6775245 0.46572888 0.49992546 0.6548126
0000c0 5f 1f 15 3f ba dc 2c 3f 47 c5 8d 3f 6c 3e c0 3e
       0.58250993 0.675243 1.1075829 0.37547624
0000d0 9a 3d f6 3e a5 03 99 3f 92 f6 1e 3f 30 8d a2 3f
       0.48093873 1.1954237 0.62094986 1.2699337
0000e0 d5 6b c4 3e e4 8e 96 3f 6e 76 97 3f 00 10 f0 3e
       0.3836352 1.1762357 1.1833017 0.46887207
0000f0 96 d0 50 3f db ef aa 3f 0c c2 9b 3f 32 3f 28 3f
       0.81568277 1.3354448 1.2168593 0.6572143
000100 cb f2 9c 3f 87 94 a1 3f 24 0b 00 3f de 1c 78 3f
       1.2261595 1.2623452 0.50017 0.9691905
000110 dd 7c 42 3f 1f 8d 64 3f 30 12 82 3f 9e 67 83 3f
       0.75971776 0.89277834 1.01618 1.0265996
000120 0e ee c3 3e 2d 3d e7 3e c5 ae 0a 3f b3 22 5b 3f
       0.3826756 0.4516386 0.5417293 0.8559982
000130 a6 86 8b 3f 1f 9b 56 3f 60 5b dc 3e 25 be 3a 3f
       1.0900466 0.83830446 0.43038464 0.7294639
000140 45 eb ce 3e 39 0d 1f 3f cf 18 66 3f 71 9e db 3e
       0.4041387 0.6212955 0.89881605 0.4289432
000150 d8 48 9f bc cf 99 c2 3e ae 23 9c 3f 68 3b 56 3f
       -0.019443914 0.38007972 1.2198389 0.83684397
000160 b2 27 8e 3f 45 0a 4d 3f 4a e9 41 3f 60 3f 63 3f
       1.1105864 0.80093795 0.75746596 0.8876858
000170 4f 88 b5 3e c6 2c 8d 3f 33 3a 8e 3f fe 94 5e 3f
       0.35455558 1.1029289 1.1111511 0.86946094
000180 91 77 48 3f 9e b6 00 3f 16 8d 87 3f d7 45 dd 3e
       0.78307444 0.5027865 1.0589931 0.43217346

batchnorm3.bias f4 [100]
000000 89 67 7c 3e 39 3a 81 3e 65 08 6f 3e b5 f8 5e 3e
       0.2464887 0.25239733 0.23343046 0.21774562
000010 26 3a 6f 3e 0e fb 61 3e df c5 6f 3e 3e 8e 6b 3e
       0.23362026 0.22068426 0.23415326 0.2300348
000020 a4 28 7b 3e 37 26 5e 3e 75 64 79 3e 20 83 81 3e
       0.24527222 0.21694265 0.24354728 0.25295353
000030 55 c9 29 3e ee 88 1b 3e fc fc 73 3e 70 6b 6f 3e
       0.16580708 0.15188953 0.23826975 0.23380828
000040 d0 27 97 3e 89 cd 7d 3e 27 c3 98 3e b4 f9 6c 3e
       0.29522562 0.24785437 0.2983639 0.23142129
000050 d2 cf 6e 3e f1 9f a8 3e f4 a7 73 3e 00 37 82 3e
       0.23321465 0.32934526 0.23794538 0.25432587
000060 5e c4 a4 3e fa 7f 30 3e d2 96 5a 3e 45 c4 46 3e
       0.32181066 0.17236319 0.21346596 0.19410808
000070 2b ef 83 3e 1f 9f 8d 3e 12 be 8c 3e 86 16 3b 3e
       0.25768408 0.27660462 0.27488762 0.18270311
000080 39 71 52 3e fd 11 70 3e ba 25 7c 3e 57 77 87 3e
       0.20551004 0.23444362 0.24623767 0.26458237
000090 75 d5 78 3e a9 f0 56 3e e6 d2 68 3e 82 5e 66 3e
       0.24300177 0.20990242 0.22736701 0.2249699
0000a0 43 71 3e 3e 2d 16 57 3e c2 bb 56 3e f3 43 57 3e
       0.18597893 0.21004553 0.20970061 0.21022014
0000b0 d8 1e 95 3e 62 2b 84 3e 5f 23 82 3e bf 6c 1d 3e
       0.29125094 0.25814348 0.2541761 0.15373515
0000c0 29 f0 5f 3e e1 97 49 3e 23 6c 48 3e b4 ce 53 3e
       0.21868958 0.19686843 0.19572501 0.2068432
0000d0 07 5b 83 3e de 49 83 3e e8 8a 61 3e 9e 52 5b 3e
       0.25655386 0.25642294 0.22025645 0.21418235
0000e0 a5 99 64 3e 77 32 84 3e ad f3 9f 3e ae 48 44 3e
       0.22324236 0.25819752 0.31240597 0.1916835
0000f0 5f 14 11 3e 7e 2a 97 3e 4d f9 46 3e 63 f2 67 3e
       0.14167927 0.29524606 0.19431038 0.22651057
000100 8c ac 67 3e 67 f9 9a 3e e6 12 46 3e ea 4a 61 3e
       0.22624415 0.30268404 0.19343147 0.22001234
000110 f9 16 80 3e ee 55 f4 3d 4e 8d 72 3e 10 9c 85 3e
       0.25017527 0.11930452 0.23686716 0.2609563
000120 a1 c3 45 3e 32 8b 79 3e 65 3b 8e 3e c5 75 0b 3e
       0.19312908 0.24369505 0.2777969 0.13619144
000130 6f f4 30 3e f1 d6 71 3e db f0 31 3e 7f d8 66 3e
       0.17280744 0.2361715 0.17377035 0.22543524
000140 dc ce 65 3e ab 7c 33 3e ec 6f 74 3e 44 18 10 3e
       0.22442192 0.17528026 0.2387082 0.14071757
000150 36 1c 82 bd c5 eb 4b 3e a2 ef 51 3e b7 3a 3a 3e
       -0.06353037 0.19914158 0.20501569 0.1818646
000160 ba d3 7f 3e 9b 77 3f 3e a9 ac 91 3e cd 35 8b 3e
       0.24983111 0.1869797 0.28452042 0.27189484
000170 8a 21 83 3e fd 94 4e 3e 11 b7 87 3e 9f d5 98 3e
       0.25611526 0.20174022 0.26506856 0.2985048
000180 54 68 78 3e 92 49 5b 3e 5a 54 81 3e 28 24 4f 3e
       0.24258548 0.21414784 0.25259668 0.20228636

batchnorm3.running_mean f4 [100]
000000 34 75 12 3e 06 1b 26 3e f4 bb e2 3b 9b 23 5a bd
       0.14302522 0.16221246 0.0069193784 -0.053256612
000010 ef f8 c7 3e 04 d8 81 3d c7 15 44 be e8 e5 3d 3e
       0.3905711 0.0634003 -0.19148932 0.18544734
000020 30 69 bc 3e 5d 10 c6 3c bf 72 11 be a8 98 b5 3d
       0.36799002 0.024177724 -0.14203928 0.088670075
000030 87 6b ca be 7f 31 d3 be 76 56 4c 3e 4d 5a 8e be
       -0.39535162 -0.412487 0.19954857 -0.2780327
000040 1f 79 d0 be 71 3f 37 bd bc c0 9b be cb e6 2d be
       -0.40717408 -0.044738237 -0.30420482 -0.16982572
000050 3f 92 c1 be de 93 85 3e 1e 06 4d be 07 35 8d be
       -0.3780689 0.26089376 -0.20021865 -0.2757952
000060 ed e4 0c 3e 9c 3d 66 be 0a 05 e4 3e 88 e9 e1 3c
       0.13759203 -0.2248444 0.44535094 0.027577177
000070 42 a4 a2 bc 13 3f 15 3e da b4 57 3e 6a c2 91 3d
       -0.019853715 0.14574842 0.21065083 0.0711716
000080 7a c7 42 3e 9a 9b f0 3d 06 b8 8f 3d ce 3c 84 bc
       0.19021407 0.11748429 0.070175216 -0.016142275
000090 6a f6 eb 3e 3b ac 11 be 31 b8 45 be d8 e5 ba 3e
       0.46086437 -0.14225857 -0.19308545 0.36503482
0000a0 69 b2 26 3e cc 2d 9e 3e 47 c9 6d 3e 77 d8 e8 be
       0.16278996 0.30894315 0.23221312 -0.4547765
0000b0 14 28 b6 be 90 94 9d be 24 99 2c be c4 4e 9e 3c
       -0.35577452 -0.30777407 -0.16855294 0.019324668
0000c0 d0 7c f4 bc 7f d6 4a be 00 5a e3 be ba ce 6a 3e
       -0.029844671 -0.19808386 -0.44404602 0.22930422
0000d0 2f f7 e7 be 41 eb c2 bd b0 5d 0d 3e e7 3f 61 bd
       -0.45305774 -0.09517527 0.1380527 -0.054992583
0000e0 f0 c5 bf 3e a8 b5 b3 be e7 a3 be 3e c5 86 cb bd
       0.37455702 -0.3509953 0.37234423 -0.099378146
0000f0 c1 db 96 be 4e 9c 1b bf 4a 45 9c 3e cf 84 f1 3d
       -0.29464534 -0.6078538 0.30521613 0.11792909
000100 64 49 c1 be ba cf db be 51 64 84 be d3 6a d6 be
       -0.37751305 -0.4293192 -0.25857785 -0.41878375
000110 a5 ab b3 be 14 f9 a7 3c 25 d5 c3 3e b4 fe 31 3e
       -0.35091892 0.020504512 0.38248554 0.17382318
000120 bf 15 81 3e 93 31 7f be c7 3b 25 bf 54 b9 05 3f
       0.25211903 -0.24921255 -0.6454434 0.52235913
000130 e0 ac 23 bf 47 e9 d6 3d 13 a4 5c bd 09 72 a1 bd
       -0.6393566 0.10493713 -0.05386741 -0.078830786
000140 07 bb a1 3c f6 c5 72 bf 30 db ed 3d b0 5d 7c 3e
       0.019742502 -0.94833314 0.11614072 0.24645114
000150 c9 94 60 3f d1 4a 01 3f a1 d2 64 be 1c 2f ba 3e
       0.8772703 0.50504786 -0.22345974 0.36364067
000160 ce 06 1d bf ec 8c d5 be a5 e7 de be 75 dd 01 be
       -0.6133851 -0.41709077 -0.43536106 -0.12682135
000170 7d e0 ce bc ce 91 bd be 10 c9 9c 3e 75 92 c8 bd
       -0.025253529 -0.37025303 0.3062215 -0.097935595
000180 5f 11 23 be e5 44 83 bd 3c 5c 83 3e 39 cc 60 3f
       -0.15924595 -0.06409625 0.25656307 0.8781162

batchnorm3.running_var f4 [100]
000000 8b f4 fb 3e 5e 52 95 3e 60 17 85 3e eb 16 03 3f
       0.4921001 0.29164404 0.25994396 0.51206845
000010 9c 17 89 3e ec 1a 75 3e 3c 28 0d 3f f5 c7 b7 3e
       0.26775825 0.23936051 0.5513952 0.35894743
000020 72 91 e3 3e 7d 5f 2e 3f 46 5e 97 3e d5 80 76 3e
       0.44446903 0.68114454 0.29564112 0.24072583
000030 f0 33 8c 3e 6f 5e 90 3e 94 80 be 3e 47 7c ba 3e
       0.27383375 0.28197047 0.37207472 0.3642294
000040 d7 23 58 3e 90 40 aa 3e 0b 27 da 3e 02 00 bd 3e
       0.21107422 0.33252382 0.42607912 0.36914068
000050 a9 d0 9e 3e f2 2b c4 3e 1c 31 9e 3e 57 29 c6 3e
       0.3101857 0.38314778 0.30896842 0.38703415
000060 81 49 8e 3e 33 fb 67 3e 49 d8 e2 3e a3 d9 df 3e
       0.27790454 0.22654419 0.44305637 0.4372073
000070 bf b8 7d 3e 7a 1f 9c 3e bf ce 90 3e 7e 2f bc 3e
       0.24777506 0.30492765 0.28282735 0.36754984
000080 1a 87 92 3e 57 c6 83 3e 34 56 a3 3e aa 67 a3 3e
       0.286187 0.2573726 0.31901705 0.31915027
000090 80 8d ed 3e 31 5f b4 3e cb 1e 84 3e 9d c2 13 3f
       0.46397018 0.35228875 0.25804743 0.5771883
0000a0 ff 8c 04 3f d1 0f 19 3f 48 3b 14 3f 97 a5 e4 3e
       0.5177764 0.5978976 0.57902956 0.44657585
0000b0 a8 75 c7 3e c6 46 53 3e 82 12 90 3e a1 35 8b 3e
       0.38956952 0.20632467 0.2813912 0.27189353
0000c0 e1 dd 89 3e 8e 1d a8 3e dc 67 72 3e 88 b6 d9 3e
       0.26927093 0.32835048 0.23672432 0.42522073
0000d0 27 f2 e3 3e 3a 34 7d 3e e1 6d 27 3f d4 3a f8 3e
       0.44520685 0.24726954 0.65402037 0.48482382
0000e0 17 f1 42 3f 86 43 c8 3e 10 71 98 3e 13 98 fb 3e
       0.76149124 0.39114016 0.2977376 0.4913946
0000f0 76 cc aa 3e 34 9d ad 3e 7f 09 06 3f 2f b4 02 3f
       0.33359116 0.33909 0.5235824 0.5105619
000100 c8 a2 d4 3e 4d 47 5b 3e 0a 23 c5 3e 02 37 9a 3e
       0.41530442 0.21413918 0.38503295 0.30120093
000110 e3 87 b2 3e 76 e0 9c 3e 30 04 d3 3e 3c 7a 10 3f
       0.34869298 0.3064 0.41214132 0.56436515
000120 bb 9e bf 3e 71 cd e7 3e 32 4c 6b 3e f8 ad 5e 3e
       0.3742579 0.45273927 0.22978285 0.21746051
000130 8c 7d 8e 3e fa d4 b0 3e a1 ff 74 3e 86 02 12 3f
       0.2783016 0.34537488 0.2392564 0.570351
000140 a9 06 a0 3e 3a 09 85 3e 1e 4c fa 3e ce bf 26 3f
       0.3125508 0.25983602 0.48886198 0.6513642
000150 7c 19 63 3e ea e3 96 3e a0 9a b5 3e 62 47 ae 3e
       0.2217769 0.2947076 0.35469532 0.34038836
000160 6d 47 8a 3e 52 fb e1 3e b3 f5 b2 3e ea 86 b3 3e
       0.2700762 0.44137055 0.3495308 0.3506387
000170 f4 f2 fb 3e 5b 4e bb 3e 33 03 d9 3e 46 65 68 3e
       0.49208796 0.36583218 0.42385253 0.22694883
000180 01 61 73 3e d3 cd a4 3e 04 66 5d 3e 31 08 a6 3e
       0.23767473 0.3218828 0.21620947 0.32428125

linear2.weight f4 [10, 100]
000000 a9 79 23 3e 85 b9 79 3e dc 88 22 3c ae c0 95 be
       0.15964378 0.24387176 0.009920325 -0.29248565
000010 38 4e bc be 8e fd a4 be eb 01 4b be 15 b5 97 be
       -0.36778426 -0.32224697 -0.1982495 -0.29630342
000020 4c b2 95 be ab 85 26 be 20 d5 c7 be ee 4b 24 be
       -0.29237592 -0.16261928 -0.3902979 -0.1604459
000030 cb e9 af 3d 44 c1 d9 bd e5 37 6f 3e a8 6e a1 be
       0.08589514 -0.106325656 0.23361166 -0.31529737
000040 88 0c 9a be c9 ea 9f be f5 34 22 be 48 bc a9 3e
       -0.30087686 -0.31233814 -0.15840514 0.3315146
000050 02 8e c8 be a1 b6 e5 3d 92 d2 17 3e 30 1e a6 be
       -0.39170843 0.11216474 0.1482642 -0.32444906
000060 9e fa 5f 3e 94 25 ab 3e 55 82 45 3e 30 84 28 be
       0.21872947 0.33427107 0.19287999 -0.16456676
000070 da 43 90 3e d8 ac 7e 3e 99 3a c9 bc 97 32 70 3e
       0.28176767 0.24870622 -0.024564074 0.23456798
000080 5a 2b ad be 62 a1 47 be c9 93 82 3e 5d eb 56 be
       -0.33822137 -0.19495156 0.25503376 -0.20988221
000090 b3 80 92 be 18 e1 85 be 3a 9f 89 3e 4f fd b9 3d
       -0.28613815 -0.26148295 0.26879293 0.09081518
0000a0 56 54 72 3e 9b 1b 88 3e cf e5 e6 bb 49 fe af be
       0.23664984 0.2658356 -0.0070464383 -0.34373692
0000b0 8b e0 8e 3e d0 b0 5a be db a8 63 be 61 5c ad 3e
       0.27905688 -0.21356511 -0.22232382 0.33859542
0000c0 24 ca 91 be 85 7d 15 be 26 50 cb bd ec 50 28 be
       -0.28474534 -0.14598663 -0.099273965 -0.16437119
0000d0 0e 4d be be 49 6c 48 3e 86 32 b8 be fb d4 98 be
       -0.37168163 0.19572558 -0.35976046 -0.2984999
0000e0 15 b5 ba 3d 83 98 6b bd 7e 87 f9 bd d9 cf 80 be
       0.0911657 -0.057518493 -0.12184046 -0.25158575
0000f0 0d 99 5f be e7 4e 6a 3e 2f de 57 3e 79 f1 48 be
       -0.21835728 0.22881661 0.2108085 -0.19623365
000100 12 8b 58 be ac fc 8e 3e 68 6e 9f 3e 7e ae 32 be
       -0.21146801 0.27927148 0.3113892 -0.17449376
000110 d6 f2 e5 bd ac 76 56 be dd 12 37 bd 24 38 35 bd
       -0.11227958 -0.20943707 -0.044695724 -0.044242993
000120 d4 8e 6e be 45 3f bf 3e be 82 c3 be 3b e1 28 bd
       -0.23296672 0.37352958 -0.38185686 -0.04123042
000130 0e 4d 13 be 50 79 4b be e7 ce 3e be 72 fd fa bc
       -0.14384863 -0.19870496 -0.18633614 -0.03063843
000140 d2 fc 91 be 33 0d 0b be 69 a5 14 3d 46 1c cd 3e
       -0.285132 -0.13579254 0.03629056 0.40060633
000150 3e 6a 0e bd 1f be ac be c2 dc 52 be bc 33 4c be
       -0.03476929 -0.337388 -0.20592025 -0.1994161
000160 7a bb 58 be 54 68 0b be d3 4a 91 be a3 40 78 be
       -0.21165267 -0.13614017 -0.283774 -0.24243407
000170 84 71 2e be a9 bb c5 bd 1f ea a3 bc 26 66 46 be
       -0.1703549 -0.09654934 -0.020009099 -0.19374904
000180 d8 d6 5e be 9b 5b 2b be 87 10 8c 3e b9 27 9d bd
       -0.21761644 -0.16734163 0.2735636 -0.07673592
000190 1e bc 3b bc 40 68 03 be 40 74 d2 be 2c 6c 2e 3e
       -0.011458425 -0.12832737 -0.41104317 0.17033452
0001a0 ff 6e a2 3e e3 ad 0e be be 77 8d be 0f 3c 01 3e
       0.31725308 -0.1393352 -0.2763042 0.12620567
0001b0 0b 2d b0 be 69 43 86 3e 74 5f 80 be 04 a8 a5 be
       -0.34409365 0.26223305 -0.25072825 -0.32354748
0001c0 52 1d 41 3d 59 0f 4f be 5b 07 42 be ba dc b5 be
       0.047147103 -0.20220698 -0.18948118 -0.35519964
0001d0 a8 d8 71 be bd 71 02 3e 81 cb 2e 3e ef 08 28 be
       -0.23617804 0.127387 0.17069818 -0.16409658
0001e0 54 ec cc be 76 f3 79 be 20 31 88 be 67 1f fb 3d
       -0.40024054 -0.24409279 -0.2659998 0.12261849
0001f0 dc 0e 76 be d7 7a 29 be 13 6b 72 be 47 57 ed bd
       -0.24029106 -0.16550766 -0.23673658 -0.115889125
000200 70 b6 77 be 9f 9b 07 be e8 46 85 3e 3c 0a 2e be
       -0.24190688 -0.13242958 0.2603066 -0.16996092
000210 2e 8d 78 be 92 aa 67 bd d5 34 cd bd 03 b7 93 be
       -0.24272606 -0.056559153 -0.100198425 -0.28850564
000220 c5 c3 8c 3e 99 38 a7 3e 88 a0 01 bd af 2a 64 be
       0.2749311 0.32660368 -0.031647235 -0.22281907
000230 26 2d 4b be 74 14 60 be 8b 37 a2 be d8 0e 32 be
       -0.19841442 -0.21882802 -0.31683 -0.17388475
000240 76 29 85 be cd 9c 94 be 7a dd 36 be 40 9a 57 be
       -0.26008195 -0.2902588 -0.17857924 -0.21054935
000250 ed b8 58 3e 1f 8d 46 be cb 51 b0 be df 46 b9 be
       0.21164294 -0.19389771 -0.34437403 -0.36186883
000260 41 67 86 3e 50 bc ee bc d4 04 1a be 7d 4f 6f be
       0.2625065 -0.029142529 -0.15040904 -0.23370166
000270 6e 9d 08 3d 33 e9 a0 be 95 8f 66 3e 99 26 b0 3e
       0.03335326 -0.31427917 0.2251571 0.34404448
000280 d0 d9 70 be 57 ed 38 be a6 d4 23 be 40 e0 bd be
       -0.23520589 -0.18059288 -0.15999088 -0.37085152
000290 a6 8c 80 3e 83 f2 1c 3e 8c 9f 66 be c9 ef b6 be
       0.25107306 0.15326886 -0.225218 -0.35729817
0002a0 16 c0 ae be b6 15 26 3e 59 a6 c1 be 8c 1d 8b 3e
       -0.34130925 0.1621922 -0.37822226 0.2717098
0002b0 0d 41 07 3d a0 40 02 be a7 48 c2 be 75 e5 0d be
       0.03302102 -0.12719965 -0.37946054 -0.13857062
0002c0 7f 74 8d 3e f6 68 80 3e 04 31 5f be 46 ae 0b be
       0.27627942 0.2508008 -0.21796042 -0.13640699
0002d0 87 9a 7c 3e d9 13 3c 3e bf de bd be d8 65 fb bd
       0.24668323 0.18366946 -0.37084004 -0.122752845
0002e0 19 ec 05 bd d2 82 aa 3b 3f d5 6c 3e 69 11 9f 3e
       -0.032695863 0.0052035833 0.23128222 0.3106797
0002f0 87 9c 62 3e 82 ac 65 3e 64 41 78 3e ff 73 8a 3e
       0.22130023 0.22429088 0.24243695 0.27041623
000300 f3 55 51 be 70 c4 49 3e 40 dc 6d be b5 40 c8 be
       -0.20442943 0.19703841 -0.2322855 -0.39111868
000310 ce 8f 32 bd fd 08 c3 bd 27 d9 78 3d 49 01 e9 be
       -0.043594174 -0.09523199 0.060753968 -0.45508793
000320 9e c7 33 3e 70 0d 97 be 44 2d 15 bd 9c 86 81 be
       0.17556617 -0.2950244 -0.03642012 -0.2529801
000330 d7 e0 e1 bc ad 6c 1e 3c 0e fb 94 3e 58 4c 62 be
       -0.027573032 0.009669465 0.2909779 -0.22099435
000340 db b0 14 3e 48 c9 d1 be 04 b5 e8 be a3 74 22 3e
       0.1452059 -0.40973878 -0.45450604 0.15864806
000350 98 b0 96 be 73 63 96 3e d4 62 ab 3e 80 71 2a 3e
       -0.29431605 0.2937275 0.33473837 0.1664486
000360 87 60 66 be c0 54 2b 3c 3e 21 84 be 66 7e be be
       -0.2249776 0.010457218 -0.25806612 -0.3720581
000370 50 72 8b bd b3 17 18 be 22 42 6b be 4c 7f 0c be
       -0.06808913 -0.1485279 -0.22974446 -0.13720435
000380 ac 27 cc be ab 2b 1f be 5c 72 b2 3d 1d a9 aa be
       -0.39874017 -0.15544002 0.087132186 -0.33332148
000390 30 2d 60 be dd d3 ca 3d 29 49 05 3e 12 bf 27 be
       -0.21892238 0.09903691 0.1301619 -0.16381481
0003a0 ac a3 88 3e d5 09 5e be 14 59 14 3e 5e 27 dd 3d
       0.26687372 -0.21683438 0.14487106 0.10798524
0003b0 fe 46 85 3e 27 39 e4 bc a9 c0 d0 bd 93 6d 98 3e
       0.26030725 -0.027859284 -0.10192997 0.29771098
0003c0 2d 69 84 3e 5e 9b da bd f8 ef a6 be 6b 2e 87 3e
       0.25861493 -0.10674165 -0.32604957 0.26402602
0003d0 61 5f 6e be dd 09 93 be d3 07 a9 be 80 30 5a be
       -0.23278572 -0.28718463 -0.33013782 -0.21307564
0003e0 04 7f 25 3e 84 8e 67 bd 4c 1a 57 be 84 65 08 3e
       0.16161734 -0.056532398 -0.21006125 0.13319975
0003f0 17 46 39 be 54 0f 5f be 16 fa b6 be f8 fd 49 3e
       -0.18093143 -0.21783191 -0.35737675 0.19725788

linear2.bias f4 [10]
000000 37 64 57 be 78 5c e6 3d a1 b0 30 bd 5b 09 c4 3c
       -0.21034323 0.11248106 -0.043137196 0.023930242
000010 e9 cb cc 3c 8f c3 df 3d 6e b1 f8 bd ce 46 8e bd
       0.024999576 0.10925972 -0.12143217 -0.06947099
000020 72 b7 85 3d 4c 05 31 3e
       0.0652913 0.17287177
