research/differential_privacy/multiple_teachers/checkpoint/mnist_10_teachers_7.pth (torch_old, 139301 bytes, 20 tensors)

conv1.weight f4 [16, 1, 5, 5]
00000000: 0c15 51be ee4a 57bc c381 50be e443 42bd
00000010: c42e 82be af99 11be 8f7f a33d bd28 b3ba
00000020: 0033 5ebd 1cb7 b5be 2b4c a43d 2fd5 cf3d
00000030: 8fcb b0be 8da1 bbbe 46dd 73be 7be0 1d3e
00000040: fcc9 9f3e 0ccd 0f3d 24c2 303e 3da7 97bc
00000050: 6ac4 dbbd 4f24 b43e 4000 483e b1b5 d6bc
00000060: 8175 9f3e 9c01 03be bc74 0dbe 399c aa3b
00000070: e2ff 5e3e ebbb 043f 7f4c b8bd 15cc 3abe
00000080: 4919 4bbe 409a 5dbe 233f d6be 7eb9 983d
00000090: 7728 22bd 2e57 7dbe 5e93 aabe a489 4abe
000000a0: e445 a1be c5ec b1be 7e51 223c b384 0e3d
000000b0: 3b47 e83d b825 a9bd 00bb 7d3e 8cbf d53e
000000c0: ec41 df3e b19a 193e d5d7 52be 205c e5bc
000000d0: 6a4a 413d 21dd 79bd d8bd 783d 30d4 0f3e
000000e0: 6d2f f73d e98b b83d 8bf0 743e 7014 c73e
000000f0: a810 493e 1806 933e 9c33 e23e 497d 433e
00000100: bf40 583e 3810 9fbd 0ef8 813d efeb 51bc
00000110: 50ec 743e da93 4dbe a3a6 c1bd 32f9 87be
00000120: e96a 7bbe e927 92be 2b4a bbbe 449d c63d
00000130: 9371 ff3d 6604 9c3b e105 89be 842e 10bf
00000140: 97bb a8bc 8449 33be e411 bcbe 0c11 d3be
00000150: 1d10 03be fa9e 33bd 4341 a9bd 2712 febe
00000160: cf79 00be d01a a63e 44db 5f3e cbe4 09be
00000170: 5958 5dbe 9d4f bdbe 67ca fb3d 8853 6a3e
00000180: 8794 cbbd d1af b3be d330 cebe 1efa 7e3e
00000190: 5335 97bd f2ea 63be 3753 703b 2989 96be
000001a0: 86e6 c2be e158 eabe f0f2 a8be fd18 f5be
000001b0: 8e8a d0be 20de aebe 18af 94bd 2d06 97bd
000001c0: a134 fdbc 7c93 093d 2281 6ebd 58a4 ab3d
000001d0: 1272 6a3e 5894 3cb8 a457 cabc 608f a73e
000001e0: f20e 5a3e 6190 aebd fd75 113e b6d9 4a3e
000001f0: da60 663e 5871 d1ba 8d9a d43d 2488 4d3e
00000200: 8750 79bd bd8f aabe 76cf 313d 8dcd 533d
00000210: 8234 d03e 9047 2abe 4755 6dbe c230 cebe
00000220: 6be2 2d3e b29b bd3e 66f0 703e f66b b0be
00000230: 7889 30be 3624 10be 3f6c 813e 72ee 263e
00000240: 7607 12be 708b 68be 4529 40be 8f18 393d
00000250: dfdc 863e 9c8f 33bd 464f 0c3d adc1 303d
00000260: 70f1 55bd 4900 8cbd cf80 c1bd 2c48 533a
00000270: 5ea3 ab3d 96b0 633e 2258 a83e e153 5a3e
00000280: 8c2c 47be f2c6 b4bc abba 4f3e ef21 d53d
00000290: 28a3 103e af44 8abe 3b0f 70bd 4db4 f63b
000002a0: c7fb 4dbe ed85 4bbe f4a9 37be d0e7 5fbe
000002b0: ef91 fdbe a3a5 a9be d28c cfbe 09a1 62bc
000002c0: 4442 a7bc 7884 353e f5fd 063d ba74 013e
000002d0: a76d 5ebe b4e2 a73d 1f40 a1be 9e74 7c3d
000002e0: e101 b5be 81ea e33d d3dc f1bd 7fc7 b8bc
000002f0: 07e2 7cbe 6807 d7bd d90d dfbe 2b49 2ebe
00000300: 5b30 87be 33eb 2dbc d203 e93d d9ba 22be
00000310: b4e4 f8bd ff85 d5bd 83e8 e33c 6bd4 bd3b
00000320: c962 fdbe 7be8 063e 4876 943e 4c86 0f3e
00000330: 0ca9 2b3e 8b36 5fbc a264 de3e 3099 163e
00000340: 6cbc 20be 6260 13be 62b7 eb3d 5d51 e43d
00000350: f6cb fbbc 82f9 c9be e5e6 acbe 26f8 343e
00000360: 096a 8dbe a375 76be b2d5 eabd 007c de3d
00000370: 7385 7ebe 73b2 16be 2a1d 2dbd a45b 173e
00000380: 95f3 db3d 21df 173e 41d7 663e 4320 173e
00000390: aedb 383e 7f70 b43e a9ab 47bd 6c28 523d
000003a0: 2229 083e c967 443d 486c a93e d8a2 11be
000003b0: 2d76 3b3d 2570 893d f97a 5cbb b7bd 0e3e
000003c0: 2d92 eabe 781f cebe 862a 99be 058b c8bd
000003d0: b7d4 aa3d b1ad 24be 2e0b 7bbe 38da efbe
000003e0: 8749 b5be 0b86 39be 39c9 133d fa6c 98bd
000003f0: 842d 1dbe a5a1 a23d d842 97be 401a edbd
-0.20418185 -0.013140423 -0.20362 -0.047428027 -0.25426304 -0.14218782 0.07983314 -0.0013668757
-0.054247856 -0.35491264 0.080223404 0.101480834 -0.34530303 -0.3664669 -0.23814878 0.15417664
0.3120879 0.035107657 0.17261559 -0.018512363 -0.107308224 0.3518395 0.19531345 -0.026209684
0.31144336 -0.12793583 -0.13814062 0.0052066115 0.21777299 0.5184924 -0.089989655 -0.18241914
-0.19833864 -0.21640873 -0.41845044 0.07457255 -0.03958937 -0.24740288 -0.33315557 -0.19779068
-0.31498635 -0.34750953 0.009907125 0.03479452 0.11341711 -0.082591474 0.24778366 0.417477
0.43604982 0.15000416 -0.20590146 -0.02799803 0.047190107 -0.0610019 0.060727924 0.14045787
0.120695926 0.09011061 0.23919885 0.3888278 0.1963526 0.28715587 0.4418 0.19090761
0.21118449 -0.07766765 0.06346141 -0.012812599 0.23918271 -0.20075932 -0.094556116 -0.26557308
-0.24552502 -0.28546074 -0.36580023 0.09697965 0.124728344 0.0047612665 -0.26762298 -0.5632098
-0.020597262 -0.17508513 -0.367324 -0.41223943 -0.12799115 -0.043852784 -0.08264401 -0.49623224
-0.12546466 0.3244233 0.21860987 -0.13466184 -0.21615733 -0.36974803 0.122944646 0.22883427
-0.09940439 -0.35095075 -0.40271625 0.249001 -0.07383218 -0.22257593 0.0036670694 -0.2940152
-0.380665 -0.45770934 -0.32997847 -0.47870627 -0.4073071 -0.34153843 -0.07259959 -0.07374225
-0.030908884 0.033587918 -0.05822862 0.083809555 0.22895077 -4.496085e-05 -0.024699993 0.32726574
0.21294764 -0.08523632 0.14205165 0.19809613 0.22497883 -0.0015979214 0.10381041 0.20071465
-0.060867812 -0.3331279 0.04341074 0.0517097 0.4066506 -0.16628861 -0.23177062 -0.40271574
0.16980903 0.3703285 0.23529205 -0.34457368 -0.1723994 -0.14076313 0.25277898 0.16301897
-0.14260659 -0.22709441 -0.18765743 0.045189437 0.26340386 -0.04383813 0.03425529 0.043153454
-0.052232206 -0.06835992 -0.094483964 0.00080597657 0.08380769 0.22235331 0.3287974 0.2132106
-0.19450587 -0.02206752 0.20286052 0.10406863 0.14124739 -0.27005526 -0.058608275 0.0075288177
-0.20115577 -0.19875307 -0.17935926 -0.21865773 -0.495254 -0.33134183 -0.40537125 -0.013832339
-0.02041734 0.17726314 0.032957036 0.12642184 -0.21721517 0.08197537 -0.31494233 0.061634652
-0.35352996 0.111287124 -0.11809697 -0.022556065 -0.24695598 -0.104994595 -0.43565252 -0.17020099
-0.2640408 -0.010615158 0.11377682 -0.15891589 -0.12152997 -0.10425948 0.027820831 0.0057931445
-0.4948943 0.13174622 0.2899649 0.14016074 0.16763705 -0.013623844 0.43436152 0.14706874
-0.15696877 -0.14392236 0.11509587 0.11148331 -0.030736905 -0.39448172 -0.3376991 0.17672786
-0.2761996 -0.24068312 -0.114665404 0.10863495 -0.24855594 -0.1471651 -0.04226414 0.14781052
0.10739819 0.1483121 0.2254305 0.147584 0.18052551 0.35242078 -0.048747692 0.05130808
0.13296941 0.04795054 0.33090425 -0.14222276 0.045766998 0.06710843 -0.0033642633 0.13939558
-0.45814648 -0.40258384 -0.29915255 -0.09792141 0.083413534 -0.16081883 -0.24515983 -0.46846175
-0.3540766 -0.1811754 0.036080573 -0.07442661 -0.15349394 0.079409875 -0.29543185 -0.115772724

conv1.bias f4 [16]
00000000: c727 4f3e e3a5 88bd de30 ed3d 7d8b 99bd
00000010: 32d7 95bd 6992 cf3d ac1b 6e3d f080 18be
00000020: e3d7 54bd ac6d b0bd 645f 493e 4337 543d
00000030: 4db5 e93d 9467 40bd aebd 5fbc 74ab 983e
0.20230018 -0.066722654 0.11581586 -0.074973084 -0.07316436 0.101353474 0.05813186 -0.14892936
-0.051963698 -0.08614668 0.19665295 0.051810514 0.114115335 -0.04697378 -0.013656063 0.29818308

batchnorm1.weight f4 [16]
00000000: 84f4 453e 0e60 c33e 72d4 463e fdea 423f
00000010: 45ad 3d3f 2c74 af3e 18b0 663f 496c 693d
00000020: 12df 853f b081 5d3f a03e 8d3d e904 053f
00000030: 85e2 1e3f 6c83 223f 0540 853f 211e 553f
0.19331557 0.3815922 0.19416979 0.76139814 0.74092513 0.3426832 0.9011245 0.056988034
1.0458701 0.8652601 0.068967104 0.5196062 0.6206439 0.63481784 1.0410162 0.832491

batchnorm1.bias f4 [16]
00000000: e0fa f7be ae0a 04be 5c8c 17be 6525 b2bc
00000010: 866d a43d b806 a8be c7b3 1a3d 99f1 58be
00000020: 089b 99be 60f6 233e 1ce1 e8bd dfc0 84be
00000030: f491 1bbe 5244 b5be 1501 fabd 3dfa d5be
-0.4843359 -0.12894699 -0.14799637 -0.021746347 0.080287024 -0.32817626 0.037769105 -0.21185912
-0.30001092 0.16011953 -0.11371061 -0.259284 -0.15192395 -0.35403687 -0.12207238 -0.4179248

batchnorm1.running_mean f4 [16]
00000000: 1764 d2c1 f9bb 07c2 68c7 2042 37a9 05c3
00000010: 552f abc2 7e34 c2c0 b07b 83c2 f549 b3c2
00000020: ef43 cbc1 0eb3 32c2 2855 b9c2 28cb 3e40
00000030: f152 d7c1 7222 01c2 f1fb 9dc2 87d3 1241
-26.298872 -33.933567 40.194733 -133.661 -85.592445 -6.0689077 -65.74158 -89.64445
-25.40817 -44.67486 -92.66632 2.9811497 -26.915499 -32.283638 -78.99207 9.176642

batchnorm1.running_var f4 [16]
00000000: a804 5746 711d 7d46 46bb 9546 1795 4847
00000010: fa78 1447 55de f845 d2aa 9946 a9e0 8d46
00000020: 3869 0d46 c572 f646 3165 7746 291d 1646
00000030: 5631 af46 ec8f b845 7d08 fc46 9179 e045
13761.164 16199.36 19165.637 51349.09 38008.977 7963.7915 19669.41 18160.33
9050.305 31545.385 15833.298 9607.29 22424.668 5905.99 32260.244 7183.196

conv2.weight f4 [16, 16, 5, 5]
00000000: 06f2 59be 1bb5 e8bd 315b 4cbe d022 4cbe
00000010: 7d74 23be 9164 2dbd a386 b5bd 62c3 e9bd
00000020: 01b6 56bc 9caf cbbc 5b09 183e 92c9 37bd
00000030: 8cfd 2abd 1584 bd3b d7ca 30be 0212 4d3d
00000040: b70f febc 0938 683e 5d65 9a3e 1192 823d
00000050: 8d92 e1bd 300a e53d 52af 943e 994a 043f
00000060: c4ac 313e a950 40be 9e3f 973d 7f26 8f3d
00000070: 0042 923e 2992 6f3e 6fd3 f8bd 3d94 b93c
00000080: 5406 733e 458f a93d 7fe9 c8be f377 8abe
00000090: b5eb 74be 0885 2ebe f216 13bd d4b2 55bd
000000a0: 446a 95be 0446 4ebe cce6 ac3d fc27 9c3c
000000b0: 4896 583e d9eb 52be 706e 1fbe 216b 22be
000000c0: 4cdf 86bd d891 833e ac2c 7dbe 84d2 63be
000000d0: 9a95 04be d100 e03c d7bb 063e 3b3c d9be
000000e0: de27 9abe b1e1 5cbd e6e9 023e aad3 adbd
000000f0: 2100 f6be 6c6f debe f7ed cebe 57eb d2be
00000100: 1408 70be 737d 83be ad87 0fbe 19e7 3fbd
00000110: 60c8 053d 38b4 5d3d 428e c8bd 0e6a 24be
00000120: be80 81bd c09a 8d3d ce33 8d3e 164f 293e
00000130: 6a4b 373e 08e4 c83e f6b0 9d3e 35b2 3b3e
00000140: 7c2a 293e f692 b13e 24e2 863d 6e11 93be
00000150: 4079 75be b407 303e 5d3a 1e3d f2db 2cbe
00000160: 2dda 7dbe 9db0 d2bd e33f 5d3d 1f03 18be
00000170: e5fb 53be 44d7 98be 6728 8fbe 6ec3 1ebc
00000180: 2d20 80be df4d 84be 12c8 73be a2d7 07be
00000190: d6c9 29be cb1c 70be d5af a33d 0253 d93e
000001a0: 568e b53e 9545 2dbe 4769 113d 5443 803e
000001b0: b78f 843e 1ce8 f23d 4ccb 1fbd 7883 243e
000001c0: 3868 9cbc 3126 b8be 95af d2be c687 3abd
000001d0: ef63 12be 0f74 97be adca 66be 5586 3bbd
000001e0: 0635 83be 9af8 e9be 604a 93be eddd 733a
000001f0: 8a57 6e3c eb4c 49be 5dd3 6fbe 48e3 abbe
00000200: 78fc 01bf 6ae1 a9be 5e10 68be 5b8e abbe
00000210: 65cf 85be 371f a0be 3535 59bd 74b9 683d
00000220: f7e6 09be b65d 90bd 4bfd f4bd 37cd 103e
00000230: 7570 9e3d c3c9 bb3d 0526 af3d 0410 d3bd
00000240: 5bd9 88bb 64b6 8a3e 4d0e 3f3e 94d5 2c3e
00000250: 497a cb3d 994d 673d 01c5 97bd c579 6c3d
00000260: bd70 14be 938f 57be 9753 5ebe 7e99 16be
00000270: a8fb 36bd 9f94 86be 7d41 36be 731e 45be
00000280: 2aab f3be 45b2 2dbf 6ecb 90be 5986 ecbd
00000290: 5acf 8abc 93c2 75be 639c 28be 627c 10be
000002a0: 8fd5 27be 075e fb3b 4032 6a3e e97e 2b3e
000002b0: 4bda 293e 734b dbbb 9e84 a3bd 9eea 6e3d
000002c0: 32e6 8bbd 231c 04be 5c52 7abd 8e94 2abd
000002d0: 9b5e 7ebc 8044 3fbe 163b 4ebe 9576 b5bb
000002e0: 6bd3 50bc a221 fbbd 4802 28be 07b9 00be
000002f0: 79be 83bd c079 9bbd 9c7e 2dbe dfc8 0fbe
00000300: d0a6 70bd 8e05 1e3d da2d a5bd 4627 19be
00000310: fde0 15be 0a32 a4bd eaa8 0a3d 4119 3d3e
00000320: f592 cfbd c3f2 363e 66f2 ac3e 5738 3cbe
00000330: 1677 34be f2d6 403e 63f8 bf3e 0d9f 023d
00000340: 9f44 70be a54b 6bbd 0bf6 863c 35c2 6e3e
00000350: 1c80 38be 4051 c9bd 264c 85bd 9226 4abd
00000360: 88d5 df3c 2248 3abd ea92 f1bb 7251 6abd
00000370: 2f01 f7bd fb65 a4be 0651 42bb bac0 8c3d
00000380: 954f 883e 4f73 58be 93f3 48be 76a3 8fbe
00000390: d452 c2be 2285 97be 124d a3be 0a38 c9be
000003a0: 06ad f5be f004 92be 53f1 4bbe 5d4f c8be
000003b0: e755 10bf 81e4 b0be 64aa 8dbd dacc 4dbd
000003c0: ecdc 2dbe 5217 63be 5b5b 4ebe 3c63 d1bd
000003d0: 3514 b9bd 641f 703e 7e32 693d 61bb 1c3d
000003e0: d48b 893d df11 6fbd b59e 903b 14aa 52bc
000003f0: 710e 403d d369 1bbe d1cc 0bbe 87ff a2bd
-0.21283731 -0.11362668 -0.19956662 -0.19935155 -0.15962406 -0.042332236 -0.088635705 -0.114142194
-0.013104917 -0.02486401 0.14847319 -0.044869967 -0.041745707 0.0057835677 -0.17264877 0.050066
-0.031013353 0.22677626 0.3015546 0.06375516 -0.110142805 0.11183584 0.2904001 0.51676327
0.17351061 -0.1878077 0.07385181 0.069897644 0.2856598 0.233956 -0.12149703 0.022653693
0.23732883 0.082792796 -0.39240643 -0.2704464 -0.2391804 -0.17042935 -0.035910554 -0.052172497
-0.29182637 -0.20143896 0.084424585 0.019062035 0.21151078 -0.20597781 -0.15569472 -0.15861179
-0.06585559 0.25697207 -0.24724072 -0.22248274 -0.12947693 0.02734414 0.13157593 -0.42428765
-0.3010854 -0.053926174 0.12784538 -0.08487637 -0.48046973 -0.43444383 -0.40415928 -0.41195175
-0.23440582 -0.25681648 -0.140166 -0.04685125 0.032661796 0.054126948 -0.097927585 -0.16056082
-0.06323384 0.06914282 0.27578586 0.16534075 0.17899862 0.39236474 0.30799073 0.183297
0.16520113 0.34682435 0.06586102 -0.28724235 -0.23972034 0.17190439 0.03862988 -0.16880777
-0.24790259 -0.102875926 0.054016005 -0.1484494 -0.20701559 -0.29851735 -0.27960512 -0.009690149
-0.25024548 -0.2584066 -0.2380679 -0.13265851 -0.165809 -0.23448484 0.07992522 0.42446142
0.35460156 -0.16921075 0.03550079 0.25051367 0.25890896 0.118606776 -0.03901224 0.16065776
-0.019092664 -0.35966638 -0.41149583 -0.04553964 -0.14295934 -0.29580733 -0.22538252 -0.045782406
-0.2562639 -0.4569748 -0.2876768 0.0009302784 0.014547238 -0.19658248 -0.23420472 -0.3357184
-0.5077586 -0.3317979 -0.22662494 -0.33507046 -0.26134792 -0.31273815 -0.053029258 0.056817487
-0.13467012 -0.07049124 -0.11962374 0.14140783 0.07736293 0.09169342 0.085521735 -0.10305789
-0.0041763014 0.27092278 0.18657799 0.16878349 0.099354334 0.056470487 -0.074106224 0.057733316
-0.14496131 -0.21050863 -0.21711574 -0.1470699 -0.04467359 -0.26285264 -0.1779842 -0.19249897
-0.47591525 -0.6785014 -0.28280205 -0.11549062 -0.016944576 -0.24000005 -0.16465907 -0.14109948
-0.1639006 0.007671121 0.22870731 0.16747631 0.16587178 -0.006692344 -0.07984279 0.058329217
-0.06831016 -0.12901358 -0.0611137 -0.04164558 -0.015525485 -0.18678474 -0.20139727 -0.0055378177
-0.0127457185 -0.12262274 -0.1640712 -0.12570582 -0.06432814 -0.07591581 -0.16942829 -0.1404147
-0.058752835 0.038579516 -0.08065386 -0.14956388 -0.14636607 -0.08017357 0.033852495 0.18466665
-0.10135452 0.17866044 0.33778685 -0.18380867 -0.17623553 0.18831995 0.37494192 0.031889964
-0.23463677 -0.057445187 0.016474744 0.23316272 -0.1801762 -0.0982995 -0.06508665 -0.04935319
0.0273235 -0.045478947 -0.00737225 -0.05720658 -0.12060773 -0.32109055 -0.0029650345 0.06872697
0.26623216 -0.21137737 -0.19624166 -0.28054398 -0.37953818 -0.2959376 -0.31894737 -0.39300567
-0.4798357 -0.28519392 -0.19916277 -0.3912305 -0.56381077 -0.34549335 -0.06917265 -0.05024419
-0.16978806 -0.22176865 -0.20152037 -0.102240056 -0.09037057 0.23449475 0.05693292 0.038264636
0.06716123 -0.058366653 0.0044134506 -0.012857933 0.046888772 -0.15177087 -0.1365235 -0.07958894

conv2.bias f4 [16]
00000000: 4920 113e 1296 4d3d e3e6 4fbe 690c 8c3e
00000010: e2be 883d b600 263e be27 a8bd 254c 8abe
00000020: 1273 2ebc d842 31be 84c5 813d b695 aa3d
00000030: c591 cb3d f557 35be 2678 173e 0cfc 0c3e
0.14172472 0.050191946 -0.2030292 0.27353218 0.06677033 0.16211209 -0.08210705 -0.2701122
-0.010647552 -0.17310655 0.06336501 0.08329336 0.09939913 -0.17709334 0.14791927 0.13768023

batchnorm2.weight f4 [16]
00000000: 6446 8c3e bf1e e63e d20e 0e3f 41c6 d43e
00000010: bcec da3e fc8d 033f b6e8 2e3f 4e5f 0b3f
00000020: 3b6a 6a3f e7c8 3a3f c823 a23e 2882 043f
00000030: 325b ed3e 2140 f33e 2e5f d83e 0d08 823e
0.27397454 0.44945332 0.55491364 0.41557506 0.4275874 0.51388526 0.6832384 0.544423
0.91568345 0.729628 0.31667924 0.517611 0.4635864 0.47509864 0.42260116 0.25396767

batchnorm2.bias f4 [16]
00000000: 94d5 5bbe 9b47 35bd d78f fdbd 7d9e 1ebe
00000010: 2320 7cbd b733 24be d9ff aabe 6f97 bfbe
00000020: dc12 70be 89bc 32be dfe2 f1bd affe 99be
00000030: 0152 1abe 40bf 81be 73d2 3aba c2c6 4bbd
-0.21468192 -0.04425774 -0.12380951 -0.15490146 -0.061554085 -0.16035353 -0.3339832 -0.37420222
-0.23444694 -0.17454733 -0.1181085 -0.3007712 -0.15070345 -0.25341225 -0.00071266963 -0.049750097

batchnorm2.running_mean f4 [16]
00000000: b38d 79c0 5254 1dc0 dd46 4c3e a66e 2cbe
00000010: 84e7 32bf a1c1 b7bf 8dba d83d 273b b1bf
00000020: 7e0c 42c0 30e5 17c0 5d0d 1540 1445 3abf
00000030: d3aa 92bf 156e 01c0 c6e8 79bc 2981 a340
-3.8992736 -2.4582715 0.19948907 -0.16839084 -0.69884515 -1.4355966 0.10582457 -1.3846177
-3.0320125 -2.3733635 2.3289406 -0.72761655 -1.1458381 -2.0223439 -0.015253251 5.1095166

batchnorm2.running_var f4 [16]
00000000: 765d d940 c781 9d40 8afb 0e41 c7e7 c140
00000010: 33af 1741 1e7b d540 7411 1041 b0ed e540
00000020: 27f1 0241 32d0 4c41 0303 0041 6bbe 2e41
00000030: f4a0 de40 e5b2 d040 85ae d640 5a91 a040
6.792659 4.922092 8.936411 6.059543 9.480273 6.671279 9.004261 7.1852646
8.183875 12.800829 8.000735 10.921489 6.9571476 6.5218377 6.7088037 5.017743

linear1.weight f4 [100, 256]
00000000: f867 d53c 5fc8 203d 3a0f 5bbd 6560 573e
00000010: 039d 6c3e 629e a43e 490e 8f3c 9ba4 283c
00000020: 4d29 c13e bec2 b13e 7cc2 b63e 0bd0 043e
00000030: 8f3b 243f 9e74 dc3e bdf7 a53e 418f 5ebd
00000040: 76e7 78be 12e7 4abe 30d2 64be 1d17 54bd
00000050: e0dc 11be 2312 8fbe 5d8f e9bc ed46 64be
00000060: 71a2 32bd 342b 003f ab49 f7bb 00c1 8b3d
00000070: 64dc 5bbe 7703 db3e 3c96 c8be 0f98 203d
00000080: 83ba 073e 56fa 40bd 0233 8f3e e17d 0a3f
00000090: 9161 2e3e b309 a23e f4c5 f93d c280 a73d
000000a0: 4b62 70be 406a 873a c1dd 0d3e 5c65 2bbe
000000b0: fda9 20be e349 55be 3efb 6e3e 8a08 b0be
000000c0: 12dc b03d 5993 353e 93cf 853d c631 223e
000000d0: 7105 493e c8c0 9c3c c358 1a3d 111b 2b3e
000000e0: 4548 c4bd 39e1 f53c f65e 3c3e aa92 923d
000000f0: dcdb 97be b347 a93d 9c88 ef3d d3fb 3b3e
00000100: a20b 8a3d 6e6e 9a3d a451 c93d 8ba6 fb3d
00000110: 73f0 03be 8c56 cebd da3f bf3e 3a2c f7bc
00000120: 6af7 cbbe a708 f6bc 83ce 4e3c 5554 4a3e
00000130: 69d4 de3c fe9c d63e 7e46 cc3e af7d 6a3e
00000140: c32d 16bc a0e7 f13b 8f3c e3bd 9f86 453e
00000150: bbad a43d 0791 013e 71a3 c33e 9cdf f63e
00000160: 1adb 3b3d eee1 9c3e f84c 1b3e 7c40 873e
00000170: 6591 52bd d6d6 ff3d 1976 a63e 312e 053d
00000180: cbde e93d b402 183e d8c5 573e 7d60 11be
00000190: d975 103e 818f 0f3e bb16 bfbd 2b53 cabc
000001a0: 3292 413d 51b1 cc3d b261 23bd 3e50 e43d
000001b0: db26 7d3e 3da3 d8bb 21a8 a43d bbaa f9bb
000001c0: 85d1 053d 87cb 59bb eb32 e03d 86e2 943e
000001d0: b63f ae3e 1f6e 4ebe 542c 443e 10f9 e73d
000001e0: b8d7 a13e b98d 50bc 6ca8 763c 6bd3 4f3c
000001f0: d61b 78be b2d4 80be 6201 213e 10aa 823d
00000200: 6575 bcbc 4604 b2bd 9e1a e63d 9d1c 12be
00000210: 5e7b ee3d 7627 ad3d 8dee a0bd 3636 2abe
00000220: 1c04 a83e 1559 7a3e c34f 1bbd 4cb3 9abc
00000230: 5cb7 323f 6242 683e e206 ad3d 4178 b33d
00000240: 2a42 1c3e ff18 083e 7efc 04bd 3f69 84be
00000250: ec07 9bbd 489e 373b cbba 45bd e1cb b0bd
00000260: 2db6 d43d 6dbe 9d3e 60b3 95be 9579 0d3d
00000270: c386 cabc 9a91 2fbe 0a25 aa3d 2c23 12bc
00000280: 7ab7 993e 099e 52bc 644a c53e 71e8 b13e
00000290: 576b 29be 6e7d 1fbd 772a 1e3e 50fd 92be
000002a0: 1d08 a8be c815 9cbe 0774 85bc 3ff8 573e
000002b0: c201 fdbc a0b1 ce3b 6b43 513d ac58 743e
000002c0: a874 8c3e 7bf6 bc3e 5098 52bb 005f 9e3e
000002d0: 08df 9c3e 9add ad3d dad0 49be dfe5 91be
000002e0: 2185 fd3d 0850 efbc f274 0a3e e6db 85be
000002f0: 0471 7fbd 3810 433c 122c d93d b3fb b53e
00000300: 9bfb 973c b083 febd 4a16 17be c8dc 35be
00000310: 18e1 6b3e ee4e be3e 9ab2 553d c361 1c3e
00000320: d942 0e3f b716 1a3e fdce f63e 19b5 a13e
00000330: a600 843d 814f 213e 226a a33d cd63 b03d
00000340: 37ef 2b3e 70c0 4ebe b889 97bd a8f8 223e
00000350: 6be7 a43d b164 13be 358f 88be 5222 f3bd
00000360: 5391 c93d 35df ba3e a891 0b3e 66a9 da3e
00000370: 66b3 df3e cf6b da3e 204d c7bc a545 a13d
00000380: 33a9 87bd d975 d5bd 4d6b 183e bb46 a73e
00000390: a994 d03e 6c90 d7bd 8612 9dbc b816 893e
000003a0: bce5 0dbe 58b4 02be 5a76 3cbe 8118 623d
000003b0: 0435 d8bc a579 e2bd f3ed 973d 9ad7 0bbb
000003c0: 1500 69bc 731f a73b ff2e 943d 5c68 d53e
000003d0: f5f4 80be 1d25 8f3d aaf9 2f3d af8c 5f3e
000003e0: fa55 c3be 4da9 7bbe 3eb9 ed3d c2c0 ff3d
000003f0: a14d bebe 2de7 20be 17c1 0b3e 6cfa cabd
0.026050553 0.03925359 -0.053481318 0.21032865 0.2310677 0.32152086 0.017462866 0.010293151
0.37726822 0.3471889 0.35695255 0.12969987 0.6415338 0.43057722 0.32415572 -0.054335836
-0.24307045 -0.19814709 -0.22345805 -0.051779855 -0.14244413 -0.27943525 -0.028510744 -0.22292681
-0.043611947 0.5006592 -0.0075466237 0.06823921 -0.21470791 0.4277608 -0.3917712 0.039207514
0.13254742 -0.04711374 0.27968603 0.54098326 0.17029406 0.31648025 0.1219596 0.081788555
-0.23474996 0.0010331348 0.13854124 -0.16737884 -0.15689845 -0.20828967 0.23338029 -0.34381515
0.08635725 0.1773199 0.06533732 0.158393 0.19630982 0.019134894 0.037682306 0.16709544
-0.09584097 0.030014621 0.183956 0.0715688 -0.29659927 0.08265629 0.11695978 0.18357782
0.067405 0.07540594 0.09830025 0.12287625 -0.12884693 -0.10075101 0.37353402 -0.030172456
-0.398372 -0.030033423 0.012622478 0.19758733 0.027200894 0.4191665 0.3989753 0.22899507
-0.009166184 0.007382348 -0.11095535 0.19289635 0.08040949 0.1265298 0.38210633 0.48217475
0.04586325 0.3064112 0.1516608 0.26416385 -0.05140819 0.124921486 0.32511976 0.032514755
0.114194475 0.14844781 0.21071565 -0.14196964 0.14107455 0.14019586 -0.09330507 -0.02469786
0.047258563 0.09994758 -0.03988809 0.111481175 0.24721853 -0.0066112564 0.080398805 -0.0076192296
0.032670517 -0.0033232884 0.10947212 0.29079074 0.34032983 -0.20159195 0.19157535 0.11326802
0.31609893 -0.012729102 0.015054803 0.012684683 -0.24229369 -0.25162274 0.15723184 0.06380093
-0.023005197 -0.08692221 0.112355456 -0.14268728 0.11644624 0.08454792 -0.07858 -0.16622242
0.32815635 0.24448045 -0.037917864 -0.018884324 0.69811034 0.22681573 0.084485784 0.08763171
0.15259615 0.13290785 -0.032467358 -0.25861546 -0.0756987 0.0028017927 -0.048273843 -0.08632637
0.1038631 0.30809346 -0.29238415 0.034539778 -0.024722463 -0.17145386 0.08307846 -0.008919518
0.30022794 -0.012855061 0.38533318 0.3474765 -0.16544853 -0.03893798 0.15445887 -0.28708887
-0.3281869 -0.30485368 -0.016290678 0.21090792 -0.030884627 0.0063077956 0.051089685 0.2386195
0.27432752 0.369068 -0.0032134242 0.30931854 0.3063891 0.08489533 -0.19708577 -0.2849569
0.12378908 -0.029212967 0.13521174 -0.26144332 -0.06236364 0.011905722 0.10604109 0.35543594
0.018552592 -0.12427461 -0.14754596 -0.17760003 0.23035085 0.37169594 0.05217228 0.15271668
0.5557075 0.15047728 0.48204795 0.3158348 0.06445436 0.15752985 0.079792276 0.086127855
0.16790472 -0.20190597 -0.07399315 0.15915167 0.08051952 -0.1439388 -0.26671758 -0.118717805
0.098421715 0.36498418 0.13629782 0.42707366 0.43691558 0.42660376 -0.024328768 0.07874612
-0.06624069 -0.10422868 0.14884682 0.3267115 0.4073842 -0.10525593 -0.019173872 0.26775146
-0.13857168 -0.12764108 -0.18404523 0.05519915 -0.026392467 -0.11058358 0.07418432 -0.0021338225
-0.014221211 0.0051001846 0.07235526 0.41681182 -0.25186887 0.06989501 0.042962708 0.2183101
-0.38151532 -0.24576302 0.11607598 0.124879375 -0.371686 -0.15713187 0.13647877 -0.099110454

linear1.bias f4 [100]
00000000: 0374 1abd 5e9b a13d bcfb a4bd 1418 b23d
00000010: 310a 103d 7917 1f3c 3fd8 72bd aa41 56bd
00000020: d4b7 88bb 6c49 983d 9331 783a 76e7 e13b
00000030: 8eb3 493c 5208 efbd 37a3 7c3d 4048 c2bb
00000040: a9a9 6b3d 88ef 9d3c a2a0 16bd 950c 30bc
00000050: 6422 3b3c 4733 bcbd ff1d acbd 8694 a33d
00000060: 69b7 bd3c 0b6b ec3d e687 31bc 9c0f 993d
00000070: f47f 1ebe 90e4 9dbc 887a 263e b193 45bd
00000080: f46d 683d 091d a43b 8986 103d d7c6 823d
00000090: 86e9 77bc 5c90 e03c ee8a 683c 6da3 983d
000000a0: 9dd5 3ebd caf0 aebc 28f1 873c 8d38 6dbc
000000b0: fb66 303c 1902 513d 7b8d 603d 7e82 a93d
000000c0: 610b 84bd 2d86 1f3d 7f6c 26be e451 be3c
000000d0: d290 673d df18 b9bd c0f0 2c3c a19f 973d
000000e0: 26cd 1dbc 87e3 a9bc 05d5 95bd d9ae 883d
000000f0: 6c06 1d3d 0525 1bbe 6855 16bb 57ae b93d
00000100: cf64 0f3e 552b b73c 5824 81bd 273f 5dbd
00000110: 8b75 0ebc 4070 39be 1b77 bf3d b1d5 3e3d
00000120: 3817 acbd 8362 b8bd 3cbf 273a cad1 d23d
00000130: 7158 08bc 88d7 51b9 f607 27bd 461d 81bd
00000140: 2f15 c0bd 73d7 a7bb 3b58 82bd d9ab 7e3d
00000150: 4d0b cbbc 0f52 28bc ec91 bc3d d6b4 c93d
00000160: de09 e4bd a1ed b4bc 77e9 193d 9881 65bc
00000170: d904 ab3d 5bc4 43bc e3c0 213e c085 23bd
00000180: 3d9e 0d3d c77f 6c3d 125e 923d f6fb 843d
-0.037708294 0.07890962 -0.08055827 0.08695999 0.03516597 0.009710186 -0.05928826 -0.052308716
-0.0041723046 0.07435879 0.00094678364 0.0068940474 0.012310876 -0.11671509 0.06167909 -0.005929023
0.057534847 0.019279256 -0.036774285 -0.010745187 0.011421774 -0.09189468 -0.08404159 0.07987313
0.023158746 0.11543854 -0.010835623 0.074736804 -0.15478498 -0.019274026 0.1625768 -0.048236553
0.056745484 0.005008344 0.035284553 0.06385582 -0.01513136 0.027412586 0.01419328 0.07453046
-0.046590436 -0.021355052 0.016594484 -0.014478815 0.01076674 0.05102739 0.054822426 0.082768425
-0.06447483 0.03894632 -0.16252325 0.023232408 0.056534596 -0.09037947 0.010555446 0.07403494
-0.009631431 -0.020738376 -0.07316021 0.066739745 0.038336203 -0.1515084 -0.002293909 0.09066456
0.14003299 0.02235953 -0.0630576 -0.054015305 -0.008695017 -0.18109226 0.093488894 0.04659051
-0.08402866 -0.090031646 0.00063990406 0.1029392 -0.008321867 -0.00020012085 -0.040779077 -0.063044116
-0.093790404 -0.005122119 -0.06364485 0.062175605 -0.024785662 -0.010273471 0.0920752 0.09848945
-0.111346945 -0.022085967 0.037576165 -0.014007948 0.08350534 -0.01194867 0.15796237 -0.039922476
0.034574736 0.057739045 0.07146849 0.0649337

batchnorm3.weight f4 [100]
00000000: 2a31 443f 7d48 8e3f cb4e 233f 6d2e 7a3f
00000010: e581 1d3f a725 213f 666b 8c3f 18be 553f
00000020: 28b8 0e3f c31e 2d3f ab0e 383f d13f 833f
00000030: de63 543f 6fab 353f bf58 2e3f d5cf 713f
00000040: 17be 353f 4ea4 a13e 179b ae3f 214c 5d3f
00000050: 5422 203f 137b b63f c7d9 6a3f b414 723f
00000060: 9c84 ac3f 48fb 4a3f cd1c 9e3f 123d 083f
00000070: 3828 853f 3839 933f dd1c 8b3f 8e0f 963f
00000080: d95d 9e3f da1f a13f d83f 2c3f ab31 633f
00000090: 405e 433f 7acb 073f 42d7 723f a5ab 433f
000000a0: 820c 613f 8cb8 583f c7e7 283f 0ddd 143f
000000b0: 8cb5 4b3f b9fe 243f 50f8 2a3f 8abb 503f
000000c0: 2b88 323f 31aa 3d3f 3acd 9b3f 6e36 e13e
000000d0: f20d 003f fc42 7a3f 4479 3b3f b0c6 a63f
000000e0: fd91 e63e 9bb4 ae3f e66c a93f a2c3 1c3f
000000f0: a289 3c3f 13c8 ca3f 6a41 983f aaeb 563f
00000100: 1cbf 983f 7907 9f3f bf87 273f 8c80 833f
00000110: 1f70 5c3f f512 713f 8e20 5e3f 51d6 943f
00000120: 61ec ff3e 9f2b 233f d363 3f3f fbd9 793f
00000130: 481a 7e3f 3ad4 843f 5ab7 033f 38e9 503f
00000140: 176d 2d3f 434d 533f 0f09 863f ed11 133f
00000150: 8c4b c63c cbcf ec3e a719 a33f 8541 7e3f
00000160: e779 9f3f 8302 693f d12b 673f 58df 683f
00000170: bc7b df3e 5354 983f 4c93 903f 8110 523f
00000180: c508 5f3f ec1b 253f d919 923f 07fe 1b3f
0.7663752 1.1115872 0.63792104 0.9772709 0.6152633 0.6294808 1.0970275 0.83493185
0.5574975 0.67625064 0.7189738 1.025385 0.82964885 0.7096471 0.68104166 0.9445775
0.7099318 0.31570667 1.364108 0.8644429 0.6255238 1.4256309 0.9173855 0.9456284
1.3477969 0.79289675 1.2352539 0.53218186 1.0402899 1.1501837 1.0868183 1.1723497
1.237239 1.2587845 0.6728492 0.8874766 0.7631569 0.53044856 0.9485971 0.76433784
0.8790971 0.84656596 0.65978664 0.58149797 0.79573894 0.64451176 0.66785145 0.8153616
0.69739026 0.74087816 1.2172005 0.4398684 0.5002128 0.9775846 0.7323191 1.3029385
0.45033255 1.3648866 1.3236358 0.6123601 0.7364751 1.5842308 1.1894963 0.83953345
1.1933322 1.2424155 0.6544151 1.0273604 0.86108583 0.9416955 0.86768425 1.1627904
0.4998503 0.63738436 0.74761695 0.97598237 0.9925885 1.0377266 0.5145165 0.81605864
0.6774458 0.8253977 1.0471514 0.5744923 0.024205945 0.46252283 1.2742203 0.99318725
1.2459077 0.9101946 0.90301234 0.90965796 0.4364909 1.1900734 1.1294951 0.8205643
0.87122756 0.6449573 1.1414138 0.6093449

batchnorm3.bias f4 [100]
00000000: d66c 683e 5cdf 7c3e 196c 323e 6a9a 07be
00000010: c6d1 473e 88e5 f53d 5ba1 123e 3acc a43d
00000020: 3a1f f43d 154e e73d 3134 983e 466d 783c
00000030: 0872 6d3c 33d9 0c3e ca07 753e d427 083e
00000040: 0472 463e 369c 2e3e e724 963e 3612 6a3e
00000050: 8249 0a3e 040b 9b3e 6235 ac3e 5e6e 6c3e
00000060: 071a 993e 546c e53a 8387 4d3e bb30 ce3d
00000070: 610e ac3e 6822 9d3e 316b 743e e645 943e
00000080: 0abb d43d 0203 363e 1c05 863e a6bb 253e
00000090: e0a5 963e 408e 1c3e 5ff0 f23d 774f 8d3e
000000a0: 257f 3b3e 6514 323e dfb7 b0bc ad6d 333e
000000b0: dc0a bc3e 99c8 283e ae12 953d 67a9 413e
000000c0: 987d 823e 05a6 a93e 7f83 5f3e c3c0 f13d
000000d0: 4191 973e 0d56 4d3e cec1 3d3e f72d 223e
000000e0: fb2b a33e eb07 593e 5e35 b53e ada0 303e
000000f0: 8022 6abd c20d 8d3e e54d 4d3e 69fa 0f3e
00000100: 3a33 2e3e f67c e03e a6e3 1b3e f2c6 de3d
00000110: df84 193e e648 e93d 2afc 413e 7e0b 4e3e
00000120: e6db 143e 31c3 9f3e 7091 913e d550 e33c
00000130: 9db3 463e 8faf 783e 6285 b43d 66a1 f53d
00000140: dcb5 a73e 6604 1d3d f540 2d3e 14e1 ec3d
00000150: c480 e5bd 7650 703e 529f a03d 3b3c ff3d
00000160: d927 383e 5619 e93d 96c3 143e fffc 3f3e
00000170: 3667 1a3d 8b74 133e d50b 0f3e 7d16 6d3e
00000180: f923 023e f229 013e 9b91 343e e0f1 823e
0.22697768 0.2469458 0.17424048 -0.13242498 0.19513616 0.1200667 0.14319365 0.080467656
0.119200185 0.1129419 0.2972732 0.015162772 0.014492519 0.1375473 0.23928753 0.13296443
0.19379431 0.17051777 0.2932503 0.2285851 0.13504604 0.30281842 0.33634478 0.23088977
0.2990267 0.0017503598 0.20071225 0.10067888 0.3360472 0.30690312 0.23869015 0.28959578
0.10387237 0.17774585 0.26175773 0.16184863 0.29423428 0.15288639 0.118622534 0.2759969
0.1831022 0.17390592 -0.021572052 0.17522307 0.36727035 0.16482772 0.072789535 0.18912278
0.25486445 0.33134475 0.21827506 0.118043445 0.29603007 0.20052357 0.18530962 0.15837847
0.31869492 0.21194427 0.35392278 0.17248793 -0.057161808 0.2754956 0.20049246 0.14060368
0.17011729 0.43845338 0.1522356 0.108777896 0.14992093 0.113908574 0.18943849 0.20121571
0.1453701 0.31203607 0.28431273 0.027748505 0.19404455 0.2428572 0.08814503 0.11993675
0.32755935 0.038334273 0.1691931 0.11566368 -0.11206201 0.23468193 0.07842888 0.1246266
0.1798395 0.113817856 0.14527735 0.18748854 0.037696086 0.14399926 0.13969357 0.2315311
0.12709035 0.12613657 0.17633669 0.2557516

batchnorm3.running_mean f4 [100]
00000000: 6198 cf3f 85d2 143f 39f4 163e 7105 b03f
00000010: 043d 18be b7b3 56bf 7694 d5bd 0eb7 053e
00000020: e404 bb3f 8012 453f 5131 52bf 8d48 9e3f
00000030: 29b2 a93d af75 acbf 23ef 2a3e 8bbc f93e
00000040: 7d1c 24bf 08cc b4be 89f9 5dbe 6633 473f
00000050: d05d 713e c869 1440 b72c 36bf 39e7 58bf
00000060: fe0c ed3f 23f0 02be de2d 58be 3871 d13e
00000070: 2949 90bf 9c10 a1be 30b6 543f 54d1 49bf
00000080: 9cad 803f 6990 da3e 1700 2e3e 5f34 ae3e
00000090: 77a0 39bd 05c6 a93d fed2 b73f 06c9 b53f
000000a0: 748a 333f 79cd 93bd 4b9b 603e 2629 473e
000000b0: c09f 653e 07e6 87bf aee1 3ebe 4146 86bc
000000c0: 9db3 a6bf 90e2 84be e17a 93bf 6487 5c3f
000000d0: 0b64 3a3d 57a6 2f3f 3368 3cbe 082f e13f
000000e0: 09aa b63e 0704 fc3d f91a 0cbf d362 083f
000000f0: 59db 723e 9e55 e4be 3c7a c63f dfe0 ff3d
00000100: b05a 4cbf 247e 5dbf f477 1f3f 2683 e03d
00000110: 78f7 d93e 173c b93f 1244 653f ab41 803f
00000120: 49ae 23bd e66f f0be ac71 37bf ec5e ec3e
00000130: b078 22bf a941 89bd 577a eabe 1165 34bf
00000140: caa9 c53e 0850 94bf 9615 ea3e 5f78 bd3f
00000150: 5dbb 4c3f 22ed e83e 1ccb 2dbf 00b9 a03f
00000160: 08c6 abbe fde1 1d3f 0c6b 00bf b95c 8ebf
00000170: f07e febd 515f 84be c672 0040 b746 353f
00000180: 2390 f53e 270f 93be aa87 a33f a8fa 9e3f
1.6218377 0.5813373 0.14741601 1.375166 -0.14867026 -0.83867973 -0.10428707 0.13058111
1.4610868 0.76981354 -0.821065 1.2365891 0.082859345 -1.3473414 0.16692786 0.4877666
-0.6410597 -0.35311913 -0.21677221 0.778128 0.23570943 2.3189564 -0.7116198 -0.8472782
1.851959 -0.12786917 -0.21111247 0.40906692 -1.1272327 -0.31457984 0.83090496 -0.78835034
1.0052981 0.426883 0.16992222 0.3402433 -0.045319047 0.08289722 1.4361265 1.4201972
0.7013314 -0.07216925 0.2193424 0.1944929 0.22424221 -1.0617074 -0.18640777 -0.016390922
-1.3023564 -0.25954103 -1.1521875 0.8614409 0.045505565 0.6861319 -0.18399124 1.7592478
0.35676602 0.12305456 -0.54728657 0.53275794 0.23716487 -0.4459657 1.5506053 0.12494063
-0.7982588 -0.865206 0.6229241 0.109625146 0.42571616 1.4471463 0.8955699 1.002004
-0.039961133 -0.46960372 -0.71657825 0.4616617 -0.63465405 -0.06701977 -0.45796463 -0.70466715
0.386061 -1.1586924 0.45719594 1.4802359 0.79973394 0.45493418 -0.67888045 1.2556458
-0.33549523 0.61672956 -0.5016334 -1.1122047 -0.12426555 -0.2585397 2.0070052 0.7081103
0.4796153 -0.28722498 1.2775776 1.2420244

batchnorm3.running_var f4 [100]
00000000: 0d86 1240 a9c6 e63f a414 1b40 ec2f e93f
00000010: ef12 3940 1283 f93f 1b1b 4e40 c387 aa3f
00000020: 676c 1740 96f7 1440 4d33 1d40 de89 913f
00000030: a4c9 2240 6689 dd3f a208 2a40 0acb 1d40
00000040: 06ba 1240 f889 e83f 885b 7b40 c36a 5440
00000050: 5bfc 1f40 d55c b33f fc2d f73f ed9a 0340
00000060: 5c1e 4640 04b3 2640 aa90 3240 9259 2e40
00000070: 925e c83f 160c 1540 f488 9e3f 8b39 5640
00000080: 70e5 ed3f 6ee4 d13f 3c23 e23f af3c ad3f
00000090: 2f1b 1f40 3054 0840 777f 2340 31aa 1240
000000a0: c62b d63f 918a 2140 9a45 1540 e36a 0540
000000b0: 386d fa3f 60f1 c23f 5135 d33f 10de f33f
000000c0: 7dcc 1740 e998 fc3f f447 0440 339f 1240
000000d0: 7e45 0640 e88d 3540 92a6 1640 3762 cf3f
000000e0: c2fd f93f 40ec 0040 3da5 0b40 de16 1b40
000000f0: 3b08 c23f db76 f53f bb82 4540 fbe9 0a40
00000100: e9d7 8240 6eb3 f63f 8003 2340 72d8 3140
00000110: acbf 4240 9df3 0d40 c940 1440 7739 3040
00000120: 13ed b33f 1813 d73f fd84 0b40 49a8 be3f
00000130: 2771 1640 0fb6 ca3f efe5 9e3f aa67 0140
00000140: 7cc5 c73f 8dcf f83f a1d4 5640 dd0b 4a40
00000150: ded3 de3e f41a 0140 d1e3 1340 0b22 a53f
00000160: db0b b03f a949 1f40 4fc1 c83f b27a 5540
00000170: d93a f23f c877 af3f 3885 e23f 4be9 1240
00000180: b9a9 e03f 2856 3d40 9bbd ef3f 8c55 2b40
2.2894318 1.8029376 2.4231348 1.821775 2.8917806 1.9493124 3.2204044 1.3322681
2.3659914 2.3276114 2.4562562 1.1370199 2.5435572 1.7307556 2.656777 2.4655175
2.292604 1.8167105 3.9274616 3.3190162 2.4997776 1.4012705 1.9310908 2.056331
3.095603 2.6046762 2.7900796 2.724217 1.565386 2.3288627 1.2385545 3.3472621
1.8585644 1.6397836 1.7667003 1.3534144 2.4860342 2.1301384 2.5546548 2.2916377
1.6732109 2.5240824 2.3323731 2.0846488 1.9564581 1.5229912 1.6500646 1.9052143
2.371856 1.9734164 2.0668917 2.2909667 2.0979915 2.8367863 2.3539166 1.6201848
1.9530566 2.0144196 2.1819603 2.4232707 1.5158762 1.9176897 3.0861042 2.170531
4.088856 1.9273508 2.5470886 2.7788358 3.0429487 2.217994 2.3164542 2.7535074
1.4056724 1.6802702 2.179992 1.4895107 2.3506563 1.583681 1.241392 2.0219522
1.5607142 1.943834 3.3567278 3.156974 0.43521017 2.01727 2.3107798 1.2901014
1.3753618 2.4888709 1.5683993 3.3356137 1.8924209 1.3708429 1.7696905 2.295489
1.7551795 2.9583836 1.8729738 2.6770964

linear2.weight f4 [10, 100]
00000000: 4ad6 483e 18cc 7e3e feae 8ebd d7a2 15bf
00000010: 9015 e3be 3383 80bf 9cc0 32bf 72ae 17bf
00000020: 4216 0ebf 0308 2dbf d8ec 3abf 404c 12be
00000030: 6d17 813d 71fb e3be 18fa 193e 01d5 12bf
00000040: fb9e 06bf 1a04 b0be 2572 20bf c1be d53e
00000050: 4c2b 82bf 9db5 393e 380c 8c3e 1fab a5bf
00000060: 348a 993e 53de b73e 9aeb d43e 0a50 89bd
00000070: 051e 003f 951b e83d 18a1 da3d 3e65 c13e
00000080: 70d1 44bf b2bf 6dbf c1a7 c63d 7685 08bf
00000090: a115 f5be b48a b0be 9207 633e 401d 0f3e
000000a0: 8d53 d93e 5677 cc3e 340f 09bf c567 52bf
000000b0: 4e3d be3e 5f1c 90be a2a7 d1be d3d2 113f
000000c0: 60cd d9be 5b1c 19bf 8a60 51bf ca28 d0be
000000d0: cd4b 2bbf 7a71 6e3e 0185 89bf 69c4 28bf
000000e0: 93cf a43d 9f96 edbd 3bce 92be 28bf 12bf
000000f0: af7d 0cbf a720 ab3e 7a21 3a3e 995a 1dbf
00000100: 60cb dbbe b610 dd3e 3cdb c23e 2391 cfbe
00000110: 56d4 4bbe c94b bbbe 48af e7be 4ffc 40bd
00000120: 7f69 c6bd 46a8 0c3f cdef 90bf 0bd3 bf3d
00000130: a5ed 8bbe 295b abbe 4e3e 67bd b943 83be
00000140: 2ff6 c0be 8502 57bd 9204 323e 3bcb 033f
00000150: 5d87 18bd 97f5 53bf e746 c9be 8406 df3c
00000160: 72a5 8cbe f0d8 d73a 586d f9be e4a2 4cbf
00000170: 183e 82be 8bb0 67be 4aba f7bc 0be0 37be
00000180: 6a7f bbbe dc4b b0be 44b9 d33e 7843 46be
00000190: c4c5 67be 1295 44be 5e7c 65bf 3255 463e
000001a0: cd38 c13e e446 07be 7721 1cbf 3ca9 2c3e
000001b0: fbb0 c5be dc08 893e 6b8a 17bf 8df4 3abf
000001c0: a71a 803d 9175 c4be 8bdf 4abe 4204 60bf
000001d0: 92c1 2abf e824 d53d e4e8 1f3e 323e 31be
000001e0: e7d5 24bf fac7 35bf d634 0ebf ded4 8f3e
000001f0: 3b6f 86bf dbd4 c4be 8e50 88be aa72 2fbe
00000200: a1ce c2be 2457 d9bd a992 a63e 02fd 49bf
00000210: 28c8 33bf 7744 66be f67f 45be b6ef 2fbe
00000220: ac87 d23e cc57 d73e 98e7 b1bd ab1f 6abf
00000230: 2c1c b1be 43be 83be 6e87 dabe 80a6 97be
00000240: 1636 1bbf 3442 83bf 2b2c 12bf eb56 37bf
00000250: 2661 8a3e 658a 6ebf 4486 39bf 0a49 8ebe
00000260: e632 a83e 1379 5cbd d1c9 5bbe 53ce 05bf
00000270: 8be9 8dbd 31b1 61bf c89e a43e 133c ce3e
00000280: d0d8 25bf 8b2c b8be 9bbc 1bbf cfdc 45bf
00000290: 31ef a93e fa75 1b3d e8f4 0abf 6371 2dbf
000002a0: 28ce 6cbf fa4a 3a3e 7011 2cbf 35ef ad3e
000002b0: 20f5 ff3d 58e2 6fbe e6a1 1abf e8d7 aabe
000002c0: cd91 a53e a847 b93e 6b73 fabe ea14 04bf
000002d0: 977b 703e cbab ed3d 5eec 25bf 7564 3dbf
000002e0: 93ef 92bd 4074 ac3c 10c8 323e 2baf da3e
000002f0: ac82 b53c e68f a53e 4323 463d 7227 873e
00000300: 4636 49bf d0a2 b13e 497d 18bf 7f06 4dbf
00000310: f75f 4dbe 5f88 84bd 4259 5c3c 6fa2 71bf
00000320: e2f6 fd3d 7f6c d8be 6570 08be 4b57 0cbf
00000330: e0e1 38bd eb8d 2bbe 443c a23e 9759 23bf
00000340: ecc5 943d 4d31 50bf a20d 28bf 5174 663e
00000350: eb23 a5be 65bf 9f3e 78e3 933e 33e6 a53d
00000360: 2b82 51be 52a5 95bc 35d3 34bf 17d8 09bf
00000370: 080b 9d3d 9bad 5abe 47f2 adbe 7dc3 c4be
00000380: 91c3 f5be 6b68 54be c658 293d adbf e2be
00000390: cf9a f0be 237f 09bd 52f5 a33e 638a a3be
000003a0: eafc 813e 466a f6be ea90 f63d b917 9f3c
000003b0: abb6 833e a930 083e adfa 95be b905 c13e
000003c0: 681b 8a3e c4e5 a7be 9f36 36bf 1428 9b3e
000003d0: 5fdb 01bf fa47 91be 970d 11bf acd5 cfbe
000003e0: 7e0f 633e 1cea 8fbe c74d 06bf 4231 e73d
000003f0: 6a04 dfbd a45e 04bf 51b6 edbe 2771 6c3e
0.19612995 0.24882543 -0.06966971 -0.584516 -0.44352388 -1.0040039 -0.6982515 -0.5925056
-0.5550271 -0.6759035 -0.73017645 -0.142869 0.06303296 -0.44527772 0.1503681 -0.5735627
-0.52586335 -0.3437813 -0.6267417 0.41747096 -1.0169463 0.18135686 0.27353072 -1.2942847
0.29988253 0.35911807 0.41586 -0.06704719 0.50045806 0.11333386 0.106752574 0.37772554
-0.76882076 -0.9287063 0.09699965 -0.53328645 -0.47868064 -0.34480822 0.22170857 0.13976002
0.42446557 0.39934796 -0.53538823 -0.8218959 0.37156147 -0.28146645 -0.40948206 0.5696232
-0.425395 -0.5980889 -0.8178793 -0.4065612 -0.6691254 0.23285475 -1.0743715 -0.659247
0.08047404 -0.11600994 -0.28672966 -0.5732293 -0.5487928 0.3342335 0.18176833 -0.61466366
-0.429286 0.43176812 0.38057888 -0.40540418 -0.19905218 -0.36581257 -0.45250916 -0.04711562
-0.096880905 0.54944265 -1.1323181 0.09366425 -0.27329746 -0.33467987 -0.056455903 -0.25637606
-0.37687823 -0.052492637 0.17384556 0.5148198 -0.037238467 -0.82796615 -0.39311907 0.027224787
-0.27469975 0.0016467851 -0.48716235 -0.7993605 -0.25438 -0.2262594 -0.030240197 -0.1795656
-0.36620647 -0.34432876 0.41352284 -0.19361675 -0.22634035 -0.19197491 -0.89642894 0.19368437
0.37738648 -0.13210636 -0.60988563 0.16861433 -0.38611588 0.26764572 -0.59195584 -0.73029405
0.062550835 -0.38370946 -0.19811837 -0.87506497 -0.66701615 0.1040743 0.15616184 -0.17308882
-0.6438889 -0.71008265 -0.5554937 0.28092092 -1.0502695 -0.38443646 -0.26623958 -0.17133585
-0.3804827 -0.10612324 0.32533768 -0.78901684 -0.7022729 -0.22487055 -0.19287094 -0.17181286
0.41119134 0.4205917 -0.08686751 -0.9145457 -0.34591806 -0.25731096 -0.4268145 -0.29619217
-0.60629404 -1.0254579 -0.57098645 -0.71617 0.27027243 -0.93179923 -0.724705 -0.277901
0.32851332 -0.053826403 -0.21463706 -0.5226795 -0.069293104 -0.88161 0.3215239 0.40280208
-0.64783955 -0.35971484 -0.60834664 -0.7729005 0.331903 0.037954308 -0.5427995 -0.6775114
-0.9250207 0.18192664 -0.6721411 0.33971563 0.12497926 -0.23426187 -0.6040329 -0.33367848
0.323378 0.36187482 -0.48916182 -0.5159441 0.23484646 0.116050325 -0.6481379 -0.7398141
-0.071746014 0.021051526 0.1745913 0.42711768 0.022157036 0.32336348 0.048373472 0.26397282
-0.7859844 0.3469453 -0.5956617 -0.8008804 -0.20056139 -0.06471323 0.013449015 -0.9438848
0.12400605 -0.42270276 -0.13324125 -0.548207 -0.045137286 -0.16753356 0.31686604 -0.6380858
0.07264313 -0.8132523 -0.656458 0.22505309 -0.32253966 0.3120071 0.28884482 0.08100548
-0.20459811 -0.018267307 -0.70634776 -0.5384535 0.0766812 -0.21355288 -0.33973905 -0.38430396
-0.48000768 -0.20742957 0.041344427 -0.44286862 -0.4699311 -0.033568513 0.32023102 -0.31941518
0.2538827 -0.48127955 0.12039359 0.019420492 0.25725302 0.13299812 -0.29292813 0.3769968
0.26974034 -0.32792485 -0.71177095 0.30304015 -0.5072536 -0.28375226 -0.5666136 -0.40592706
0.22173879 -0.281083 -0.5246243 0.11288692 -0.10889514 -0.5170691 -0.4642816 0.23090039

linear2.bias f4 [10]
00000000: b376 4ebe d8e7 063e 9d73 d0bd 7c86 6d3d
00000010: b6e7 4cbd e133 5c3d 66f3 0abe 6967 9dbd
00000020: 7b7a b23d 0e5a 453e
-0.20162468 0.13174379 -0.101783015 0.057989582 -0.050025664 0.053760413 -0.13569412 -0.076857395
0.087147675 0.19272634
