research/differential_privacy/multiple_teachers/checkpoint/mnist_10_teachers_1.pth (torch_old, 139301 bytes, 20 tensors)

conv1.weight f4 [16, 1, 5, 5]
-0.10883315 0.08768753 -0.105784275 0.041391127 -0.13276064 -0.099766076 0.11135304 0.109810986
0.04917359 -0.2072095 0.08069601 0.16275573 -0.13243513 -0.2114621 -0.077658385 -0.04298172
0.22529921 0.03851647 0.1378732 0.020317173 -0.08278393 0.2534118 0.08844794 -0.05577392
0.31797346 -0.087509945 -0.11423547 -0.06493573 0.014425489 0.35966012 0.08568347 0.06617288
0.04861598 -0.13346484 -0.29294816 0.21572031 0.14271632 -0.05153817 -0.2948229 -0.09630231
-0.22711532 -0.30039406 0.020914089 -0.0042508123 0.03356538 -0.12017919 0.17465791 0.22673167
0.20219038 0.0010825088 -0.23167357 -0.11743341 -0.018547371 -0.1244219 0.040796112 0.0777744
-0.029797114 -0.10020836 0.015120621 0.18364228 0.11589034 0.12916717 0.28745177 -0.021222832
0.069605514 -0.069203705 0.005990483 -0.08937572 0.15729904 -0.15232465 -0.055200227 -0.23641524
-0.18164241 -0.19073623 -0.18962716 0.09921322 0.1364801 0.065934226 -0.101458915 -0.25957462
-0.0646515 -0.13976975 -0.20301545 -0.37940663 -0.24834146 -0.13396658 -0.161167 -0.25026286
-0.3120574 -0.04747159 0.086770475 -0.22189565 -0.04209254 -0.3145362 -0.041868772 0.14357658
-0.07223498 -0.010896006 -0.20660764 0.26287046 -0.03250366 -0.24136914 -0.0057556047 -0.23650882
-0.28521138 -0.30211154 -0.19695382 -0.3043058 -0.20749582 -0.12078862 -0.0015046631 -0.039385535
-0.05651872 0.07310439 0.0249424 0.05381412 0.21626389 -0.06433182 -0.09522849 0.2634898
0.16036609 -0.06236288 0.1526699 0.1352446 0.16068596 0.12581754 0.002593082 0.051427945
-0.032595813 -0.036361594 0.10567419 -0.1300205 0.21955062 -0.07065861 0.075816005 -0.2796097
0.05825322 0.22409835 0.25634116 -0.18683657 -0.080774955 -0.20780331 0.14582942 0.14573199
-0.01824811 -0.11881902 -0.17580603 0.0009331729 0.2274986 0.063012235 0.09272875 0.102203615
-0.03227988 -0.09771633 -0.10614498 0.045104325 0.09051825 0.15642287 0.21730171 0.14579967
-0.14444155 -0.020736193 0.089458376 0.0020303559 0.14517508 -0.1516585 -0.030599212 0.04774696
-0.10684832 -0.013971453 -0.07677438 -0.14918712 -0.35432684 -0.11604933 -0.24992253 0.055136442
0.046617843 0.24470879 0.081745155 0.1737992 -0.11953596 0.13718231 -0.21524552 0.12261818
-0.2972383 0.13777906 -0.093902096 0.08028099 -0.15902656 -0.011837041 -0.34117725 -0.075410135
-0.19678496 0.057895944 0.13592441 -0.082286455 -0.037978962 -0.09342011 0.02175784 0.022031335
-0.3527991 0.049592294 0.16303495 -0.010632191 0.0963145 0.014327828 0.333369 0.10361945
-0.17231297 -0.04519832 0.06562532 0.021480879 0.058789007 -0.24688676 -0.16240968 0.11592391
-0.27035862 -0.06922652 -0.07315064 0.083182625 -0.17797418 -0.020260395 0.050908808 0.11936739
0.14132197 0.12766357 0.18616246 0.14913154 0.20169297 0.30410168 -0.06310432 -0.02526344
0.013938903 -0.06381657 0.1691002 -0.10540011 0.024606466 0.007114458 -0.15646179 -0.0054862043
-0.38764188 -0.22411616 -0.046844278 -0.05890019 0.05832019 -0.20729257 -0.09833511 -0.2149011
-0.24421963 -0.085843705 0.036080573 -0.07442661 -0.15349394 0.079409875 -0.29543185 -0.115772724
00000000: eae3 debd 8595 b33d 6da5 d8bd be89 293d
00000010: 68f2 07be 2852 ccbd 100d e43d 95e4 e03d
00000020: 3f6a 493d ba2e 54be f343 a53d 70a9 263e
00000030: 139d 07be 8589 58be 5c0b 9fbd 9a0d 30bd
00000040: d6b4 663e 72c3 1d3d a22e 0d3e 3370 a63c
00000050: 9f8a a9bd 31bf 813e 3224 b53d 3273 64bd
00000060: 6bcd a23e 6a38 b3bd 49f4 e9bd 06fd 84bd
00000070: e358 6c3c 5f25 b83e d17a af3d a685 873d
00000080: 8d21 473d 02ab 08be 4dfd 95be c9e5 5c3e
00000090: 3a24 123e b019 53bd 07f3 96be 253a c5bd
000000a0: eb90 68be 40cd 99be 0654 ab3c 664a 8bbb
000000b0: da7b 093d 8220 f6bd 86d9 323e 592c 683e
000000c0: ff0a 4f3e f8e2 8d3a d63b 6dbe ed80 f0bd
000000d0: a8f0 97bc e9d0 febd d319 273d 2f48 9f3d
000000e0: 1419 f4bc 0a3a cdbd 7bbc 773c b90c 3c3e
000000f0: ea57 ed3d 6644 043e e12c 933e 81db adbc
00000100: 568d 8e3d acba 8dbd d04b c43b 9e0a b7bd
00000110: 0013 213e fefa 1bbe a219 62bd d616 72be
00000120: 7800 3abe 5c50 43be 9f2d 42be 4d30 cb3d
00000130: 70c1 0b3e 8608 873d b1c9 cfbd f7e6 84be
00000140: 0168 84bd cd1f 0fbe 48e3 4fbe 9641 c2be
00000150: 394d 7ebe 892e 09be f608 25be 7422 80be
00000160: fdc5 9fbe 9271 42bd b8b4 b13d 9d38 63be
00000170: 3a69 2cbd e40a a1be 977e 2bbd bd05 133e
00000180: efef 93bd 2985 32bc f490 53be f596 863e
00000190: 8f22 05bd 7929 77be 8399 bcbb 5e2f 72be
000001a0: 3a07 92be 5dae 9abe 43ae 49be f8cd 9bbe
000001b0: c979 54be 0660 f7bd 1e38 c5ba ba52 21bd
000001c0: 2c80 67bd c1b7 953d 0154 cc3c 326c 5c3d
000001d0: 4874 5d3e 67c0 83bd 2807 c3bd 23e8 863e
000001e0: 0237 243e 3870 7fbd 8055 1c3e 8f7d 0a3e
000001f0: dc8a 243e 50d6 003e b2f0 293b 1ca6 523d
00000200: 3083 05bd e5ef 14bd b66b d83d 1824 05be
00000210: e1d1 603e 76b5 90bd 6c45 9b3d 0129 8fbe
00000220: ee9a 6e3d 0a7a 653e 263f 833e 1652 3fbe
00000230: 576d a5bd 64ca 54be 4f54 153e c43a 153e
00000240: 0f7d 95bc 6357 f3bd 7f06 34be 2ca0 743a
00000250: 65f5 683e 8f0c 813d 92e8 bd3d 2150 d13d
00000260: e837 04bd 801f c8bd 8a62 d9bd 50bf 383d
00000270: a261 b93d 512d 203e 5784 5e3e 824c 153e
00000280: 7ce8 13be f3de a9bc f435 b73d b80f 053b
00000290: c7a8 143e 5e4c 1bbe 33ab fabc 5192 433d
000002a0: 4bd3 dabd 85e8 64bc e33b 9dbd 82c4 18be
000002b0: 546a b5be 45ab edbd b1eb 7fbe c0d6 613d
000002c0: 5af2 3e3d f194 7a3e 016a a73d 6bf8 313e
000002d0: 45cf f4bd 8579 0c3e 5269 5cbe 3e1f fb3d
000002e0: 9e2f 98be f415 0d3e be4f c0bd 5c6a a43d
000002f0: dcd7 22be 26f0 41bc c9ae aebe a170 9abd
00000300: ff81 49be 4c24 6d3d c52f 0b3e cd85 a8bd
00000310: d48f 1bbd 0b53 bfbd 7f3d b23c 0f7b b43c
00000320: 15a2 b4be 4a21 4b3d a2f2 263e a432 2ebc
00000330: 8940 c53d 44bf 6a3c 57af aa3e 6f36 d43d
00000340: d072 30be e021 39bd 9166 863d abf8 af3c
00000350: becc 703d e2cf 7cbe b94e 26be 8469 ed3d
00000360: 726c 8abe a2c6 8dbd 01d0 95bd a75b aa3d
00000370: dd3e 36be 21f9 a5bc c185 503d e476 f43d
00000380: b5b6 103e 3dba 023e 5fa1 3e3e f0b5 183e
00000390: 9a88 4e3e 37b3 9b3e d63c 81bd 46f5 cebc
000003a0: ff5f 643c 43b2 82bd 9a28 2d3e 03dc d7bd
000003b0: 8093 c93c 6620 e93b 8537 20be 9ec5 b3bb
000003c0: ff78 c6be b57e 65be c9df 3fbd 5341 71bd
000003d0: 27e1 6e3d 8144 54be eb63 c9bd 090f 5cbe
000003e0: b614 7abe d3ce afbd 39c9 133d fa6c 98bd
000003f0: 842d 1dbe a5a1 a23d d842 97be 401a edbd

conv1.bias f4 [16]
0.13822414 -0.07747222 0.111586615 -0.071513064 -0.06395778 0.077945955 -0.019257756 -0.15228234
0.009132986 -0.09175551 0.19665295 0.024423275 0.094285384 -0.054760613 -0.0063943807 0.06613702
00000000: a18a 0d3e c1a9 9ebd 8687 e43d 7175 92bd
00000010: 4cfc 82bd 21a2 9f3d 71c2 9dbc e7ef 1bbe
00000020: 85a2 153c 50ea bbbd 645f 493e 5213 c83c
00000030: b218 c13d aa4c 60bd f487 d1bb d972 873d

batchnorm1.weight f4 [16]
0.31604508 0.24362263 0.27499595 0.75926685 0.5237143 0.28506148 0.93722147 0.13995747
0.9328022 1.0197027 0.068967104 0.6345632 0.34311083 0.5250909 0.99647206 0.7989687
00000000: a9d0 a13e 3678 793e 45cc 8c3e 505f 423f
00000010: 2412 063f 94f3 913e bfed 6f3f 0351 0f3e
00000020: 20cc 6e3f 9e85 823f a03e 8d3d bc72 223f
00000030: 39ac af3e 5b6c 063f cb18 7f3f 3689 4c3f

batchnorm1.bias f4 [16]
-0.26103863 -0.15500392 -0.1185411 0.009040268 0.0814336 -0.22576083 -0.0035069073 -0.12657407
-0.36604166 0.08747119 -0.11371061 -0.29129982 -0.15519649 -0.22745846 -0.10137302 -0.21770467
00000000: dba6 85be 59b9 1ebe adc5 f2bd a21d 143c
00000010: a9c6 a63d d92d 67be 24d4 65bb a29c 01be
00000020: d069 bbbe 1824 b33d 1ce1 e8bd 4025 95be
00000030: d4eb 1ebe dfea 68be a89c cfbd f9ed 5ebe

batchnorm1.running_mean f4 [16]
21.137812 -9.481137 -31.522352 -106.651344 -45.446682 15.150722 -26.465603 -20.602865
-9.694036 -34.63201 -86.76233 -10.172836 3.4124625 11.665443 -67.459236 -4.4847817
00000000: 3d1a a941 bdb2 17c1 c72d fcc1 7d4d d5c2
00000010: 67c9 35c2 5b69 7241 8eb9 d3c1 abd2 a4c1
00000020: c51a 1bc1 2e87 0ac2 5086 adc2 f0c3 22c1
00000030: c965 5a40 a8a5 3a41 21eb 86c2 5583 8fc0

batchnorm1.running_var f4 [16]
3455.514 2528.6624 3759.1252 32714.328 15255.518 3319.2488 5337.35 3674.1506
2841.4277 11592.278 14742.624 2690.9316 3971.9373 1835.0813 17710.254 2617.6008
00000000: 39f8 5745 990a 1e45 01f2 6a45 a894 ff46
00000010: 125e 6e46 fb73 4f45 cdca a645 69a2 6545
00000020: d896 3145 1d21 3546 7f5a 6646 e82e 2845
00000030: ff3e 7845 9a62 e544 825c 8a46 9d99 2345

conv2.weight f4 [16, 16, 5, 5]
-0.12202877 -0.07293448 -0.116564825 -0.05855274 0.11720469 0.04776201 0.010014557 -0.04972521
-0.0089554805 0.14866611 0.16439953 -0.029892903 -0.049972873 -0.021288186 -0.083001256 0.049962047
-0.046096478 0.088645436 0.10357718 -0.052684523 0.025349082 0.08575069 0.12299729 0.17895208
0.032541472 0.12793282 0.19675303 0.088470615 0.061974224 0.033161473 0.115524866 0.073311105
0.078360975 -0.09018246 -0.176025 -0.03256612 -0.036510825 -0.00525865 -0.033221602 -0.024506068
0.0741792 0.12722221 0.18062338 0.11331853 0.10701192 0.02542628 -0.009928021 -0.019957008
0.015512854 0.11982806 -0.067215145 -0.078365885 -0.024249537 -0.074575886 -0.040968876 -0.25618494
-0.09304755 -0.056338917 -0.054991957 -0.12432321 -0.21446322 -0.1797521 -0.24648353 -0.24658166
-0.15804319 -0.08204386 -0.1864813 -0.13992059 -0.06669551 0.018349806 -0.08073869 -0.036886066
0.0022928338 0.06276732 0.14136077 0.08832896 0.046523813 0.17332755 0.08293857 -0.0013583563
-0.025864044 0.08609451 0.015527462 -0.17665538 -0.16232 -0.09674002 -0.16517639 -0.0643161
-0.024733817 -0.03956318 -0.06457214 -0.12557879 -0.09807626 -0.11193561 -0.07399146 -0.023023661
-0.1144623 -0.07431063 -0.062357977 0.058456365 0.03919404 -0.05794681 0.0153324995 0.1461713
0.14881778 0.0063153184 0.021927254 -0.0044131815 -0.025299842 -0.09916847 -0.07135319 -0.021594156
-0.09371018 -0.37587458 -0.3605267 -0.14369115 -0.14745724 -0.14264967 -0.14310603 -0.09086276
-0.11319344 -0.09640149 -0.075642094 0.04088267 0.07130079 -0.21691959 -0.15867062 -0.10275697
-0.20190446 -0.015031126 -0.21896558 -0.24030398 -0.16616392 -0.14208187 0.011257756 0.0359655
-0.047774732 -0.02696627 -0.015989069 0.034441404 0.1268943 0.14012162 0.039181013 -0.10647284
-0.13038404 0.18092848 0.102822 0.06166372 -0.07541466 -0.12360601 -0.05629706 0.042378705
0.018212972 -0.060078833 -0.10110322 -0.17817383 0.03766578 -0.03246801 -0.0031654118 0.12818836
-0.18153624 -0.33098894 -0.14331406 -0.074504696 0.08864517 -0.09745054 -0.109153956 -0.113147356
-0.06669176 0.17693771 0.060805038 0.049439475 0.0042834077 -0.06005011 -0.052667722 -0.0066099525
-0.03456503 -0.09825277 -0.013182297 -0.020557903 -0.06600306 -0.117924 -0.13964531 0.023431538
0.01842905 -0.16746028 -0.11319008 -0.08884875 0.019360602 -0.094396584 -0.09759808 -0.07388573
-0.050324403 -0.017662652 -0.0880464 -0.06688264 -0.06832738 -0.02223991 0.041234966 0.13739274
0.067232594 0.08492625 0.08336034 -0.15209386 -0.14624374 0.18621705 0.14838494 0.08184397
-0.12331381 -0.034179784 0.23818487 0.3014772 0.09123035 -0.014539615 -0.021356845 0.2629666
0.18256485 0.1150208 0.094363004 -0.056541674 0.111873165 -0.13448738 0.080206335 0.029258149
0.09166918 -0.1256744 -0.17143244 -0.14456387 -0.18283604 -0.1545441 -0.34080175 -0.342055
-0.26688793 -0.04837743 0.06367233 -0.26992977 -0.32113266 -0.23678139 -0.09949215 -0.006103102
-0.03279702 -0.15360236 -0.21156369 -0.04940022 0.010764432 0.1304272 -0.034762025 -0.097519465
-0.017366812 -0.08313997 0.0044134506 -0.012857933 0.046888772 -0.15177087 -0.1365235 -0.07958894
00000000: 38ea f9bd ac5e 95bd 8ab9 eebd ffd4 6fbd
00000010: 0309 f03d 19a2 433d 1914 243c a9ac 4bbd
00000020: 02ba 12bc ee3b 183e 5a58 283e f6e1 f4bc
00000030: 5bb0 4cbd 9064 aebc 90fc a9bd 01a5 4c3d
00000040: a9cf 3cbd bd8b b53d 4620 d43d bacb 57bd
00000050: e1a8 cf3c 0f9e af3d 01e6 fb3d 373f 373e
00000060: 354a 053d d200 033e a079 493e 1530 b53d
00000070: afd8 7d3d 53d4 073d 4d98 ec3d 2224 963d
00000080: b87b a03d 95b1 b8bd e63f 34be 0d64 05bd
00000090: 608c 15bd c150 acbb 6013 08bd f3c0 c8bc
000000a0: 44eb 973d 8a46 023e 56f5 383e 8c13 e83d
000000b0: 1129 db3d c64a d03c 23a9 22bc e17c a3bc
000000c0: a029 7e3c 6a68 f53d 18a8 89bd 4b7e a0bd
000000d0: f7a6 c6bc 3ebb 98bd fbce 27bd ac2a 83be
000000e0: b78f bebd a3c3 66bd 3f3f 61bd 2b9d febd
000000f0: 3f9c 5bbe ef10 38be 2e66 7cbe e77f 7cbe
00000100: 13d6 21be 9c06 a8bd f4f4 3ebe 5847 0fbe
00000110: a897 88bd 5552 963c 545a a5bd d815 17bd
00000120: 5e43 163b 278c 803d e1c0 103e d0e5 b43d
00000130: c18f 3e3d c77c 313e b2db a93d e00a b2ba
00000140: d5e0 d3bc 5252 b03d e566 7e3c 26e5 34be
00000150: 3737 26be a21f c6bd 0024 29be 29b8 83bd
00000160: 939e cabc 000d 22bd 663e 84bd ba97 00be
00000170: 35dc c8bd 7f3e e5bd d688 97bd 1e9c bcbc
00000180: 366b eabd 2c30 98bd 146b 7fbd f16f 6f3d
00000190: ee89 203d a259 6dbd 2a35 7b3c eead 153e
000001a0: b063 183e bbf0 ce3b c9a0 b33c 739c 90bb
000001b0: 9d41 cfbc d718 cbbd 9f21 92bd 3ae6 b0bc
000001c0: 1feb bfbd a272 c0be f596 b8be c623 13be
000001d0: 08ff 16be c112 12be 638a 12be 4116 babd
000001e0: f6d1 e7bd 256e c5bd 3eea 9abd 9674 273d
000001f0: 2606 923d 2b20 5ebe 8d7a 22be 3f72 d2bd
00000200: 0bc0 4ebe 1d45 76bc 8338 60be 3f12 76be
00000210: e026 2abe e97d 11be 7372 383c 8f50 133d
00000220: 70af 43bd 5ee8 dcbc 82fb 82bc 6e12 0d3d
00000230: 94f0 013e 0b7c 0f3e 457c 203d 6f0e dabd
00000240: 6583 05be 5145 393e 5794 d23d 1993 7c3d
00000250: 0073 9abd 2625 fdbd bf97 66bd 4b95 2d3d
00000260: 5f33 953c 3915 76bd 340f cfbd 3373 36be
00000270: 6f47 1a3d 2dfd 04bd cc72 4fbb cf43 033e
00000280: a3e4 39be 6277 a9be ecc0 12be eb95 98bd
00000290: 998b b53d 2694 c7bd 1c8c dfbd cdb9 e7bd
000002a0: b195 88bd 292f 353e b40e 793d 0c81 4a3d
000002b0: d45b 8c3b 1bf7 75bd 1cba 57bd 4d98 d8bb
000002c0: 1094 0dbd c038 c9bd 90fa 57bc 0c69 a8bc
000002d0: 9d2c 87bd 2382 f1bd 2eff 0ebe 7ff3 bf3c
000002e0: 85f8 963c b57a 2bbe 33d0 e7bd 55f6 b5bd
000002f0: 209a 9e3c ff52 c1bd 81e1 c7bd 6751 97bd
00000300: f620 4ebd 44b1 90bc ac51 b4bd c4f9 88bd
00000310: 3aef 8bbd 7930 b6bc ffe5 283d afb0 0c3e
00000320: 3eb1 893d d0ed ad3d d3b8 aa3d 7ebe 1bbe
00000330: ebc0 15be afaf 3e3e 39f2 173e d09d a73d
00000340: f38b fcbd 1a00 0cbd bce6 733e 385b 9a3e
00000350: fad6 ba3d 9137 6ebc 8df4 aebc 8fa3 863e
00000360: 48f2 3a3e 0690 eb3d 6441 c13d 3e98 67bd
00000370: c21d e53d 0fb7 09be 3843 a43d c9ae ef3c
00000380: 0dbd bb3d cab0 00be fc8b 2fbe 8d08 14be
00000390: 5f39 3bbe cf40 1ebe 917d aebe d521 afbe
000003a0: 89a5 88be 6927 46bd a366 823d 3c34 8abe
000003b0: 806b a4be d276 72be 8ac2 cbbd 88fc c7bb
000003c0: 2b56 06bd f049 1dbe 27a4 58be e357 4abd
000003d0: 4d5d 303c b58e 053e a062 0ebd 49b8 c7bd
000003e0: d844 8ebc 4a45 aabd b59e 903b 14aa 52bc
000003f0: 710e 403d d369 1bbe d1cc 0bbe 87ff a2bd

conv2.bias f4 [16]
0.17126805 -0.13904594 -0.15178102 0.024635902 -0.061820067 0.07434277 -0.029918216 -0.046552703
0.0774202 -0.08588577 0.045471955 0.10057025 0.09765195 -0.018769162 -0.0058375373 0.19187653
00000000: e460 2f3e 0f62 0ebe 7c6c 1bbe 3bd1 c93c
00000010: 0a37 7dbd 0641 983d 0c17 f5bc 0cae 3ebd
00000020: 7b8e 9e3d e1e4 afbd cd40 3a3d c6f7 cd3d
00000030: bffd c73d c9c1 99bc d048 bfbb 487b 443e

batchnorm2.weight f4 [16]
0.32792172 0.38399053 0.41899583 0.3712081 0.5181208 0.35367468 0.8365844 0.61696315
0.7841755 0.73538405 0.35618064 0.5310393 0.2762741 0.40399438 0.28130245 0.19561233
00000000: 5be5 a73e 689a c43e 9f86 d63e fd0e be3e
00000010: 91a3 043f d914 b53e 652a 563f 4cf1 1d3f
00000020: babf 483f 2142 3c3f 4f5d b63e 31f2 073f
00000030: cd73 8d3e 5ad8 ce3e e006 903e 994e 483e

batchnorm2.bias f4 [16]
-0.10862865 0.1880565 -0.10396132 -0.10162945 0.03765592 -0.074071445 -0.13249885 -0.27464396
-0.20596448 -0.057790276 -0.004335372 -0.1649991 -0.12267858 -0.15550031 -0.052419975 -0.0049461103
00000000: b378 debd e291 403e ace9 d4bd 1a23 d0bd
00000010: 183d 1a3d c5b2 97bd c7ad 07be 229e 8cbe
00000020: 5ae8 52be 7fb5 6cbd bc0f 8ebb 86f5 28be
00000030: e83e fbbd 793b 1fbe 54b6 56bd fb12 a2bb

batchnorm2.running_mean f4 [16]
-1.6059532 -1.4989706 0.10045965 0.48150796 -0.25169304 -0.59401196 0.122407846 -0.7564436
-1.8909912 -1.6964982 0.007956713 -0.62855715 -1.9669788 -1.6066475 0.20911327 1.9285756
00000000: e08f cdbf 45de bfbf cabd cd3d 3688 f63e
00000010: e9dd 80be 2b11 18bf f7b0 fa3d 4aa6 41bf
00000020: 000c f2bf da26 d9bf e05c 023c 1fe9 20bf
00000030: f6c5 fbbf a0a6 cdbf ca21 563e 91db f63f

batchnorm2.running_var f4 [16]
2.542372 1.1298528 2.5382826 1.5054078 2.3532608 1.585775 2.278848 2.545624
1.9649308 2.7733798 2.0527933 2.059734 2.5705807 3.2594619 1.9529107 1.9339359
00000000: 39b6 2240 049f 903f 3973 2240 34b1 c03f
00000010: d39b 1640 adfa ca3f a5d8 1140 81eb 2240
00000020: da82 fb3f 0e7f 3140 f760 0340 afd2 0340
00000030: 6584 2440 069b 5040 faf8 f93f 368b f73f

linear1.weight f4 [100, 256]
0.016514378 -0.06303792 -0.13161924 0.10446285 0.053983547 0.0883709 -0.12454633 -0.05129246
0.10778361 0.020393949 0.10913446 0.0014144122 0.07218936 0.16923374 0.22809327 -0.112408176
0.072918385 -0.121166036 -0.021016134 -0.018251373 -0.007557274 -0.07561893 -0.012145704 -0.21601565
-0.042880464 0.38120815 -0.11763921 -0.12078226 -0.15845758 0.3296293 -0.1938487 -0.021309124
-0.042860035 -0.13730842 0.012452088 0.28171787 0.10841786 0.07522184 0.09927032 0.07117255
-0.020756856 -0.030364418 0.027308777 -0.16127554 -0.020722674 -0.13380995 0.08592866 -0.028135886
-0.10415312 -0.026793828 -0.024333442 0.25623137 -0.023468303 0.051052786 0.026424458 0.010891353
-0.0067889774 -0.020991085 -0.08313885 0.003584401 -0.14616138 0.061528556 -0.06627479 0.0817243
-0.14398204 0.07943872 -0.017338896 -0.04848129 -0.13780962 -0.17109002 0.086150885 0.07657922
-0.2728184 -0.07897241 0.12722349 0.18184313 0.103565514 0.23285861 0.20261124 0.14191033
-0.20746547 -0.03289263 0.052810956 0.017812815 -0.06426918 -0.15993768 0.1988902 0.3653004
-0.01990776 -0.009123524 0.1237919 0.055749025 -0.053557657 0.005124833 0.19249415 -0.015193493
0.09978737 -0.014906679 0.1310969 -0.008903465 0.15531263 0.09022977 -0.20429264 -0.0576843
0.05573886 0.051446103 -0.21915525 -0.009538863 0.14987342 0.03566058 0.055230375 -0.09423867
0.029621713 -0.009553242 -0.036335416 0.085507706 0.1543124 -0.0699411 0.08555338 0.20104042
0.052600596 -0.15097696 -0.17627902 -0.13883282 -0.11049411 -0.025434414 -0.054315526 0.010292014
0.028026463 -0.037325267 0.015934618 -0.024271192 0.057925638 -0.03403936 -0.020612663 -0.09948999
0.12551148 0.1310443 -0.101302184 -0.039156705 0.13934582 0.046813183 0.0748544 -0.041149355
0.19197816 0.085694216 0.08374559 -0.13029848 0.0427437 0.019199293 0.027539803 -0.14055271
-0.022880817 0.09712257 -0.17906173 -0.12190236 -0.008724364 -0.22131938 -0.0052047567 -0.05464674
0.08417939 0.11959227 0.27956828 0.17767863 -0.14465363 -0.067207284 0.10877404 -0.053109355
-0.10661138 -0.2629582 0.025151366 0.04895715 -0.061045174 -0.24135771 -0.056108166 0.11683011
-0.048046906 0.13654414 -0.044460032 0.14372388 0.19122688 0.060658406 -0.05310669 0.047480907
0.09309844 -0.05953996 -0.11131984 -0.011494455 -0.01436998 0.0013703025 0.015117016 0.2570431
-0.08643817 -0.05186227 -0.14429997 -0.04180078 0.034505274 0.10701424 0.010310165 0.14599723
0.0025925364 -0.014285937 0.31591678 0.16531008 0.084714085 0.028539997 0.007263993 0.10460673
0.061402787 -0.13764235 -0.015265895 0.0776805 0.061628323 -0.16603525 -0.111735925 -0.111176014
-0.04782934 0.11327563 0.013912998 0.1785324 0.027308946 0.3391287 0.061190657 -0.14276458
-0.11730842 -0.032265276 0.00011353112 0.23966375 0.12839124 -0.21527635 -0.07571861 0.09138852
0.11936042 -0.02357345 -0.15722422 0.05216214 0.027692603 -0.08920189 -0.0074585895 -0.07226182
-0.016586818 -0.084333174 -0.12046237 0.17283677 -0.29086354 0.053796243 -0.010099801 0.11001317
-0.21883385 -0.23692456 -0.048251737 0.14125048 -0.1323303 -0.10907911 0.18258443 -0.0025427127
00000000: 2949 873c 061a 81bd 32c7 06be 9ef0 d53d
00000010: da1d 5d3d cdfb b43d 2512 ffbd 0b18 52bd
00000020: a7bd dc3d 3611 a73c e381 df3d cc63 b93a
00000030: 04d8 933d 9c4b 2d3e 4891 693e 4236 e6bd
00000040: 3c56 953d e625 f8bd 072a acbc e783 95bc
00000050: 02a3 f7bb 19de 9abd c6fe 46bc 3533 5dbe
00000060: 6da3 2fbd b72d c33e d3ec f0bd b15c f7bd
00000070: b442 22be 2cc5 a83e 4680 46be 7990 aebc
00000080: 018e 2fbd 949a 0cbe d803 4c3c 533d 903e
00000090: 2f0a de3d e80d 9a3d 3d4e cb3d eac2 913d
000000a0: 480a aabc cdbe f8bc a8b6 df3c 6a25 25be
000000b0: 99c2 a9bc 7a05 09be 5efb af3d 3b7d e6bc
000000c0: 3b4e d5bd bb7e dbbc ed56 c7bc c230 833e
000000d0: 9940 c0bc ba1c 513d 1b78 d83c a571 323c
000000e0: 1276 debb 7ff5 abbc b444 aabd 45e8 6a3b
000000f0: 54ab 15be 5e05 7c3d 14bb 87bd 125f a73d
00000100: 0770 13be c5b0 a23d 4d0a 8ebc 5194 46bd
00000110: f71d 0dbe 3932 2fbe e06f b03d 91d5 9c3d
00000120: daae 8bbe 49bc a1bd e046 023e 1635 3a3e
00000130: 281a d43d 7d72 6e3e 5279 4f3e f150 113e
00000140: d471 54be 6cba 06bd 4d50 583d 2eec 913c
00000150: 8f9f 83bd b4c6 23be dfa9 4b3e a708 bb3e
00000160: 9915 a3bc d57a 15bc 9c86 fd3d 1759 643d
00000170: 465f 5bbd 37ee a73b 301d 453e 21ee 78bc
00000180: 525d cc3d 253b 74bc 443e 063e d7df 11bc
00000190: 460a 1f3e 63ca b83d 1732 51be 5f46 6cbd
000001a0: 6e4e 643d 26b9 523d 3c6a 60be e448 1cbc
000001b0: 6b78 193e d410 123d 3f39 623d 3400 c1bd
000001c0: 3ca9 f23c 3385 1cbc 72d4 14bd aa1e af3d
000001d0: 1204 1e3e 483d 8fbd 9c36 af3d 8add 4d3e
000001e0: b973 573d b499 1abe 7d82 34be 312a 0ebe
000001f0: bc4a e2bd d55b d0bc f579 5ebd d69f 283c
00000200: c197 e53c 61e2 18bd 5189 823c 61d4 c6bc
00000210: 6f43 6d3d db6c 0bbd e3db a8bc 68c1 cbbd
00000220: 1586 003e 7a30 063e 8577 cfbd c862 20bd
00000230: acb0 0e3e 2ebf 3f3d 434d 993d 3a8c 28bd
00000240: ec95 443e 7380 af3d cf82 ab3d f76c 05be
00000250: 0514 2f3d d647 9d3c 279b e13c 0ded 0fbe
00000260: 8d70 bbbc 33e8 c63d f55b 37be f2a7 f9bd
00000270: a3f0 0ebc 8ca1 62be aa8c aabb 43d5 5fbd
00000280: 3e66 ac3d cbec f43d 9323 8f3e 63f1 353e
00000290: 1520 14be f9a3 89bd edc4 de3d 3289 59bd
000002a0: 1157 dabd 75a2 86be 3d0a ce3c 4b87 483d
000002b0: 810a 7abd 7a26 77be add1 65bd a044 ef3d
000002c0: d5cc 44bd 3ad2 0b3e b91b 36bd 5a2c 133e
000002d0: fbd0 433e f374 783d 6786 59bd 577b 423d
000002e0: 65aa be3d 2ce0 73bd a8fb e3bd 3d53 3cbc
000002f0: 1170 6bbc b99b b33a 5cad 773c 279b 833e
00000300: 7f06 b1bd 886d 54bd 5fc3 13be 4b37 2bbd
00000310: 6755 0d3d 482a db3d f7eb 283c 4c80 153e
00000320: 8be7 293b 900f 6abc d8bf a13e 0c47 293e
00000330: 947e ad3d b6cc e93c ca06 ee3b 0e3c d63d
00000340: 7d81 7b3d 1ef2 0cbe ce1d 7abc f416 9f3d
00000350: fb6d 7c3d 2505 2abe ced5 e4bd 40b0 e3bd
00000360: b3e8 43bd 0efd e73d 58f3 633c 33d1 363e
00000370: 03b7 df3c 47a2 ad3e 0ea3 7a3d e130 12be
00000380: 663f f0bd 9828 04bd 8e17 ee38 6a6a 753e
00000390: fe78 033e 6771 5cbe 5c12 9bbd e829 bb3d
000003a0: 3c73 f43d 1c1d c1bc 63ff 20be f8a7 553d
000003b0: 99db e23c 7baf b6bd 2f67 f4bb 01fe 93bd
000003c0: 14e1 87bc dfb6 acbd fab4 f6bd 1ffc 303e
000003d0: 11ec 94be 7359 5c3d a379 25bc 964e e13d
000003e0: fb15 60be 5a9c 72be 9da3 45bd f7a3 103e
000003f0: 9881 07be de64 dfbd 6af7 3a3e a4a3 26bb

linear1.bias f4 [100]
-0.03682414 0.054908965 -0.009451003 0.055070106 0.057198714 0.023330525 -0.09076222 0.030874465
0.024143092 0.0112998905 0.0066339276 0.012760997 -0.01568001 -0.06521972 0.046164554 -0.016580215
0.061889056 0.02158745 -0.0049429582 -0.01483528 0.015000995 -0.069852 -0.03797973 0.041232415
0.07316696 0.06769355 -0.03529888 0.057963606 -0.14827304 -0.07683856 0.10899766 -0.0882507
0.07903409 -0.038334865 0.033431534 0.03942824 0.017469345 0.068193324 -0.018097434 0.013952698
-0.012876444 -0.008063293 0.025328202 -0.02167548 -0.01039201 0.0017905249 -0.020393305 0.0133779505
-0.040450826 0.034984697 -0.09086068 0.025830379 0.037778996 -0.061878074 0.033037163 0.056406733
-0.023042124 -0.074317575 -0.029650396 0.031662162 0.043269824 -0.10487422 0.009529299 0.085956626
0.049077373 -0.082269095 -0.025129968 0.03976557 -0.02298329 -0.09916413 0.043413695 -0.007272329
-0.03979664 -0.048035387 -0.03583955 0.0751788 -0.07330521 -0.04736464 -0.041967288 -0.0150973555
-0.046762675 0.03238304 -0.04108614 0.028655065 -0.024785629 -0.026444014 -0.040791567 0.08450517
-0.113600254 -0.031683847 0.044524606 0.036584288 0.06981192 -0.018667761 0.14934337 0.03113382
0.08180358 0.054362476 0.038498174 0.074550085
00000000: e9d4 16bd 39e8 603d 61d8 1abc 3191 613d
00000010: 3349 6a3d a81f bf3c 8be1 b9bd 72ec fc3c
00000020: bcc7 c53c 2d23 393c 6b61 d93b 8013 513c
00000030: 5d73 80bc eb91 85bd 0b17 3d3d 3bd3 87bc
00000040: 617f 7d3d 2ad8 b03c 8af8 a1bb ad0f 73bc
00000050: bcc6 753c 910e 8fbd a290 1bbd 52e3 283d
00000060: 8fd8 953d eaa2 8a3d 8f95 10bd 3f6b 6d3d
00000070: e3d4 17be 895d 9dbd 2a3a df3d c8bc b4bd
00000080: a0dc a13d 0505 1dbd 81ef 083d 827f 213d
00000090: df1b 8f3c f1a8 8b3d 1241 94bc db99 643c
000000a0: b8f7 52bc e71b 04bc 177d cf3c c790 b1bc
000000b0: 4043 2abc 0cb0 ea3a dc0f a7bc 312f 5b3c
000000c0: c4af 25bd 1d4c 0f3d 2a15 babd 3b9a d33c
000000d0: 26be 1a3d dd73 7dbd fa51 073d bf0a 673d
000000e0: d6c2 bcbc d033 98bd 63e5 f2bc 2fb0 013d
000000f0: b33b 313d 4cc8 d6bd c720 1c3c 070a b03d
00000100: 5b05 493d b37c a8bd 5ddd cdbc 39e1 223d
00000110: 7447 bcbc 9016 cbbd 8fd2 313d b84c eebb
00000120: cd01 23bd c1c0 44bd 7ecc 12bd 58f7 993d
00000130: 0b21 96bd 6d01 42bd e4e5 2bbd e65a 77bc
00000140: 388a 3fbd 14a4 043d f149 28bd 07be ea3c
00000150: 3b0b cbbc 1ea1 d8bc 0f15 27bd 0c11 ad3d
00000160: 40a7 e8bd ecc6 01bd 6f5f 363d 68d9 153d
00000170: 8df9 8e3d 22ed 98bc 78ed 183e 5a0c ff3c
00000180: a388 a73d 30ab 5e3d 43b0 1d3d b7ad 983d

batchnorm3.weight f4 [100]
0.6631703 1.0117284 0.7058445 1.0691268 0.46542424 0.59931135 1.0295991 0.866924
0.4788695 0.5929122 0.64277047 1.0067422 0.58309233 0.41499355 0.6150202 0.83245385
0.71017253 0.31426877 1.3359133 0.87743306 0.54731023 1.1981391 0.82788354 1.0021391
1.2361977 0.6865942 1.1437124 0.56151664 0.9286073 1.2232099 0.97264814 1.0695962
1.1071607 1.3301872 0.53153044 0.7980742 0.5563726 0.58240354 0.96834874 0.60199404
0.7504179 0.6176445 0.8138283 0.4499842 0.79810274 0.4784213 0.4772764 0.69316065
0.6951528 0.73636717 1.224751 0.43649885 0.56101614 1.2292323 0.7040135 1.2285359
0.4547638 1.2974726 1.2217011 0.5610556 0.8250292 1.432427 1.1779776 0.7207915
1.2869902 1.2705337 0.5434563 1.0465506 0.832089 0.92303836 1.0210487 1.0700334
0.41695252 0.4054783 0.6214634 0.85835916 1.1311189 0.9171382 0.3898782 0.7332368
0.43424112 0.62657493 0.9386333 0.45787752 -0.019443914 0.39558563 1.2502565 0.86831933
1.1949626 0.8097818 0.8414344 0.9557787 0.3783132 1.1698385 1.0731277 0.92822385
0.7710927 0.5541231 1.0661501 0.58659816
00000000: 87c5 293f 5180 813f 3ab2 343f 26d9 883f
00000010: 164c ee3e 786c 193f e7c9 833f bbee 5d3f
00000020: 622e f53e 18c9 173f 9b8c 243f eedc 803f
00000030: 8a45 153f 097a d43e f771 1d3f b21b 553f
00000040: decd 353f d6e7 a03e 35ff aa3f 749f 603f
00000050: 861c 0c3f 9f5c 993f 2df0 533f 1846 803f
00000060: ba3b 9e3f a3c4 2f3f 2b65 923f 8ebf 0f3f
00000070: 35b9 6d3f 2492 9c3f 78ff 783f 87e8 883f
00000080: 71b7 8d3f 9343 aa3f 6112 083f 974e 4c3f
00000090: 6f6e 0e3f 6618 153f b4e5 773f 481c 1a3f
000000a0: 631b 403f f31d 1e3f 0d57 503f 5464 e63e
000000b0: 7650 4c3f a3f3 f43e 935d f43e fa72 313f
000000c0: 89f5 313f 8f82 3c3f a4c4 9c3f c77c df3e
000000d0: c19e 0f3f 7c57 9d3f 3b3a 343f aa40 9d3f
000000e0: cdd6 e83e 9513 a63f b460 9c3f 57a1 0f3f
000000f0: 1d35 533f c559 b73f f8c7 963f cb85 383f
00000100: 18bc a43f d9a0 a23f f41f 0b3f 5ff5 853f
00000110: c903 553f 3e4c 6c3f b9b1 823f dbf6 883f
00000120: cd7a d53e da9a cf3e 3a18 1f3f 6dbd 5b3f
00000130: 81c8 903f 92c9 6a3f 1e9e c73e 68b5 3b3f
00000140: da54 de3e 3767 203f 464a 703f ec6e ea3e
00000150: d848 9fbc 338a ca3e 6808 a03f 2d4a 5e3f
00000160: 89f4 983f dc4d 4f3f 3f68 573f eaad 743f
00000170: 45b2 c13e 45bd 953f 405c 893f 14a0 6d3f
00000180: 5566 453f 03db 0d3f 9b77 883f 4c2b 163f

batchnorm3.bias f4 [100]
0.2627597 0.2587712 0.26631317 0.12925075 0.2561218 0.18483034 0.24300103 0.19581278
0.26531854 0.21286076 0.22728436 0.23509338 0.13313416 0.13015233 0.27239007 0.269993
0.27481374 0.21571615 0.3078345 0.2531156 0.2196348 0.38989326 0.22954476 0.20043913
0.35579136 0.15865695 0.2293256 0.2126051 0.30312094 0.30065975 0.28079194 0.23786913
0.1948725 0.19166218 0.23723602 0.25858876 0.22931816 0.21179496 0.2420266 0.24876623
0.1879768 0.23692714 0.20261225 0.19708785 0.34064007 0.2455694 0.20872502 0.16005282
0.21952204 0.21430229 0.23027626 0.23697816 0.28686216 0.28711358 0.26592228 0.22900684
0.28440168 0.27949807 0.31261134 0.21761811 0.14439557 0.29278228 0.23098804 0.25881228
0.25307757 0.31799185 0.19656734 0.20927134 0.28947526 0.05628534 0.27453727 0.27990985
0.19069535 0.24548331 0.2582292 0.13490362 0.17351487 0.24537781 0.15964636 0.20969023
0.24163769 0.1599834 0.26976305 0.16792075 -0.06353037 0.21484302 0.18810706 0.12011914
0.2634089 0.16255942 0.27274743 0.24966773 0.24922845 0.17191619 0.26361105 0.31785133
0.1919908 0.1924589 0.22782326 0.2826959
00000000: 7088 863e a97d 843e 335a 883e 4f5a 043e
00000010: 6622 833e 2a44 3d3e 43d5 783e 2583 483e
00000020: d5d7 873e 2cf8 593e 3bbd 683e 52bc 703e
00000030: 5254 083e a746 053e b676 8b3e 863c 8a3e
00000040: 63b4 8c3e b2e4 5c3e 7c9c 9d3e 5e98 813e
00000050: f2e7 603e 17a0 c73e c80d 6b3e ea3f 4d3e
00000060: 492a b63e f876 223e 55d4 6a3e 27b5 593e
00000070: ab32 9b3e 13f0 993e f6c3 8f3e f793 733e
00000080: a88c 473e 1743 443e 00ee 723e bf65 843e
00000090: 61d2 6a3e c7e0 583e d2d5 773e 93bc 7e3e
000000a0: fe7c 403e 079d 723e 9679 4f3e 66d1 493e
000000b0: 6068 ae3e 8b76 7b3e 03bc 553e e3e4 233e
000000c0: 63ca 603e 0f72 5b3e 8acd 6b3e 67aa 723e
000000d0: 99df 923e 8d00 933e f726 883e c580 6a3e
000000e0: 199d 913e 5f1a 8f3e 980e a03e 48d7 5e3e
000000f0: 6fdc 133e 8fe7 953e 2188 6c3e 0b83 843e
00000100: 6293 813e d4cf a23e f348 493e 3a4b 563e
00000110: 1a36 943e 758b 663d 2690 8c3e 5850 8f3e
00000120: a445 433e fa5f 7b3e 9e36 843e 2d24 0a3e
00000130: e2ad 313e 5244 7b3e 567a 233e 09b9 563e
00000140: df6f 773e b0d2 233e 621e 8a3e 6bf3 2b3e
00000150: 361c 82bd cfff 5b3e 239f 403e 0601 f63d
00000160: 88dd 863e fa75 263e 8da5 8b3e e6a8 7f3e
00000170: be35 7f3e cc0a 303e 07f8 863e 69bd a23e
00000180: 3c99 443e f213 453e 804a 693e 84bd 903e

batchnorm3.running_mean f4 [100]
-0.13161865 0.68052197 -0.2541272 0.034023974 0.31940082 0.28523117 -0.3606977 0.27364624
0.2777935 0.14355427 -0.36664614 0.13035257 -0.35836267 -0.51663995 0.043351058 -0.3032586
-0.9709729 -0.4753607 0.2931949 -0.057729103 -0.84394634 0.5200703 -0.67335427 -0.16400224
0.29903406 -0.041479822 0.45062298 -0.011461411 -0.27070376 0.32509208 0.40049762 -0.17257488
0.553026 0.013889945 0.32887867 0.085363306 0.6141736 -0.11821617 0.19154388 0.33027077
0.052341618 0.19915485 0.18514208 -0.818535 -0.26735297 -0.5155363 -0.038889937 -0.08442001
0.014970745 -0.6259257 -0.86487824 0.18036567 -0.46979606 0.47430247 0.32865342 -0.25045633
0.6193247 -0.22006378 0.13510323 0.25511336 -0.34096885 -0.75931394 0.16130088 0.28476924
-0.61062205 -0.5078873 -0.106812246 -0.34246624 -0.6218832 0.4548081 0.17513731 0.22499323
0.0931568 -0.70586896 -0.9574907 0.45925626 -0.44884023 0.070837215 -0.1628449 -0.25519204
0.1610447 -1.0866743 0.23619102 0.10098847 0.82467407 0.8815994 -0.28554037 0.9897519
-0.53524256 -0.25009078 -0.31905204 -0.18991838 -0.12956494 0.14051935 0.36762848 -0.3826445
-0.43974522 0.111876115 1.0087692 0.6313832
00000000: 0ac7 06be b036 2e3f f61c 82be b95c 0b3d
00000010: 8188 a33e d209 923e 5ead b8be 5c1b 8c3e
00000020: f33a 8e3e e4ff 123e 0bb9 bbbe 257b 053e
00000030: 507b b7be 8442 04bf e190 313d b644 9bbe
00000040: ae91 78bf 7a62 f3be a41d 963e 5a75 6cbd
00000050: de0c 58bf 5423 053f f260 2cbf 34f0 27be
00000060: fe1a 993e bfe6 29bd 0eb8 e63e a4c8 3bbc
00000070: af99 8abe 7872 a63e 060e cd3e 78b7 30be
00000080: 1d93 0d3f a792 633c c962 a83e f5d2 ae3d
00000090: 7b3a 1d3f 521b f2bd 1424 443e 4019 a93e
000000a0: 2a64 563d 40ef 4b3e e395 3d3e 828b 51bf
000000b0: 7de2 88be 30fa 03bf 0e4b 1fbd 66e4 acbd
000000c0: db47 753c ab3c 20bf a968 5dbf c7b1 383e
000000d0: 1c89 f0be c6d7 f23e 4345 a83e d03b 80be
000000e0: 108c 1e3f 6658 61be 8058 0a3e 389e 823e
000000f0: 7893 aebe 6662 42bf 0f2c 253e 46cd 913e
00000100: ba51 1cbf e704 02bf 61c0 dabd bc57 afbe
00000110: bd33 1fbf 9bdc e83e 3257 333e a064 663e
00000120: fec8 be3d d4b3 34bf 1c1e 75bf a323 eb3e
00000130: 63ce e5be 1a13 913d d0c0 26be 88a8 82be
00000140: e7e8 243e 2518 8bbf 0fdc 713e 0bd3 ce3d
00000150: d71d 533f 80b0 613f 5932 92be 6160 7d3f
00000160: a805 09bf e60b 80be ca5a a3be f779 42be
00000170: acac 04be 4ee4 0f3e cd39 bc3e fbe9 c3be
00000180: 4926 e1be 4e1f e53d 591f 813f 54a2 213f

batchnorm3.running_var f4 [100]
0.7999758 0.671406 0.35108972 0.9649401 0.7572421 0.43114802 1.2057598 0.478991
0.9846383 0.9813889 0.69588566 0.41304585 0.64746326 0.5877287 0.7217288 0.62003434
0.5759454 0.60103154 0.6710991 0.4476635 0.6810618 0.52819073 0.549927 0.5708743
0.63691235 0.5579392 0.70434403 0.6298054 0.48598874 0.5705672 0.26331174 0.61038184
0.489709 0.34364536 0.7391762 0.65227157 0.72799534 0.49197355 0.6235421 0.79069126
0.792314 0.65545344 0.63684034 0.6494545 0.42028788 0.57705367 0.7482715 0.32032093
0.4087365 0.48723486 0.46992883 0.8403192 0.6006491 0.6840611 0.6367207 0.6342884
0.7673736 0.7778003 0.58580345 0.6394428 0.44394165 0.42169923 0.9949974 0.65956116
0.8235754 0.47483477 0.6251315 0.59856856 0.764868 0.5262513 0.53765774 0.86998576
0.5206137 0.62353 0.5708107 0.35758862 0.43085158 0.3755565 0.4873429 0.8550112
0.61605257 0.7299148 0.68708044 0.9469247 0.140532 0.7857652 0.76836467 0.55533576
0.41455546 0.82927376 0.5200792 0.6987948 0.72596127 0.4038859 0.5947534 0.3607456
0.67018676 0.747522 0.6555558 0.557015
00000000: 37cb 4c3f 43e1 2b3f 08c2 b33e 5006 773f
00000010: 9eda 413f 6fbf dc3e 5656 9a3f 4f3e f53e
00000020: 4111 7c3f 4e3c 7b3f 9025 323f bf7a d33e
00000030: 27c0 253f 6375 163f 38c3 383f 92ba 1e3f
00000040: 2871 133f 34dd 193f 27cd 2b3f 2634 e53e
00000050: 115a 2e3f 8237 073f 04c8 0c3f d124 123f
00000060: b00c 233f 1ad5 0e3f e44f 343f ed3a 213f
00000070: 84d3 f83e b110 123f ccd0 863e fc41 1c3f
00000080: 23bb fa3e 49f2 af3e a73a 3d3f 45fb 263f
00000090: e75d 3a3f f5e3 fb3e 74a0 1f3f be6a 4a3f
000000a0: 17d5 4a3f cccb 273f f807 233f a642 263f
000000b0: f92f d73e cab9 133f b98e 3f3f 1b01 a43e
000000c0: e945 d13e d976 f93e 839a f03e 291f 573f
000000d0: 24c4 193f a11e 2f3f 2100 233f b960 223f
000000e0: 9972 443f ec1d 473f 37f7 153f 86b2 233f
000000f0: 524c e33e f6e8 d73e 26b8 7e3f 00d9 283f
00000100: d6d5 523f 8b1d f33e 9e08 203f ca3b 193f
00000110: 64ce 433f 68b8 063f f0a3 093f 63b7 5e3f
00000120: f046 053f a99f 1f3f a620 123f db15 b73e
00000130: 9498 dc3e f148 c03e 0285 f93e 04e2 5a3f
00000140: 9fb5 1d3f b2db 3a3f 81e4 2f3f a869 723f
00000150: 9fe7 0f3e e827 493f 8cb3 443f 7c2a 0e3f
00000160: 9d40 d43e 494b 543f e923 053f 37e4 323f
00000170: 99d8 393f 22ca ce3e c241 183f a6b3 b83e
00000180: 5c91 2b3f 9a5d 3f3f 81d2 273f 8998 0e3f

linear2.weight f4 [10, 100]
0.21006037 0.2541279 -0.075776346 -0.38945928 -0.37913483 -0.3718705 -0.41718268 -0.2901816
-0.33364612 -0.14255439 -0.38198665 -0.21406244 0.004281786 -0.1679519 0.17824392 -0.37594873
-0.32398492 -0.2978903 -0.3198619 0.40410328 -0.5151565 0.19258906 0.21782668 -0.3825233
0.26869723 0.34782332 0.26095197 -0.16480322 0.3117166 0.24547982 0.056369487 0.3028375
-0.48717484 -0.28897616 0.22139719 -0.29534364 -0.35436246 -0.23766862 0.28730717 0.124270596
0.253472 0.3306957 -0.009929802 -0.48715988 0.2915256 -0.25063124 -0.18730152 0.40094948
-0.34438443 -0.2937422 -0.17885798 -0.22755271 -0.47379148 0.19188158 -0.50064725 -0.36363807
0.0749515 -0.03495507 -0.115288585 -0.32776543 -0.32377937 0.31316006 0.19210546 -0.34732428
-0.39135703 0.25912175 0.3529861 -0.26126903 -0.0670863 -0.16695724 -0.12843429 0.043391556
-0.23088166 0.36504725 -0.45375073 -0.015318973 -0.20449519 -0.22349496 -0.20589411 -0.008169999
-0.22342296 -0.3385769 0.06607075 0.41584826 -0.03476929 -0.41923067 -0.2428016 -0.08899363
-0.22507875 -0.026091691 -0.32063645 -0.43943396 -0.16960931 -0.14058001 0.010637607 -0.22494751
-0.24159274 -0.11033778 0.2996217 -0.18288125 -0.11786687 -0.16336632 -0.57385796 0.16842167
0.31243303 -0.19616379 -0.38152578 0.10232893 -0.46132702 0.25468123 -0.5758705 -0.37684888
0.041297525 -0.19503188 -0.17716038 -0.58942336 -0.40014344 0.07982747 0.19552542 -0.24749178
-0.49455526 -0.43213215 -0.32770985 0.09722248 -0.42911252 -0.23983443 -0.34965363 -0.1481808
-0.25149998 -0.105801 0.27889737 -0.31808105 -0.32901648 -0.29607362 -0.07117842 -0.391614
0.3027747 0.34430772 -0.035079904 -0.33741716 -0.16760409 -0.32135752 -0.386849 -0.23038048
-0.36366096 -0.4058257 -0.28016347 -0.38621435 0.21974029 -0.37982252 -0.48167157 -0.4368877
0.2265054 -0.0109349135 -0.21793449 -0.39395848 -0.0055638147 -0.50976163 0.21020906 0.3600198
-0.29986405 -0.26502767 -0.26852024 -0.4555724 0.23540543 0.08846326 -0.28818703 -0.46634296
-0.5778876 0.12197128 -0.66020197 0.2936458 0.026821766 -0.25955474 -0.5202578 -0.14307746
0.31317702 0.2580638 -0.26761284 -0.3956769 0.19085908 0.16601086 -0.5266204 -0.20225005
-0.032695863 -0.03910496 0.23060794 0.34949008 0.18746462 0.24169229 0.19949016 0.27359012
-0.44767833 0.26074898 -0.38912055 -0.6240656 -0.07367495 -0.16754588 0.07876891 -0.67077625
0.13261347 -0.3085227 -0.06375174 -0.24144824 -0.041357264 -0.0067555937 0.26279387 -0.30394498
0.16624847 -0.50798106 -0.4384232 0.1462978 -0.29307264 0.28534397 0.3406031 0.19351046
-0.2121202 -0.029146029 -0.326431 -0.45734414 -0.029663185 -0.19771713 -0.22748244 -0.24301766
-0.38200775 -0.16837466 0.023539126 -0.36781436 -0.2846409 0.117656246 0.22616154 -0.2224917
0.2806355 -0.23024043 0.14685656 0.13455196 0.24648257 0.022876838 -0.05576404 0.29972744
0.2516613 -0.21672165 -0.3825542 0.2766315 -0.21728294 -0.26573986 -0.29606465 -0.2133566
0.1889474 -0.029743642 -0.19289295 0.18424731 -0.15584932 -0.25823745 -0.37950698 0.18915148
00000000: 111a 573e 0d1d 823e a130 9bbd 3567 c7be
00000010: f61d c2be cf65 bebe f898 d5be af92 94be
00000020: aad3 aabe c7f9 11be c193 c3be 2f33 5bbe
00000030: 394e 8c3b 95fb 2bbe 9385 363e 5a7c c0be
00000040: 5ae1 a5be 1485 98be f0c4 a3be a0e6 ce3e
00000050: 4ce1 03bf 1136 453e f50d 5f3e 18da c3be
00000060: af92 893e e615 b23e 7f9b 853e 2dc2 28be
00000070: 5199 9f3e 105f 7b3e b1e3 663d 840d 9b3e
00000080: fb6e f9be aff4 93be f2b5 623e 4837 97be
00000090: ff6e b5be 675f 73be ed19 933e 9581 fe3d
000000a0: 15c7 813e f250 a93e 9cb0 22bc 056d f9be
000000b0: d842 953e bd52 80be f8cb 3fbe 4049 cd3e
000000c0: 2853 b0be 6165 96be 8c26 37be 9403 69be
000000d0: cc94 f2be 9b7c 443e 6b2a 00bf c52e babe
000000e0: 2c80 993d 0c2d 0fbd 6c1c ecbd dfd0 a7be
000000f0: 69c6 a5be 8456 a03e 4bb7 443e 7dd4 b1be
00000100: f35f c8be 9bab 843e 98ba b43e 0ec5 85be
00000110: 8b64 89bd d7f6 2abe 4784 03be 58bb 313d
00000120: 3e6c 6cbe 79e7 ba3e 0452 e8be 6efc 7abc
00000130: 3067 51be dddb 64be e8d5 52be 76db 05bc
00000140: fdc8 64be f459 adbe 1a50 873d 10ea d43e
00000150: 3e6a 0ebd 67a5 d6be fca0 78be 4b42 b6bd
00000160: 0b7b 66be 3ebe d5bc 762a a4be 7dfd e0be
00000170: 10ae 2dbe 35f4 0fbe 5c49 2e3c a458 66be
00000180: 1664 77be c6f8 e1bd 0468 993e 3945 3bbe
00000190: 2f64 f1bd 8049 27be 5be8 12bf bb76 2c3e
000001a0: 39f7 9f3e 29df 48be 5957 c3be d491 d13d
000001b0: 0e33 ecbe 9465 823e 406c 13bf 56f2 c0be
000001c0: 9827 293d 70b6 47be 8869 35be 73e4 16bf
000001d0: 9adf ccbe 967c a33d d137 483e 7c6e 7dbe
000001e0: 5936 fdbe 6d40 ddbe 96c9 a7be 941c c73d
000001f0: a3b4 dbbe 2897 75be cd05 b3be b5bc 17be
00000200: 9bc4 80be 32ae d8bd a3cb 8e3e 85db a2be
00000210: d974 a8be f696 97be fec5 91bd a181 c8be
00000220: 4905 9b3e 1a49 b03e f2af 0fbd f1c1 acbe
00000230: 68a0 2bbe f988 a4be 1211 c6be dce8 6bbe
00000240: c531 babe 63c8 cfbe 9671 8fbe e3bd c5be
00000250: 9903 613e 1978 c2be a89d f6be bfaf dfbe
00000260: 08f1 673e 5a28 33bc 382a 5fbe edb4 c9be
00000270: a950 b6bb bd7f 02bf 0b41 573e 8454 b83e
00000280: c887 99be b5b1 87be 7c7b 89be c940 e9be
00000290: 1f0e 713e 3a2c b53d 408d 93be 81c4 eebe
000002a0: 71f0 13bf 14cc f93d ff02 29bf be58 963e
000002b0: 52b9 db3c 5ce4 84be 9d2f 05bf e682 12be
000002c0: bd58 a03e f020 843e 8d04 89be 2a96 cabe
000002d0: 9070 433e c0fe 293e 98d0 06bf a31a 4fbe
000002e0: 19ec 05bd 862c 20bd 7d24 6c3e 5df0 b23e
000002f0: baf6 3f3e 2f7e 773e 2647 4c3e 0114 8c3e
00000300: 1836 e5be e480 853e cf3a c7be c3c2 1fbf
00000310: e4e2 96bd 2691 2bbe 9851 a13d feb7 2bbf
00000320: d3cb 073e b0f6 9dbe 4690 82bd 353e 77be
00000330: 3c66 29bd 075e ddbb eb8c 863e ad9e 9bbe
00000340: 0a3d 2a3e 0c0b 02bf 0179 e0be 17cf 153e
00000350: 9e0d 96be 9b18 923e 8863 ae3e 9b27 463e
00000360: 0a36 59be a7c3 eebc f721 a7be 0329 eabe
00000370: 3500 f3bc 5c76 4abe 28f1 68be 9fd9 78be
00000380: 8596 c3be 686a 2cbe 20d5 c03c 2a52 bcbe
00000390: 74bc 91be c2f5 f03d e496 673e ddd4 63be
000003a0: 75af 8f3e 26c4 6bbe 9161 163e fdc7 093e
000003b0: ed65 7c3e 3568 bb3c d668 64bd e075 993e
000003c0: c0d9 803e 48ec 5dbe 25de c3be a5a2 8d3e
000003d0: 6b7f 5ebe 0e0f 88be c995 97be 277a 5abe
000003e0: 6d7b 413e f0a8 f3bc bb85 45be 54ab 3c3e
000003f0: f796 1fbe b337 84be bd4e c2be edb0 413e

linear2.bias f4 [10]
-0.20683804 0.081752844 -0.03275594 0.024589775 0.010616887 0.10391204 -0.12420446 -0.08551695
0.044037078 0.20793335
00000000: 5acd 53be 096e a73d 182b 06bd 7f70 c93c
00000010: 74f2 2d3c d6cf d43d e85e febd 8323 afbd
00000020: 3960 343d 7bec 543e
